tut1-model.pt (torch_old, 250433 bytes, 14 tensors)

encoder.embedding.weight f4 [28, 32]
0	0xbd8f4c17	-0.06996935
1	0xbd8a602f	-0.06756627
2	0xbd72e1ff	-0.059297558
3	0xbc6969e1	-0.014246435
4	0x3d14b1ee	0.0363025
5	0x3c207ce1	0.009795398
6	0xbc79cc05	-0.015246396
7	0xbd85ed83	-0.065394424
8	0x3cc7844d	0.024355078
9	0x3d10a28d	0.03531127
10	0x3d9ded98	0.07711333
11	0xba5b0c29	-0.0008355999
12	0x3c271833	0.010198641
13	0xbb982d00	-0.0046440363
14	0xbd6fa642	-0.058508165
15	0x3d280b1c	0.04102622
16	0xbcaaae4f	-0.02083507
17	0x3d2569e1	0.040384177
18	0x3cf51a24	0.029919691
19	0xbd82169f	-0.06351971
20	0xbd9e403b	-0.07727095
21	0x3d69d773	0.057090234
22	0x3c097d52	0.008391695
23	0x3d29e72e	0.041480236
24	0xbd1be12c	-0.038056538
25	0x3d4cd6b1	0.050009433
26	0x3d2fe900	0.042946815
27	0x3c7663e1	0.015038461
28	0xbca3f2fb	-0.020013323
29	0x3da1999b	0.07890626
30	0x3d95f9ae	0.07323013
31	0xbbb26f48	-0.0054453947
32	0xbd9abd0e	-0.075555906
33	0x3d28e9ac	0.041238472
34	0xbd7b67e6	-0.061378382
35	0x3c5c1d7b	0.013434763
36	0x3d3b45a6	0.04572072
37	0x3d628edf	0.055312034
38	0xbbed3500	-0.007238984
39	0xbc8d190a	-0.017223854
40	0xbcefa388	-0.029252782
41	0xbc00a40a	-0.00785161
42	0xbd572f4f	-0.05253535
43	0x3d2a0245	0.04150607
44	0x3d96bd3c	0.07360312
45	0xbd8ceda7	-0.06881266
46	0xbd92bf3b	-0.071653806
47	0x3d0bd26c	0.03413622
48	0x3cbbda38	0.022931203
49	0x3cc282f6	0.023744088
50	0x3cc1d5d2	0.023661528
51	0xbc20701f	-0.009792357
52	0x3c82f605	0.015986452
53	0xbd4ad463	-0.049518954
54	0xbd3e4b41	-0.046458486
55	0xbd61d223	-0.055132043
56	0x3d949f49	0.07256944
57	0xbd9e33de	-0.07724737
58	0xbd023780	-0.03179121
59	0x3d96fc18	0.07372302
60	0x3cc75680	0.024333239
61	0x3d31a00a	0.043365516
62	0xbda1d542	-0.07902004
63	0x3d979105	0.07400707
64	0xbede7bbb	-0.43453774
65	0xbf3c5440	-0.73566055
66	0x3eec33df	0.46133325
67	0xbdf00ff8	-0.11721796
68	0xbee3bad7	-0.44478485
69	0x3dd7f284	0.10544303
70	0xbec7c9c6	-0.39021128
71	0x3f8bc81a	1.0920441
72	0xbe39716c	-0.18109673
73	0xbec63510	-0.38712358
74	0x3e8fc683	0.2808114
75	0x3f05ec94	0.52314115
76	0x3f027707	0.5096287
77	0xbf16b18e	-0.58864677
78	0xbf0b6f58	-0.5446677
79	0x3e2ff5ed	0.17183657
80	0x3d4b4928	0.049630314
81	0xbe8b9d2a	-0.27268344
82	0x3e01ba1d	0.12668653
83	0xbf3a3816	-0.7274183
84	0xbec664b4	-0.38748705
85	0xbf226f98	-0.6345153
86	0xbdbc5a30	-0.091968894
87	0xbdb752d9	-0.08951349
88	0xbd8af565	-0.067850865
89	0x3e9e18c3	0.30878267
90	0x3f382a1b	0.7193925
91	0xbeea4d57	-0.4576213
92	0xbef29fcf	-0.4738755
93	0xbe8eaee6	-0.27867812
94	0xbdacb851	-0.08433593
95	0xbe902bdc	-0.28158462
96	0xbd6c3411	-0.057666842
97	0xbf27a63d	-0.65488034
98	0x3d233cd7	0.039852943
99	0xbe3b8445	-0.18312176
100	0xbeb8c217	-0.3608558
101	0x3ea6640a	0.324982
102	0xbebd83ea	-0.37014705
103	0xbe4d2067	-0.20031892
104	0xbe3b7b85	-0.18308838
105	0xbf62dcb2	-0.88618004
106	0xbe8f0a69	-0.2793763
107	0x3eb27c12	0.34860283
108	0xbe46b3b8	-0.19404495
109	0x3cdf113b	0.027229896
110	0x3e90e86c	0.28302324
111	0x3da1f25a	0.07907553
112	0x3e1c9225	0.15290125
113	0x3e345460	0.17610312
114	0xbea8472d	-0.32866803
115	0xbf10f908	-0.5662999
116	0xbeb2f850	-0.34955072
117	0xbe85e6b5	-0.26152578
118	0x3f426c4c	0.759465
119	0xbeaeee48	-0.3416617
120	0xbc491779	-0.012273663
121	0x3e56b3d4	0.20967036
122	0x3f0d9826	0.55310285
123	0xbb116eee	-0.0022191363
124	0x3e9d8683	0.30766687
125	0x3c143849	0.009046623
126	0xbdd31d40	-0.10308313
127	0xbd97e47a	-0.07416625
128	0x3ed3fd4f	0.41404197
129	0x3e572e4f	0.21013759
130	0xbdb8b396	-0.09018628
131	0xbf26883c	-0.6505163
132	0xbefc9f4c	-0.49340284
133	0x3e0348d1	0.12820746
134	0xbe9c188e	-0.30487484
135	0xbebd36eb	-0.36955962
136	0x3e0c2b1a	0.13688317
137	0x3faadaca	1.3348019
138	0x3e32da80	0.17466164
139	0x3eb2fe28	0.3495953
140	0x3e169dec	0.1470868
141	0x3e042e07	0.12908183
142	0xbebd8cae	-0.37021393
143	0x3e907809	0.2821658
144	0xbe19cf6b	-0.1502053
145	0x3e21c1a6	0.15796527
146	0xbb0a7daa	-0.002113203
147	0xbc4788fc	-0.012178656
148	0x3df94cf9	0.121728845
149	0xbd523906	-0.051323913
150	0xbf0a96e4	-0.5413649
151	0xbf6a0bc1	-0.91424185
152	0xbe8563ff	-0.26052853
153	0xbe4560cb	-0.19275205
154	0x3e15de7b	0.14635651
155	0x3f404916	0.7511152
156	0x3ca827fa	0.020526875
157	0xbf2a5d15	-0.6654828
158	0xbe599da4	-0.21251541
159	0xbe918a03	-0.28425607
160	0xbee84978	-0.45368552
161	0x3f251773	0.64488906
162	0x3e213662	0.15743402
163	0xbe57540b	-0.21028154
164	0x3c9ba3e7	0.018999053
165	0xbe0866c2	-0.13320449
166	0x3eba6db4	0.36411822
167	0xbe67a66a	-0.22622076
168	0xbebdab21	-0.37044623
169	0xbf1b9b17	-0.60783523
170	0xbea3cc04	-0.3199159
171	0xbf39c6a5	-0.7256873
172	0x3e1a713f	0.15082262
173	0xbf4e0ae1	-0.8048535
174	0x3e951489	0.2911723
175	0xbea445c2	-0.3208447
176	0x3e838d56	0.25693768
177	0x3eb3f7b4	0.3514992
178	0x3e580959	0.21097316
179	0x3e470965	0.19437177
180	0x3ef4b5f9	0.47795084
181	0x3dbd8de0	0.09255576
182	0xbdfbdac8	-0.122975886
183	0xbf1cf959	-0.61317974
184	0xbe9227c7	-0.28545973
185	0x3ecd5016	0.40100163
186	0x3f0079df	0.5018596
187	0xbebf1a07	-0.37324545
188	0xbf06087b	-0.5235669
189	0x3db7b754	0.08970514
190	0x3ac9cffe	0.001539707
191	0xbf3e57d8	-0.7435279
192	0xbe57261a	-0.21010628
193	0x3dc27e6f	0.094967715
194	0x3ee44231	0.4458175
195	0x3f10d2c8	0.56571627
196	0x3e9b4c08	0.30331445
197	0x3cb3cedd	0.021949226
198	0x3f07fe25	0.5312217
199	0x398cc06d	0.0002684625
200	0xbab836b7	-0.0014054392
201	0xbf898334	-1.0743165
202	0xbf9b8693	-1.2150444
203	0xbef3d72e	-0.47625107
204	0xbe1ab1f6	-0.15106949
205	0x3ee9427b	0.45558533
206	0x3ea48545	0.32132927
207	0x3e89453e	0.2681064
208	0x3e4acad9	0.19803943
209	0x3e8bf311	0.27333882
210	0x3e7fa209	0.24964155
211	0x3dd6db74	0.10491076
212	0xbecfcc15	-0.4058539
213	0xbebc3cac	-0.3676504
214	0xbe909e8d	-0.28245965
215	0x3e6b3254	0.22968417
216	0x3f3fd01e	0.74926937
217	0x3f8a5848	1.0808191
218	0x3e5f9876	0.21835503
219	0xbf32fd44	-0.699177
220	0x3eb15e96	0.34642476
221	0x3e65873f	0.22414874
222	0xbed7a727	-0.42119715
223	0xbf20d85b	-0.6283013
224	0xbebf34fc	-0.3734511
225	0xbf3eeb5a	-0.7457787
226	0xbeb60802	-0.35552984
227	0x3f59627c	0.849159
228	0x3efbe0e2	0.4919501
229	0xbf162476	-0.58649385
230	0x3fbf6182	1.4951632
231	0x3f34902d	0.70532495
232	0x3ea276fa	0.31731397
233	0x3ddb4251	0.10706008
234	0xbfa2d802	-1.272217
235	0x3eddf661	0.43352035
236	0xbe5e0ac1	-0.2168379
237	0x3f0c19d6	0.5472692
238	0x3ef4fa1f	0.47847077
239	0x3fb325bc	1.3995891
240	0xbe9b963f	-0.30388066
241	0xbe1c6b23	-0.15275244
242	0x3f10f1a4	0.56618714
243	0xbf14bc55	-0.5809987
244	0xbecd062e	-0.40043777
245	0xbcef69f4	-0.029225327
246	0xbf004a26	-0.5011314
247	0x3f065dad	0.5248669
248	0x3dfd9635	0.12382165
249	0x3fe00b3e	1.7503431
250	0x3e1fa2a9	0.15589394
251	0xbeae9ac3	-0.3410245
252	0x3ebc70c0	0.3680477
253	0xbfb6bb72	-1.4275954
254	0xbf26572a	-0.6497675
255	0xbebfea4c	-0.37483442

encoder.LSTM.weight_ih_l0 f4 [256, 32]
0	0x3e05ae1c	0.13054699
1	0xbeadb746	-0.3392889
2	0x3f13e9b9	0.5777851
3	0xbe571180	-0.2100277
4	0xbf50f84b	-0.81628865
5	0x3e5a1a65	0.21299131
6	0x3f4fa4ef	0.81111044
7	0xbd1f6055	-0.03891023
8	0xbf3b3dd0	-0.73141193
9	0xbebba177	-0.36646625
10	0xbf47d5fb	-0.78060883
11	0x3deed7bb	0.11662241
12	0xbf088301	-0.53324896
13	0x3ded65b2	0.115916625
14	0xbec74900	-0.38922882
15	0x3eccad6e	0.39976066
16	0xbe5689f7	-0.20951067
17	0x3d07956d	0.033101488
18	0x3f378ab0	0.71695995
19	0xbeaea491	-0.3410993
20	0x3f27ecc2	0.6559564
21	0xbf0bad66	-0.5456146
22	0xbf74c13e	-0.95607364
23	0xbf45d19d	-0.7727297
24	0x3e843824	0.25824082
25	0x3f2b092b	0.66810864
26	0x3edf397d	0.43598548
27	0xbe0e0bee	-0.13871738
28	0x3e0e8377	0.13917337
29	0xbe1b36c5	-0.15157612
30	0xbee66c1c	-0.45004356
31	0xbf1d16ad	-0.61362725
32	0x3f38cf18	0.72191
33	0x3f091b80	0.53557587
34	0x3ea5bccb	0.323706
35	0xbe86645a	-0.26248437
36	0xbd399658	-0.045309395
37	0xbc21750f	-0.009854569
38	0x3f2d988d	0.678109
39	0xbef74178	-0.48292136
40	0xbf39b9b7	-0.72549003
41	0xbe436e7b	-0.19085114
42	0xbf3ba048	-0.73291445
43	0xbc929f91	-0.017898353
44	0xbf1dfcd3	-0.61713904
45	0x3e70f727	0.23531781
46	0xbe47ba4f	-0.19504665
47	0x3f357474	0.7088082
48	0xbccd49a0	-0.025059521
49	0x3f1eb529	0.6199518
50	0x3f3d00ac	0.7382915
51	0xbe8d7c06	-0.27633685
52	0x3f38ca7d	0.7218397
53	0x3d8b9f93	0.06817546
54	0xbf45f2ce	-0.77323616
55	0xbf2aedf3	-0.6676933
56	0xbe07f4b6	-0.13276944
57	0x3f1171c9	0.5681425
58	0xbe08dd14	-0.13365585
59	0xbf172048	-0.5903363
60	0x3d8c62d7	0.0685479
61	0xbf1925db	-0.5982339
62	0xbea8a59e	-0.32938856
63	0xbf28a860	-0.6588192
64	0x3e375d79	0.1790675
65	0x3e9c6d0c	0.30551946
66	0x3e98b53b	0.29825768
67	0xbf15a5f4	-0.5845635
68	0x3e171ee2	0.14757875
69	0xbe2c9f73	-0.168577
70	0x3fb8d909	1.4441234
71	0xbe0c920e	-0.1372759
72	0x3d1c07c6	0.03809335
73	0xbd95a2b0	-0.07306421
74	0xbf144e39	-0.5793186
75	0xbec406de	-0.3828649
76	0xbff8edc4	-1.944756
77	0xbf201323	-0.625292
78	0x3f4437a2	0.7664739
79	0x3ec93832	0.39300686
80	0x3f06e2bb	0.52689713
81	0xbf716c9a	-0.9430634
82	0x3fe3515c	1.7759204
83	0xbe86028a	-0.26173812
84	0x3feee410	1.8663349
85	0x3f087c71	0.5331488
86	0xbfbe4cbc	-1.4867167
87	0xbf904983	-1.1272434
88	0xbddf8bfe	-0.10915373
89	0xbdf3b947	-0.11900573
90	0xbeda983c	-0.4269427
91	0xbcb7cc03	-0.022436148
92	0xbed9c749	-0.42534855
93	0xbef5b3f1	-0.47988847
94	0xbef680c3	-0.48145112
95	0xbe1945a4	-0.14967972
96	0x3e3b7af6	0.18308625
97	0x3e20d7ee	0.1570737
98	0x3f000f1a	0.50023043
99	0xbd5da36d	-0.054110933
100	0x3ea13ae2	0.31490237
101	0xbe66643f	-0.22499178
102	0x3e66e2ce	0.22547457
103	0x3cc124c0	0.023577094
104	0x3d854bf9	0.06508631
105	0xbdb5c42d	-0.08875308
106	0xbea4a54b	-0.3215736
107	0x3ee871c3	0.45399293
108	0xbe2ec382	-0.17066768
109	0x3e401276	0.18757042
110	0x3e3eeafb	0.18644325
111	0x3eba6fdb	0.36413464
112	0x3e2f1bc7	0.1710044
113	0xbc272d18	-0.010203622
114	0x3e22de10	0.15905023
115	0xbe5ca0ec	-0.21545762
116	0x3c84dbf6	0.016218167
117	0x3c8eec50	0.017446667
118	0xbe948389	-0.29006603
119	0xbe9cea71	-0.30647615
120	0xbe07d627	-0.13265286
121	0x3e1dc379	0.15406598
122	0x3d4039cd	0.046930123
123	0xbec3ba50	-0.38228083
124	0xbdfedae6	-0.12444095
125	0xbf39adfb	-0.725311
126	0x3dd6273c	0.10456702
127	0xbde2392c	-0.11046061
128	0x3e8b89f5	0.2725369
129	0x3ebed3d1	0.37270978
130	0x3f03ccdd	0.5148447
131	0x3e5340f2	0.20630243
132	0x3e3454c4	0.1761046
133	0xbe8d7b2d	-0.27633038
134	0x3f1bf346	0.6091808
135	0xbe068c18	-0.13139379
136	0xbe19d1f3	-0.15021496
137	0x3f05ffd6	0.523435
138	0xbed9a3c7	-0.42507765
139	0x3e8cd4bc	0.27506053
140	0x3db747ad	0.08949218
141	0x3ea08111	0.3134847
142	0xbdf44466	-0.119271085
143	0x3d96c372	0.07361497
144	0x3e2e3690	0.17013001
145	0xbd964902	-0.07338144
146	0x3e33c635	0.17556079
147	0x3e80dc0e	0.25167888
148	0x3d8fbdd2	0.07018627
149	0x3e225c8c	0.15855616
150	0xbedcb357	-0.43105575
151	0xbdddd756	-0.10832088
152	0xbca51b9b	-0.020154765
153	0x3ec28784	0.37994015
154	0xbe88864e	-0.26664966
155	0xbf1bd5e6	-0.6087326
156	0xbe3090c7	-0.17242728
157	0xbed8d038	-0.42346358
158	0x3cea6e0f	0.028616933
159	0xbec58ed1	-0.38585523
160	0x3ecb7875	0.3974034
161	0xbf270d64	-0.6525481
162	0xbe81fe4f	-0.25389335
163	0xbc657134	-0.0140040405
164	0x3e8be744	0.2732488
165	0x3e3f73f7	0.18696581
166	0xbde64b68	-0.11244851
167	0xbdcc8ac6	-0.099874064
168	0xbead919e	-0.3390016
169	0xbf419ccc	-0.7562988
170	0x3eb326ff	0.3499069
171	0x3f7a18dd	0.9769419
172	0xbb662cfa	-0.0035122023
173	0x3e3c0627	0.18361722
174	0xbecd41ed	-0.4008936
175	0x3fa76188	1.3076639
176	0x3e56eb13	0.20988111
177	0x3de1f73c	0.11033484
178	0xbea23317	-0.31679603
179	0xbf5e86a8	-0.8692422
180	0xbdc0a05b	-0.094055854
181	0x3e8b4adf	0.2720556
182	0x3f00e83e	0.50354373
183	0x3ee1ba7a	0.44087583
184	0xbf231bec	-0.6371448
185	0x3f23c0d2	0.63966095
186	0x3ea6da67	0.32588503
187	0xbf2ec757	-0.6827292
188	0xbf438f9d	-0.7639101
189	0x3deedf49	0.11663682
190	0x3e82545c	0.25454986
191	0x3ec37df3	0.3818203
192	0x3f666272	0.89993966
193	0xbf3a2ec8	-0.7272763
194	0x3dff80ac	0.12475714
195	0x3e9a1a94	0.30098403
196	0x3e9472d1	0.28993848
197	0xbe851556	-0.2599284
198	0x3e703fcf	0.23461841
199	0xbd2a684b	-0.041603368
200	0xbef16dc9	-0.47154072
201	0x3eb3334c	0.35000074
202	0x3e28a832	0.16470411
203	0x3e434298	0.19068372
204	0xbf27c256	-0.6553091
205	0xbe09e942	-0.13467887
206	0x3d1c7504	0.038197532
207	0x3f30a821	0.69006544
208	0xbc58ff10	-0.013244405
209	0x3ea51429	0.32241943
210	0x3d735218	0.059404463
211	0xbf845068	-1.0337038
212	0xbe18dbfe	-0.1492767
213	0xbe91cd52	-0.2847696
214	0xbe5d4ffb	-0.21612541
215	0x3eb1aed5	0.347037
216	0xbeabfd78	-0.3359182
217	0xbc4f545d	-0.012654391
218	0xbf729b6b	-0.947684
219	0x3f351231	0.7073088
220	0xbb08304f	-0.0020780747
221	0x3cb25de6	0.02177329
222	0xbf48d6f2	-0.7845298
223	0x3e8d13ed	0.27554265
224	0x3ededb00	0.4352646
225	0xbe2fe754	-0.17178088
226	0x3e90a388	0.28249764
227	0x3e5f0d74	0.21782476
228	0x3f008478	0.5020213
229	0xbf779f9f	-0.9672794
230	0x3ec25f8c	0.3796352
231	0xbdaaa8bc	-0.08332965
232	0x3ed5611d	0.41675654
233	0xbe414ff2	-0.18878153
234	0xbe9f455a	-0.311076
235	0x3ebd20d0	0.36939096
236	0xbea19fe4	-0.315673
237	0xbe67d58d	-0.22640057
238	0x3f4f43d8	0.80962896
239	0x3e241784	0.16024595
240	0x3f190b04	0.59782434
241	0x3eb88d7a	0.36045438
242	0x3eb6e32c	0.35720193
243	0xbf2c4cbd	-0.67304593
244	0xbf05f361	-0.5232449
245	0x3e94b3fe	0.29043573
246	0xbdfa0471	-0.122078784
247	0x3ed7af64	0.42126
248	0xbf079e5d	-0.5297602
249	0x3ea644ae	0.32474273
250	0x3e584bef	0.21122716
251	0xbf267a54	-0.6503041
252	0x3e04540f	0.12922691
253	0xbf33eb03	-0.70280474
254	0xbf30811a	-0.68946993
255	0xbe8e6636	-0.27812356

encoder.LSTM.weight_hh_l0 f4 [256, 64]
0	0xbe84b0c5	-0.25916114
1	0x3d920dc0	0.07131529
2	0x3e023729	0.12716354
3	0xbeba4ac8	-0.3638518
4	0x3db9762d	0.09055743
5	0x3f1d94d0	0.61555195
6	0xbe1bce10	-0.15215325
7	0x3e80d1d2	0.2516008
8	0xbc29ab4b	-0.010355781
9	0xbba836c4	-0.0051334817
10	0xbc342de4	-0.010997269
11	0x3d0fa19e	0.03506624
12	0x3ebb3dba	0.3657053
13	0x3ed21c06	0.41037005
14	0xbe62f2c7	-0.22162925
15	0xbe139480	-0.14412117
16	0xbd5e3c1a	-0.054256536
17	0x3ed0a045	0.40747276
18	0x3d522a10	0.051309645
19	0x3e957145	0.2918798
20	0xba9f3d1e	-0.0012148952
21	0x3db2dc3a	0.08733411
22	0x3cf33495	0.029688159
23	0x3e23b46b	0.15986793
24	0x3e082ea8	0.13299048
25	0x3ca51f4f	0.02015653
26	0x3dd0a465	0.10187606
27	0x3cef1bfd	0.02918815
28	0xbc83608e	-0.016037252
29	0x3e1cba47	0.15305434
30	0xbe0b5e1d	-0.1361012
31	0x3e5305e5	0.20607717
32	0x3ddbd663	0.107342504
33	0xbedcfa5b	-0.43159756
34	0x3e83454c	0.25638807
35	0xbccd93c8	-0.025094882
36	0x3dce6cea	0.100793675
37	0x3e832c31	0.25619653
38	0xbdd57ae2	-0.10423829
39	0xbe37e9e3	-0.17960314
40	0xbc2aae6e	-0.010417564
41	0xbec0c249	-0.37648228
42	0x3eb7f511	0.35929158
43	0xbcc3c647	-0.023898257
44	0x3cfcb2a0	0.030846894
45	0x3be92fee	0.0071163094
46	0xbdeefa50	-0.11668837
47	0xbe9ea1f4	-0.30982935
48	0xbe225db5	-0.15856059
49	0xbdaefdf9	-0.08544535
50	0xbd579932	-0.052636333
51	0x3da783f6	0.081794664
52	0x3df4d913	0.11955466
53	0xbe532957	-0.20621239
54	0xbe6216e9	-0.22079052
55	0x3ef42366	0.47683257
56	0x3c866807	0.016407026
57	0x3db747e9	0.08949263
58	0x3d06cd1e	0.03291046
59	0x3e22c523	0.15895514
60	0x3e9c591c	0.30536735
61	0x3da457ec	0.08024582
62	0x3e762d7f	0.24040793
63	0x3e7adcee	0.2449834
64	0x3ddaae05	0.10677723
65	0x3e232978	0.15933788
66	0xbf1297ae	-0.57262695
67	0x3e99030a	0.2988513
68	0xbe06870f	-0.13137458
69	0xbe1f4f19	-0.15557517
70	0x3e9951fa	0.29945356
71	0xbf03bd2f	-0.51460546
72	0x3ef98fc1	0.48742488
73	0xbe83bf79	-0.2573202
74	0xbe9a5ff1	-0.30151322
75	0x3d13ee98	0.036116213
76	0xbf036a22	-0.5133382
77	0xbe7e1807	-0.24813853
78	0x3e717bd2	0.2358239
79	0x3d7c73dd	0.061633933
80	0xbde823d6	-0.1133496
81	0xbe9ae58e	-0.3025326
82	0xbf135b99	-0.5756164
83	0x3f0ff9ed	0.5624073
84	0xbe141749	-0.14462008
85	0x3d96eae4	0.073690206
86	0x3d529d89	0.05141977
87	0x3f15365b	0.58286065
88	0xbe064564	-0.13112408
89	0x3e0272d1	0.12739111
90	0xbf05fae8	-0.5233598
91	0xbdd27666	-0.10276489
92	0x3e4a3727	0.19747601
93	0x3f0ab090	0.54175663
94	0xbcdf7c10	-0.027280837
95	0x3f3b95d7	0.7327551
96	0x3e441c00	0.19151306
97	0x3e1a3e32	0.15062788
98	0x3dc13be0	0.094352484
99	0xbe1d9ff6	-0.15393052
100	0x3d90e9aa	0.07075818
101	0xbeb18d40	-0.34678078
102	0xbce6f881	-0.028194668
103	0x3cdf8189	0.027283447
104	0xbcfaf951	-0.030636461
105	0x3e0e310a	0.13885894
106	0x3e22b8c1	0.1589079
107	0xbe18a18a	-0.14905372
108	0xbdded87d	-0.108811356
109	0xbe9f0c24	-0.3106395
110	0x3e4ab0c8	0.19793999
111	0xbdf85c29	-0.12126953
112	0x3d0a7acd	0.03380852
113	0x3ea0c765	0.31402126
114	0x3e8e979d	0.27850047
115	0xbd8feb9c	-0.07027361
116	0xbe2fe03b	-0.17175381
117	0xbdf3dbab	-0.11907133
118	0xbddcac07	-0.10774999
119	0xbd52e105	-0.051484127
120	0xbdf5d78c	-0.12004003
121	0x3cda85ae	0.026675072
122	0xbe15da78	-0.1463412
123	0xbe5fb5c1	-0.21846677
124	0xbf12b963	-0.5731413
125	0xbe2d01f5	-0.16895278
126	0xbd28c23d	-0.041200865
127	0x3e8fb8ba	0.28070623
128	0xbe58f7e2	-0.2118831
129	0xbde90b7c	-0.113791436
130	0x3f1986cb	0.599713
131	0x3d3956ad	0.045248676
132	0xbddb9a8d	-0.107228376
133	0x3ee0f882	0.43939596
134	0xbe6a49b5	-0.2287968
135	0xbd90ab28	-0.070638955
136	0x3e2aec37	0.16691671
137	0x3e908bff	0.2823181
138	0x3e0d130e	0.137768
139	0x3da44889	0.080216475
140	0x3e4b15c2	0.19832519
141	0x3d346320	0.044039845
142	0xbccc40d7	-0.024933262
143	0xbe60a31d	-0.21937223
144	0x3c3df242	0.011593403
145	0x3e1e76ae	0.1547496
146	0xbc83e31f	-0.01609951
147	0xbd602acb	-0.05472831
148	0xbd77e1c7	-0.060518052
149	0x3e4a78d2	0.19772652
150	0xbe89f06a	-0.26941234
151	0x3c833e1c	0.016020827
152	0x3e9f44a5	0.3110706
153	0x3b3c6209	0.0028744957
154	0xbde46204	-0.111515075
155	0x3dfe9dfc	0.12432477
156	0x3d54cfb1	0.051955882
157	0xbf03fa97	-0.51554245
158	0x3ed5de75	0.41771284
159	0x3ea3ddb9	0.32005098
160	0x3da8df5b	0.08245727
161	0x3e97d0c4	0.29651463
162	0x3e19fbbb	0.15037434
163	0x3dda8fb6	0.10671942
164	0xbdd453c9	-0.10367543
165	0xbe0a6e4e	-0.1351864
166	0x3daf2855	0.085526146
167	0xbc52e9ff	-0.012873172
168	0xbdbcd170	-0.092196345
169	0xbd815732	-0.06315459
170	0x3eb7f1a0	0.35926533
171	0x3e5020f3	0.20325069
172	0xbd9c81e0	-0.07641959
173	0x3e07e6ac	0.13271588
174	0xbea5e0c4	-0.32398045
175	0xbe780c76	-0.24223503
176	0x3ef61f16	0.48070592
177	0xbe94506f	-0.28967616
178	0x3e2556fb	0.16146462
179	0x3c4369c5	0.011927073
180	0x3e017684	0.12642866
181	0xbdb90040	-0.09033251
182	0xbe3813b7	-0.1797627
183	0x3d749fb6	0.059722625
184	0x3d59961f	0.053121682
185	0x3f15cced	0.58515817
186	0x3e42cb02	0.19022754
187	0x3e6b53ab	0.22981136
188	0x3caf0ff7	0.021369917
189	0x3e31e364	0.17371899
190	0xbf056c18	-0.5211806
191	0x3e92cb76	0.28670853
192	0xbef1cfb6	-0.47228783
193	0xbe55c1cc	-0.20874709
194	0xbf219462	-0.6311704
195	0x3e9ce282	0.30641562
196	0xbd24c2fc	-0.040225014
197	0xbd9148c1	-0.07093955
198	0xbe28d783	-0.16488461
199	0xbf38898f	-0.720849
200	0xbd5a132c	-0.05324094
201	0xbdb80a1e	-0.08986305
202	0xbdae2095	-0.08502308
203	0xbe845d3c	-0.25852382
204	0xbed3e9c2	-0.4138928
205	0xbe9906ba	-0.29887944
206	0x3da0c6d8	0.078504264
207	0x3eeff241	0.46864513
208	0x3e928bf5	0.28622404
209	0xbe45296c	-0.19254082
210	0xbd2a0e43	-0.041517507
211	0xbf892325	-1.071385
212	0x3e464f18	0.1936611
213	0x3e56a8ba	0.20962802
214	0x3db6ad53	0.08919778
215	0xbe68e9a7	-0.22745381
216	0xbc099778	-0.008397929
217	0xbe995fa9	-0.29955795
218	0xbd117bca	-0.035518445
219	0xbe348463	-0.17628627
220	0xbe7f806a	-0.2495133
221	0xbec1e68e	-0.37871212
222	0x3db255ad	0.087077476
223	0xbe643199	-0.22284545
224	0xbc9aed3c	-0.01891195
225	0x3f1a027e	0.6016005
226	0x3cc23299	0.023705767
227	0x3d8d1197	0.068881206
228	0xbdcfc5e1	-0.10145164
229	0xbe76a27c	-0.2408542
230	0x3eb7a9f5	0.35871854
231	0x3dd70602	0.10499193
232	0x3ee643c1	0.44973567
233	0x3dd7ae3a	0.10531278
234	0xbe37af31	-0.17937924
235	0x3c35f34c	0.01110537
236	0x3ef7c769	0.48394325
237	0xbd83054a	-0.06397493
238	0x3dbc8ce0	0.09206557
239	0x3dca6fec	0.09884629
240	0x3e6ed2a6	0.23322544
241	0x3e2ad506	0.16682824
242	0xbe003649	-0.12520708
243	0x3e8f21e0	0.27955532
244	0xbd1e6a0a	-0.038675345
245	0xbdc7094c	-0.0971857
246	0xbde1a1ff	-0.110172264
247	0xbdb3dd4b	-0.08782443
248	0x3d5678da	0.052361347
249	0xbe4112f4	-0.18854886
250	0xbea329d9	-0.31867865
251	0xbf50720b	-0.81424016
252	0xbea598da	-0.3234318
253	0x3f078674	0.52939534
254	0xbe5d487d	-0.21609683
255	0x3dfba18f	0.12286674

encoder.LSTM.bias_ih_l0 f4 [256]
0	0x3f3a9134	0.7287781
1	0x3f222f99	0.6335388
2	0x3e6f447c	0.23365968
3	0x3e9179f8	0.28413367
4	0x3ea87312	0.32900292
5	0x3e1e4231	0.15454938
6	0x3cd2a868	0.025715068
7	0x3e5a349c	0.21309131
8	0x3e5a8145	0.21338375
9	0x3ddc4c34	0.10756722
10	0x3e854448	0.26028657
11	0x3e884885	0.26617828
12	0x3ed9ee66	0.42564696
13	0x3e8406d5	0.25786462
14	0xbd66ca94	-0.056345537
15	0x3f8ca7a3	1.0988659
16	0xbe24e4c4	-0.16102892
17	0x3f19d648	0.6009259
18	0x3e933494	0.2875105
19	0x3e21e52c	0.15810078
20	0x3edad78d	0.42742577
21	0x3eeb9fe4	0.46020424
22	0x3ddd2ed3	0.10799947
23	0x3e9ab80f	0.3021855
24	0x3cad233f	0.02113497
25	0x3e745d08	0.23863614
26	0x3e996eaf	0.29967257
27	0x3e95129d	0.29115763
28	0x3e847145	0.25867668
29	0x3e390614	0.18068725
30	0x3ef4093c	0.47663295
31	0x3f042202	0.5161439
32	0x3e921671	0.28532746
33	0x3ef7b754	0.48382056
34	0xbe11b40b	-0.14228837
35	0x3edccc9e	0.4312486
36	0x3e1ec413	0.15504484
37	0x3f63ef0c	0.8903663
38	0x3d558b99	0.052135084
39	0x3eafa8bd	0.34308425
40	0x3e8a13e3	0.26968297
41	0x3e9fa3dd	0.31179705
42	0xbd9c1c08	-0.07622534
43	0x3e397faa	0.18115106
44	0x3ed751e7	0.42054674
45	0x3e0efba5	0.13963182
46	0x3ea5a75a	0.32354242
47	0x3e35bb25	0.17747171
48	0x3e6abd86	0.2292386
49	0x3d8cf192	0.068820134
50	0x3ed52287	0.41627905
51	0x3f4d33a2	0.8015691
52	0x3e18a5d4	0.14907008
53	0x3e247ad9	0.16062488
54	0x3f23e7ad	0.64025384
55	0x3d453129	0.048142586
56	0xbd89c7ab	-0.06727537
57	0x3f42e64a	0.76132643
58	0x3cdc7ddc	0.026915483
59	0xbd32753f	-0.043568846
60	0x3ede131c	0.43373954
61	0xbd2f408d	-0.04278617
62	0x3ec1f521	0.3788233
63	0x3d56a5e8	0.052404314
64	0x3e684640	0.22683048
65	0x3e457aab	0.19285075
66	0xbd70ec59	-0.05881915
67	0x3f09ee8d	0.53879625
68	0x3e43cb54	0.19120532
69	0xbd6a7fc9	-0.05725077
70	0x3d7c016a	0.061524786
71	0x3d94c25b	0.07263633
72	0x3e378e4b	0.17925374
73	0x3e2a12e6	0.16608772
74	0x3eb76fde	0.35827535
75	0x3e85d22a	0.26136905
76	0x3e1dde1b	0.15416758
77	0x3d64a78d	0.05582385
78	0x3e6ba96f	0.23013853
79	0x3dee2295	0.1162769
80	0x3ddd4289	0.10803706
81	0xbd7bc7c0	-0.061469793
82	0x3e153dd7	0.14574371
83	0x3e1e1e83	0.15441327
84	0x3e54f743	0.20797448
85	0xbe4c454b	-0.19948308
86	0xbdd0b8d6	-0.10191505
87	0x3ec620b0	0.38696814
88	0x3e257907	0.1615945
89	0x3e2fbefb	0.17162697
90	0x3e41895b	0.18900053
91	0x3c8d2997	0.017231746
92	0x3daa69f6	0.08320992
93	0x3e1e28b3	0.15445213
94	0xbe3bd2f5	-0.18342192
95	0x3e196ecb	0.1498367
96	0x3e327c7d	0.17430301
97	0x3e8954f4	0.26822627
98	0x3d4a223d	0.04934906
99	0xbc9fbbc8	-0.01949872
100	0x3e58f3c0	0.21186733
101	0x3e563a3c	0.20920652
102	0x39bd7b19	0.00036140604
103	0x3d98a21f	0.07452797
104	0x3e57ceac	0.21074933
105	0x3d2a8eb2	0.04163999
106	0x3bb3eb1c	0.0054906737
107	0x3e520888	0.20511067
108	0xbdb66662	-0.08906247
109	0x3e0978a8	0.13424933
110	0x3df60d92	0.12014307
111	0x3e2cc1f1	0.16870858
112	0x3cdd2ca2	0.026998822
113	0x3d97753f	0.0739541
114	0xbe5cf37f	-0.21577261
115	0x3e2ac549	0.16676821
116	0x3da95ec1	0.08270026
117	0x3e057b58	0.13035333
118	0xbe156f60	-0.14593267
119	0x3e4b3aa3	0.19846587
120	0x3d585ba6	0.052821778
121	0x3e90490a	0.28180724
122	0x3e3e249e	0.18568656
123	0x3d7dcb74	0.061961606
124	0x3e647608	0.2231065
125	0xbcca73a0	-0.024713337
126	0xbe39cf73	-0.18145542
127	0x3de8b3d1	0.11362422
128	0x3ed8bab0	0.4232993
129	0x3f10d58d	0.5657585
130	0x3ddf9b6a	0.10918315
131	0x3c053e89	0.008132585
132	0xbe875b17	-0.26436684
133	0x3d9fcec6	0.07803111
134	0x3e8e450e	0.2778706
135	0xbe3d7280	-0.1850071
136	0xbc1ec844	-0.009691302
137	0x3e71d450	0.23616147
138	0xbe4e6262	-0.20154718
139	0x3eb7de02	0.35911566
140	0x3e4d4a22	0.2004781
141	0x3e081d51	0.13292433
142	0x3e2f075f	0.17092656
143	0xbf35d35f	-0.7102565
144	0xbdd6cb82	-0.10488035
145	0x3ce29ef4	0.027663685
146	0xbe8c39bf	-0.27387807
147	0x3e6060a0	0.2191186
148	0xbf049609	-0.51791435
149	0xbcdacfa7	-0.026710344
150	0xbe4f04c5	-0.20216663
151	0xbcbf66d3	-0.02336446
152	0xbd353d20	-0.044247746
153	0x3ee1a086	0.44067782
154	0xbe4d9326	-0.20075664
155	0x3ead937e	0.3390159
156	0x3f01d257	0.5071158
157	0x3e6ef3f1	0.23335244
158	0xbd44227a	-0.047884442
159	0x3f267141	0.6501656
160	0x3ee7c969	0.4527085
161	0x3ccbc8bb	0.02487599
162	0x3e5faf31	0.21844174
163	0x3e4311e3	0.19049792
164	0xbdf28705	-0.11842159
165	0xbe4d95ec	-0.20076722
166	0x3e0c26ac	0.13686627
167	0x3eb560cc	0.35425413
168	0xbe20ed91	-0.15715624
169	0xbdea053e	-0.11426781
170	0xbd9d82e6	-0.076909825
171	0x3eae713e	0.34070772
172	0xbe8e47aa	-0.2778905
173	0x3dfbb73e	0.1229081
174	0x3dd0eff2	0.10202016
175	0xbea990ae	-0.33118194
176	0x3eb799e1	0.35859588
177	0x3df5f484	0.12009528
178	0x3d401778	0.04689738
179	0xbf0e0340	-0.5547371
180	0xbe49c34b	-0.19703405
181	0x3e75733e	0.23969743
182	0xbd7adf75	-0.06124826
183	0x3d90a98e	0.0706359
184	0xbd81742a	-0.06320985
185	0x3f1e2334	0.61772466
186	0x3e48c258	0.19605386
187	0xbca166d4	-0.019702353
188	0x3de90ac5	0.11379007
189	0xbd879c9d	-0.066216685
190	0x3e581e51	0.21105315
191	0x3cad34de	0.021143373
192	0x3e745d00	0.23863602
193	0xbdf9a074	-0.12188807
194	0x3f0d5895	0.5521329
195	0x3e914b9a	0.28377992
196	0xbde07208	-0.1095925
197	0x3e87a61e	0.26493925
198	0xbe3018bf	-0.1719694
199	0x3eda9921	0.42694953
200	0x3f48ed1c	0.784868
201	0xbcefa1d5	-0.029251972
202	0x3f30623c	0.68899894
203	0x3dacadd9	0.08431596
204	0x3f029c60	0.5101986
205	0x3ea20137	0.31641552
206	0xbdade1f2	-0.08490361
207	0x3ebd3128	0.36951566
208	0x3e248502	0.16066363
209	0x3de1bba9	0.110221215
210	0x3f21fdd2	0.63277924
211	0x3d0e4b5a	0.03473983
212	0x3d435540	0.047688723
213	0x3ee771ae	0.45203918
214	0x3e965b17	0.2936637
215	0x3f7647b7	0.9620318
216	0xbe11d0a2	-0.14239743
217	0x3e8d7c94	0.27634108
218	0x3f005a92	0.501382
219	0x3c839214	0.016060866
220	0x3ea994f2	0.3312145
221	0xbd110d6d	-0.035413194
222	0x3f09b38c	0.5378959
223	0x3f23d168	0.63991404
224	0x3dafaa8b	0.0857745
225	0x3eea566c	0.4576906
226	0xbd9bcbad	-0.076072074
227	0x3e160782	0.14651302
228	0x3e4fa178	0.20276439
229	0x3ed8849e	0.4228868
230	0x3dc5b302	0.09653284
231	0x3de03085	0.10946754
232	0x3e6cb1b9	0.23114671
233	0x3d4cbaac	0.04998271
234	0x3d25bccc	0.040463254
235	0x3e99391b	0.2992638
236	0x3f18db9c	0.597101
237	0x3e8998d3	0.26874408
238	0x3f09b272	0.5378791
239	0x3e8ec5a8	0.27885175
240	0x3eb71384	0.35757077
241	0x3cdb8ef9	0.026801573
242	0x3f32149c	0.695627
243	0x3eb9b42d	0.36270276
244	0x3e684573	0.22682743
245	0x3c4b0c9d	0.012393144
246	0x3f27d83a	0.6556431
247	0x3d8a1d32	0.0674385
248	0xbbc0089a	-0.0058604004
249	0x3ea11eef	0.31468913
250	0x3d21838f	0.039432105
251	0x3e200df6	0.15630326
252	0x3d97b682	0.074078575
253	0x3da456b7	0.08024352
254	0x3ebd9079	0.37024286
255	0x3afaeaff	0.0019143521

encoder.LSTM.bias_hh_l0 f4 [256]
0	0x3f30ee4c	0.6911361
1	0x3f1eae33	0.61984557
2	0x3e546b5a	0.20744076
3	0x3e981339	0.29702166
4	0x3e965e48	0.29368806
5	0x3e5fb157	0.21844994
6	0x3de73bf5	0.11290733
7	0x3e0ca46e	0.137346
8	0x3e881581	0.26578906
9	0x3dac2ecf	0.084073655
10	0x3e3c3009	0.18377699
11	0x3e931489	0.28726605
12	0x3ed67d06	0.4189226
13	0x3e7e97b9	0.24862565
14	0xbd835e5e	-0.064144835
15	0x3f95f70e	1.171602
16	0xbd479748	-0.048728257
17	0x3f1fac7a	0.62372553
18	0x3ed1a220	0.40944004
19	0x3d24d89c	0.040245637
20	0x3ee3f390	0.4452176
21	0x3ec8e2d7	0.39235565
22	0x3d6c939f	0.05775797
23	0x3ea9c73a	0.3315981
24	0x3da0be80	0.07848835
25	0x3e414c07	0.18876658
26	0x3e87d7a5	0.2653171
27	0x3e97ce77	0.29649708
28	0x3e8a9b1d	0.27071467
29	0x3e381b95	0.17979272
30	0x3ed8434d	0.42238846
31	0x3f204d42	0.62617886
32	0x3e9394e6	0.28824538
33	0x3efb8d28	0.4913113
34	0xbd91cad4	-0.071187645
35	0x3eba08f6	0.36334962
36	0x3e6df8d7	0.23239456
37	0x3f526c00	0.82196045
38	0x3c35b2ec	0.011090022
39	0x3eac5129	0.3365567
40	0x3e9e1585	0.30875793
41	0x3e5dd6e6	0.21664008
42	0xbd2298e4	-0.03969659
43	0x3e6a6e75	0.22893699
44	0x3f0c9b39	0.5492435
45	0x3e455369	0.192701
46	0x3ec5d8a4	0.38641846
47	0x3e0a6a37	0.1351708
48	0x3def2944	0.11677793
49	0x3d16401f	0.036682244
50	0x3ede7f84	0.43456662
51	0x3f49d6a4	0.7884314
52	0x3dd8c0cb	0.10583647
53	0x3d9e0353	0.07715478
54	0x3f18a809	0.596314
55	0x3d010b67	0.031505015
56	0xbd15f08f	-0.036606368
57	0x3f3be0c8	0.73389864
58	0x3d932b22	0.07185961
59	0xbdcbffad	-0.09960876
60	0x3f09573d	0.5364874
61	0xbe0f9e93	-0.14025335
62	0x3e98dd14	0.2985617
63	0x3d5908ca	0.052986898
64	0x3e1fe0cb	0.15613095
65	0x3e5ff296	0.21869883
66	0xbe3cc25f	-0.18433522
67	0x3eee13d6	0.4649951
68	0x3dee44a6	0.116341874
69	0xbd1904f0	-0.037358224
70	0x3cfd50b4	0.030922271
71	0x3daf1adb	0.08550044
72	0x3e2232f0	0.15839744
73	0x3e80bd9c	0.2514466
74	0x3ee2f9ff	0.44331357
75	0x3eaf760d	0.34269753
76	0x3e3d1375	0.18464454
77	0x3d52fca1	0.051510457
78	0x3e057d05	0.13035972
79	0x3dc2d9df	0.09514212
80	0x3e121884	0.14267164
81	0xbc94f11e	-0.01818138
82	0x3daf2900	0.08552742
83	0x3e2c7479	0.16841306
84	0x3dde436c	0.108527035
85	0xbe4a73d7	-0.19770752
86	0xbda2e22d	-0.07953296
87	0x3eadaa28	0.3391888
88	0x3d86e816	0.06587236
89	0x3e86aba0	0.26302814
90	0x3dc0658e	0.0939437
91	0x3d0c028f	0.034182128
92	0x3dcf0f69	0.10110361
93	0x3e012e50	0.12615323
94	0xbd911d2b	-0.070856415
95	0x3e3b340b	0.18281572
96	0x3dda9541	0.10672999
97	0x3ec068fc	0.37580097
98	0x3d8b9a15	0.06816498
99	0xbd394bc2	-0.045238264
100	0x3e5b08c4	0.21390063
101	0x3e5ac520	0.2136426
102	0x3d215498	0.039387316
103	0x3e0104db	0.12599508
104	0x3e3f755d	0.18697114
105	0x3d7ae81e	0.06125652
106	0xbd51b86a	-0.05120126
107	0x3e7c4d15	0.2463878
108	0x3c291298	0.0103193745
109	0x3e3d5c6f	0.18492292
110	0x3e11d4cc	0.14241332
111	0x3e58c751	0.21169783
112	0x3c979036	0.018501382
113	0x3dcc10ed	0.09964166
114	0xbe5ca07b	-0.21545593
115	0x3e2150db	0.157535
116	0x3e0575e3	0.13033251
117	0x3bf716b4	0.007540548
118	0xbe83f9e1	-0.2577658
119	0x3dad7b7a	0.08470817
120	0xbc19c242	-0.009384694
121	0x3e8ba98a	0.27277786
122	0x3e5e2db6	0.21697125
123	0xbd97136d	-0.07376752
124	0x3ddec5f0	0.10877597
125	0xbceb8efc	-0.028754704
126	0xbe058847	-0.13040267
127	0x3da3ace0	0.07991958
128	0x3f0fb727	0.56138843
129	0x3f076828	0.52893305
130	0xbc5f592c	-0.0136321
131	0x3db152da	0.08658381
132	0xbe805d0f	-0.25070998
133	0x3e544f3b	0.20733349
134	0x3e7fec1f	0.24992417
135	0xbe8ab18c	-0.27088583
136	0xbcc912f1	-0.024545165
137	0x3e94499f	0.28962418
138	0xbe23883b	-0.15969937
139	0x3ed91e88	0.42406106
140	0x3dd9e5e1	0.10639549
141	0x3dc4c521	0.09607912
142	0x3db88ec5	0.09011606
143	0xbf3c60bf	-0.7358512
144	0xbdc35ef0	-0.09539592
145	0x3d44bddd	0.04803263
146	0xbe9906b1	-0.29887918
147	0x3e141942	0.1446276
148	0xbf214a5d	-0.63004094
149	0xbd1eb3cb	-0.038745683
150	0xbe4a36ef	-0.19747518
151	0xbd47d204	-0.04878427
152	0xbe18a22b	-0.14905612
153	0x3f08d6d1	0.53452784
154	0xbe669284	-0.22516829
155	0x3eaf1ab9	0.34200075
156	0x3f005089	0.50122887
157	0x3e8b0b01	0.27156833
158	0xbde75c70	-0.11296928
159	0x3f1a851f	0.60359377
160	0x3ecb67df	0.39727685
161	0xbd59a617	-0.05313691
162	0x3e702ff0	0.23455787
163	0x3e88803c	0.26660335
164	0xbc00be1c	-0.007857826
165	0xbe41ce17	-0.18926273
166	0x3d30cb5b	0.043162685
167	0x3ebdb0d4	0.37048972
168	0xbc31980b	-0.0108394725
169	0xbe3ee0f7	-0.18640505
170	0x3c5b1e32	0.013373898
171	0x3eaa78b6	0.3329522
172	0xbe884653	-0.26616153
173	0x3dc88e5f	0.0979278
174	0x3dc854bb	0.09781786
175	0xbec89685	-0.39177337
176	0x3e925a60	0.28584576
177	0x3cd1acd6	0.02559511
178	0x3d496601	0.049169544
179	0xbef69744	-0.48162282
180	0xbe896b56	-0.26839703
181	0x3e778da3	0.24175124
182	0xbd87704a	-0.06613214
183	0x3d9d5ffd	0.07684324
184	0xbd9f86e1	-0.07789398
185	0x3f0fdea8	0.5619912
186	0x3e7450e1	0.23858978
187	0xbd11bb55	-0.035579044
188	0x3dd16a4f	0.10225355
189	0xbbe40763	-0.0069588884
190	0x3e40ac2a	0.18815675
191	0xbda40086	-0.08007912
192	0x3e265878	0.16244686
193	0xbd0c2428	-0.03421417
194	0x3f1e0187	0.6172108
195	0x3e95f539	0.29288653
196	0xbe24331e	-0.16035125
197	0x3e4a86e7	0.19778024
198	0xbcd5684f	-0.026050715
199	0x3edbb7a9	0.4291356
200	0x3f6a215e	0.91457164
201	0x3d65bc83	0.056087982
202	0x3f2f73d9	0.68536144
203	0x3d22c346	0.03973701
204	0x3ef6b05f	0.48181435
205	0x3e9f02c7	0.31056806
206	0xbc81b27c	-0.015832178
207	0x3ec9525c	0.39320648
208	0x3d47366e	0.048635893
209	0x3e7edab3	0.24888115
210	0x3f1b689a	0.60706484
211	0x3dfe5839	0.12419171
212	0x3ddb2138	0.10699695
213	0x3edfa27f	0.43678662
214	0x3e937df0	0.2880702
215	0x3f761e6c	0.9614017
216	0xbe27f0d6	-0.16400465
217	0x3e562870	0.20913863
218	0x3eeca43b	0.46219048
219	0x3cec08f1	0.028812857
220	0x3eb5d580	0.3551445
221	0xbda2f7c5	-0.079574145
222	0x3ed75133	0.42054138
223	0x3f2a214c	0.66457057
224	0x3df8f77f	0.12156581
225	0x3ec6a95f	0.38801095
226	0xbdb6abae	-0.08919464
227	0x3e3dde1d	0.1854176
228	0x3dc2ffe2	0.09521462
229	0x3f0c8b0b	0.5489966
230	0xbd117ef1	-0.03552145
231	0x3dbfccb6	0.093652174
232	0x3e732845	0.2374583
233	0x3d245097	0.04011592
234	0xbc0f122e	-0.008732362
235	0x3e85209d	0.26001444
236	0x3f150d89	0.5822378
237	0x3e544e90	0.20733094
238	0x3f0716c5	0.5276912
239	0x3e885eec	0.2663492
240	0x3e98b3ef	0.29824778
241	0x3d55b875	0.052177865
242	0x3f4eaee0	0.8073559
243	0x3ee9ceed	0.45665684
244	0x3e3ea941	0.18619253
245	0xbd49093b	-0.04908107
246	0x3f3c2d65	0.73506767
247	0x3db2fc18	0.08739489
248	0x3c59099b	0.013246919
249	0x3e9a7fcb	0.30175623
250	0x3de1a1ea	0.11017211
251	0x3deb55a1	0.11490942
252	0x3d5faf89	0.054610763
253	0x3dbcd4be	0.09220265
254	0x3ec57523	0.3856593
255	0xbca2c275	-0.019868115

decoder.embedding.weight f4 [28, 32]
0	0x3d0e5b14	0.034754828
1	0x3d1fb1c0	0.038987875
2	0x3d568692	0.05237443
3	0x3b520a3d	0.003204956
4	0x3d9eb6a5	0.077496804
5	0x3c4560d7	0.012047014
6	0xbc903492	-0.017603192
7	0xbbfcbb5c	-0.0077127647
8	0xbd8bcd41	-0.068262585
9	0x3c607a9a	0.0137011055
10	0xbb4e695c	-0.0031495905
11	0xbbf1a73d	-0.0073746727
12	0x3d2628f8	0.040566415
13	0x3c78e0ae	0.015190287
14	0x3d8ea823	0.06965663
15	0x3d2177bb	0.039420824
16	0xbc3ef124	-0.011654172
17	0xbd08bc91	-0.033382956
18	0xbd8357bf	-0.064132206
19	0x3d5e753b	0.05431102
20	0xbd1525c5	-0.036412973
21	0x3d0f2817	0.034950342
22	0xbd4e037b	-0.050296288
23	0xbd0b67f1	-0.034034673
24	0x3d476fa1	0.048690442
25	0x3d1065bd	0.035253275
26	0xbcc08e71	-0.023505421
27	0xbcc43283	-0.023949867
28	0x3d61f49a	0.05516491
29	0xbca6c048	-0.020355359
30	0x3d141fbd	0.03616308
31	0x3c81bf6c	0.015838347
32	0x3c8ecd57	0.017431898
33	0x3ab3c148	0.0013714219
34	0x3d477ef8	0.04870507
35	0xbd46eefa	-0.04856775
36	0xbd9d85c7	-0.07691532
37	0x3c86dccd	0.016462708
38	0x3d8ffb76	0.07030384
39	0xbbde0e9a	-0.006776643
40	0xbd27d388	-0.040973216
41	0xbd937c08	-0.072013915
42	0x3d921014	0.07131973
43	0x3d90d36a	0.07071574
44	0x3d8b5b61	0.068045385
45	0x3c1ac685	0.009446745
46	0xbda39ed5	-0.07989279
47	0xbc81345f	-0.015772043
48	0xbcd1737b	-0.02556776
49	0xbd82b908	-0.06382948
50	0x3d9fc358	0.07800931
51	0x3abe370a	0.0014512253
52	0x3d8d4ad7	0.0689904
53	0x3b72c171	0.003704157
54	0x3d407576	0.04698702
55	0xbd1c4e0e	-0.038160376
56	0xbd220f37	-0.03956529
57	0xbd95bbfc	-0.07311246
58	0xbccd605c	-0.025070362
59	0x3d70c357	0.05878004
60	0x3d7a2bbb	0.06107686
61	0x3d0d40e4	0.034485713
62	0xbd2924b4	-0.04129477
63	0x3c0f78ec	0.008756857
64	0xbf401b3f	-0.75041574
65	0xbdeb4277	-0.114872865
66	0xbe098c0b	-0.13432328
67	0x3e60c5ad	0.21950407
68	0xbe924ba3	-0.2857333
69	0x3be51abf	0.006991714
70	0xbeb11753	-0.34588107
71	0x3d3bab94	0.045817927
72	0xbcb5d989	-0.022198455
73	0x3e81e893	0.25372753
74	0x3efc020f	0.4922032
75	0xbce4efbc	-0.027946346
76	0x3e7e6d0d	0.24846287
77	0xbe703a32	-0.234597
78	0x3e27e28b	0.16395013
79	0xbe762f50	-0.24041486
80	0x3bc1fc9e	0.005920007
81	0xbdbdc5c6	-0.09266238
82	0x3c37afba	0.01121133
83	0x3daaaedd	0.08334134
84	0x3e507902	0.20358661
85	0x3dd8cb4a	0.10585649
86	0x3e1449e6	0.14481315
87	0xbea6e1ba	-0.3259409
88	0x3da382aa	0.079839066
89	0x3cfd4a46	0.030919205
90	0xbe2c7f34	-0.16845399
91	0xbe046735	-0.12929995
92	0x3e1d299f	0.15347908
93	0xbf2fae01	-0.68624884
94	0xbd7de98a	-0.0619903
95	0x3e5e0d14	0.21684676
96	0xbd9cb9b6	-0.07652609
97	0x3d147a1a	0.036249258
98	0xbd9cc327	-0.0765441
99	0xbcbe4b00	-0.023229122
100	0x3d694233	0.056947898
101	0x3d91a697	0.071118526
102	0x3d205b08	0.039149314
103	0xbd633ccb	-0.0554779
104	0xbd63fa66	-0.05565872
105	0x3c2ec8a4	0.010667954
106	0xbbd3e9ae	-0.006467066
107	0xbd4123ed	-0.047153402
108	0x3d28471c	0.04108344
109	0xbd8214b0	-0.06351602
110	0x3ae40b33	0.0017398357
111	0xbd2ec963	-0.042672526
112	0x3d52ba9f	0.051447507
113	0x3ce36d8f	0.027762203
114	0xbd84eb96	-0.06490247
115	0x3c331033	0.010929155
116	0x3d42177b	0.047385674
117	0xbc252bc8	-0.010081239
118	0xbd4dbfb4	-0.05023165
119	0xbc2e6c76	-0.010645976
120	0x3d141731	0.03615493
121	0x3cc976dc	0.02459281
122	0x3c2ee75c	0.010675278
123	0x3d0cdee6	0.03439226
124	0x3c855080	0.016273737
125	0x3cfb103d	0.030647391
126	0x3c24a448	0.010048933
127	0x3d78d854	0.06075318
128	0xbe80d2a7	-0.25160715
129	0xbf0b2e39	-0.54367405
130	0x3f10ed82	0.5661241
131	0x3e8b8939	0.2725313
132	0x3e19264d	0.14956017
133	0xbe34ced4	-0.17657024
134	0x3ea90e6a	0.3301881
135	0x3d9d0551	0.0766703
136	0x3ef7db0f	0.48409316
137	0xbead9243	-0.3390065
138	0x3e012d5d	0.12614961
139	0xbda421a2	-0.080142274
140	0x3e2ffa60	0.17185354
141	0x3f07a5cf	0.5298738
142	0x3e0ce838	0.1376046
143	0x3e82ffa3	0.2558566
144	0x3e003456	0.12519965
145	0xbcb774d1	-0.02239457
146	0x3e5f7a29	0.21823944
147	0x3f5bb806	0.8582767
148	0x3e24ae8d	0.16082211
149	0xbede9e50	-0.43480158
150	0x3e6cf9a7	0.2314211
151	0x3e26402b	0.16235416
152	0x3df477f4	0.11936942
153	0xbea8845d	-0.32913485
154	0xbd1342c1	-0.035952333
155	0x3f2de30e	0.6792458
156	0x3e2e6d79	0.17033948
157	0xbec0fa3c	-0.37690914
158	0xbc8ffdca	-0.01757707
159	0x3ec8cb85	0.39217773
160	0xbec0f56f	-0.3768725
161	0x3f1e8d88	0.6193471
162	0xbc8f803b	-0.0175172
163	0xbea1df9f	-0.31615922
164	0xbe711ca3	-0.2354608
165	0x3f0bbaf5	0.5458215
166	0xbecaa4b2	-0.39578778
167	0x3d4e0771	0.050300065
168	0xbea1183c	-0.31463802
169	0xbe88f340	-0.26748085
170	0x3f1dbe66	0.6161865
171	0x3f194b12	0.59880173
172	0xbed1d696	-0.4098403
173	0x3eff7e71	0.49901155
174	0xbee8e066	-0.45483702
175	0x3e9091b4	0.28236163
176	0xbf385900	-0.72010803
177	0xbdd5e54b	-0.10444125
178	0xbec13217	-0.37733528
179	0xbf0c35da	-0.5476967
180	0xbf2ec4f3	-0.6826927
181	0x3f3473bf	0.70489115
182	0x3d57dad7	0.052698936
183	0x3f09785f	0.53699297
184	0xbdb76e52	-0.08956589
185	0x3d903a2d	0.07042346
186	0x3efbbe68	0.49168706
187	0xbd19be21	-0.037534837
188	0xbec61dc0	-0.38694572
189	0x3f0048cb	0.50111073
190	0x3f5c223a	0.85989726
191	0x3df17eb4	0.11791745
192	0x3ef769d3	0.48322925
193	0x3e4e71fa	0.20160666
194	0x3e9002e9	0.2812722
195	0x3dbda4c2	0.09259941
196	0xbe9f9fb1	-0.31176522
197	0x3cbaf7c2	0.022823218
198	0x3efbd6f3	0.4918743
199	0xbf28e7e8	-0.6597886
200	0x3e898f3c	0.26867092
201	0xbdd6d304	-0.10489467
202	0xbf05934f	-0.521779
203	0x3e307dc1	0.17235471
204	0x3d6da21f	0.05801594
205	0xbe0061d1	-0.12537314
206	0xbddc8576	-0.10767643
207	0x3dca39cd	0.09874306
208	0x3e98e481	0.29861835
209	0x3ed61c1f	0.4181833
210	0x3e533654	0.20626193
211	0x3e249886	0.16073808
212	0x3ea32b37	0.31868908
213	0xbe98f1cf	-0.29871985
214	0xbe01aa81	-0.12662698
215	0x3e95a352	0.29226166
216	0x3e9d4cab	0.30722556
217	0x3f29457b	0.66121644
218	0x3d6927ec	0.056922838
219	0x3d004f41	0.031325582
220	0xbe224b8a	-0.15849128
221	0xbf3f8bf7	-0.74822944
222	0x3dbfa063	0.09356763
223	0x3e87a9db	0.26496777
224	0x3e887fe4	0.26660073
225	0xbebd9600	-0.37028503
226	0x3e02abaf	0.12760805
227	0x3e789cc3	0.2427855
228	0x3e259b72	0.16172579
229	0xbe9e2896	-0.3089034
230	0xbe378e47	-0.17925368
231	0x3cc3ee40	0.023917317
232	0xbed7a52f	-0.42118213
233	0x3c2fa4bf	0.010720431
234	0x3d95b39a	0.07309647
235	0xbf1608af	-0.58607
236	0xbeae5db1	-0.34055856
237	0xbef3536b	-0.4752458
238	0x3e9c9a7a	0.30586606
239	0xbf064658	-0.52451086
240	0x3eb3cb61	0.35116103
241	0xbed8e7d5	-0.42364374
242	0x3eddf498	0.43350673
243	0x3e1fc9f2	0.1560438
244	0x3eb05a1b	0.34443745
245	0xbdb9f251	-0.09079421
246	0x3edbde17	0.4294288
247	0x3e888c38	0.26669478
248	0xbf0b16f3	-0.5433189
249	0xbe50f7df	-0.20407055
250	0xbf016cd7	-0.505567
251	0xbe820def	-0.25401255
252	0x3aa932d2	0.0012908822
253	0x3c8aeb08	0.016957775
254	0xbe010848	-0.12600815
255	0xbe57f162	-0.21088174

decoder.LSTM.weight_ih_l0 f4 [256, 32]
0	0xbe9d8e29	-0.30772522
1	0xbe83332c	-0.2562498
2	0x3ec83769	0.39104775
3	0x3ed0ef39	0.40807512
4	0xbede3a8a	-0.43404037
5	0xbe965cc5	-0.29367653
6	0x3eba09ba	0.36335546
7	0xbf069631	-0.52572924
8	0x3e8df078	0.27722526
9	0x3eb13e03	0.34617624
10	0x3f73c337	0.9521975
11	0xbebde60b	-0.3708957
12	0xbed88e7c	-0.42296207
13	0xbe7477ca	-0.23873821
14	0x3e503c12	0.20335415
15	0xbea43c64	-0.32077324
16	0x3d1c5751	0.03816921
17	0xbec04f33	-0.37560424
18	0x3ea48b1f	0.3213739
19	0x3dbfe411	0.09369672
20	0xbea14b98	-0.31502986
21	0xbca27d17	-0.019835038
22	0x3e10e442	0.14149573
23	0x3f1f8e0a	0.6232611
24	0x3d200e19	0.039075945
25	0x3e51e93c	0.20499128
26	0xbeb15230	-0.34633017
27	0xbde89b15	-0.113577046
28	0xbf31e3e0	-0.69488335
29	0xbeb403ff	-0.351593
30	0x3de0733b	0.109594785
31	0x3e45069c	0.19240803
32	0xbefe413c	-0.49659145
33	0xbd48aec9	-0.048994813
34	0x3f5fc2d8	0.8740668
35	0x3c327715	0.010892649
36	0xbeebba39	-0.46040514
37	0xbf07b6c4	-0.53013253
38	0x3f22b9f1	0.63564974
39	0xbebf086a	-0.37311107
40	0x3e97ff46	0.29686946
41	0x3ecb9996	0.39765614
42	0x3f03b609	0.5144964
43	0x3cc5a808	0.024127975
44	0x3bfff5c6	0.007811281
45	0x3a3d7620	0.000722738
46	0xbdba666e	-0.09101568
47	0xbdee4ed8	-0.11636132
48	0xbf10bf8f	-0.56542295
49	0x3c1338f5	0.008985748
50	0x3d8a667e	0.0675783
51	0xbdee3c47	-0.11632591
52	0xbef9d46d	-0.4879488
53	0x3e6dd9d3	0.23227625
54	0xbe3a1b4c	-0.18174475
55	0x3e4b2e42	0.19841865
56	0x3e8fff32	0.28124386
57	0x3e5d1832	0.21591261
58	0x3d98b49c	0.074563235
59	0x3e285e36	0.16442189
60	0xbe346acf	-0.17618869
61	0xbe8b69f4	-0.27229273
62	0x3e2ae7e8	0.16690028
63	0x3eca8c25	0.39560047
64	0xbe76abce	-0.24088976
65	0x3f434451	0.7627612
66	0xbe3d254a	-0.18471256
67	0xbe25a91a	-0.16177788
68	0x3c3c33fe	0.011487005
69	0x3f05546c	0.5208194
70	0xbe51d2b2	-0.2049053
71	0x3e889ab7	0.26680538
72	0x3e8a0189	0.26954296
73	0x3e0d6d78	0.1381129
74	0x3e4b4036	0.19848713
75	0x3ee902bf	0.45509908
76	0xbe2c0338	-0.16798103
77	0x3f1fd5da	0.62435687
78	0xbed8b2dc	-0.4232396
79	0x3f2353e8	0.63799906
80	0xbea4d43a	-0.32193166
81	0x3ebb9568	0.36637425
82	0xbeff9000	-0.4991455
83	0xbee0a696	-0.43877095
84	0xbe374edb	-0.17901175
85	0x3e42e4a3	0.1903253
86	0xbf8ca7dd	-1.0988728
87	0x3e704861	0.2346511
88	0x3dfdfd5f	0.12401842
89	0xbf0aade0	-0.5417156
90	0x3e065e3d	0.13121887
91	0x3f12adcf	0.5729646
92	0x3e48adbc	0.19597524
93	0x3ee442dc	0.4458226
94	0x3ec9f28b	0.39442858
95	0xbe89cac6	-0.26912516
96	0xbe458553	-0.1928914
97	0xbf0b7494	-0.5447476
98	0x3e36f794	0.17867881
99	0x3df2a0de	0.11847089
100	0xbece2a46	-0.40266627
101	0x3c6f15de	0.014592616
102	0xbe54a3dc	-0.20765632
103	0x3e103afe	0.14085004
104	0xbf247b0b	-0.6425025
105	0x3f06b008	0.5261235
106	0x3e88cca2	0.26718622
107	0xbeb80e19	-0.35948256
108	0x3c03c851	0.008043365
109	0xbef2dcb0	-0.47433996
110	0x3e4a9d95	0.19786675
111	0x3d3e5f89	0.04647783
112	0x3e65ddf5	0.22447951
113	0x3e5b5dd2	0.21422508
114	0x3e4b726b	0.19867866
115	0xbea8ee0c	-0.32994115
116	0x3c227f58	0.009918056
117	0x3f0bcb04	0.5460665
118	0xbeb5dfcb	-0.35522303
119	0x3d8671e0	0.06564689
120	0xbe688b45	-0.22709377
121	0xbe347245	-0.17621715
122	0xbedc38b5	-0.43012014
123	0x3dcb8e68	0.09939271
124	0x3e8d79ad	0.27631894
125	0xbeafd08c	-0.34338796
126	0xbefa00c3	-0.48828706
127	0xbd51f320	-0.051257253
128	0xbf3639a3	-0.71181697
129	0x3f144714	0.57920957
130	0xbed4f329	-0.41591766
131	0xbeaf1dc5	-0.342024
132	0xbeae7854	-0.34076178
133	0x3f2f9afc	0.6859586
134	0xbe5ba3b7	-0.21449171
135	0x3e6b0003	0.22949223
136	0xbecdd543	-0.40201768
137	0x3e6270e0	0.22113371
138	0x3f41939e	0.7561587
139	0x3efa14d3	0.48844013
140	0xbf2e974e	-0.6819962
141	0xbe5ac416	-0.21363863
142	0xbf2ea609	-0.682221
143	0x3f42e686	0.76133
144	0xbe8e810d	-0.27832833
145	0x3dca4ecf	0.09878313
146	0xbef0b13b	-0.47010216
147	0xbec4d6d2	-0.38445145
148	0xbf1977de	-0.5994853
149	0x3ed9cc85	0.4253885
150	0xbf015004	-0.5051272
151	0x3e83cbe9	0.2574151
152	0xbe403eab	-0.18773906
153	0xbe732769	-0.23745503
154	0x3f04ccda	0.5187508
155	0x3e8c2dfa	0.27378827
156	0xbe9785ce	-0.29594272
157	0x3e688e09	0.22710432
158	0x3e376a63	0.17911677
159	0xbdc6bddf	-0.09704184
160	0x3e96d471	0.29458955
161	0x3e52bfdb	0.20581
162	0xbd4c7cda	-0.049923755
163	0x3c112412	0.0088586975
164	0x3d0e8431	0.034794036
165	0x3e1763db	0.14784186
166	0x3e22b718	0.15890157
167	0xbce61126	-0.028084349
168	0xbe70c5a8	-0.235129
169	0xbe31000e	-0.17285177
170	0xbe1d38ad	-0.15353651
171	0x3e6983db	0.22804205
172	0xbdbcad56	-0.09212749
173	0xbe4dd14c	-0.20099372
174	0xbcac8a5d	-0.02106207
175	0x3ea4fc24	0.32223618
176	0x3d818713	0.063245915
177	0x3df635cf	0.12021982
178	0xbdec1a5c	-0.11528465
179	0xbe5e027a	-0.21680632
180	0x3d87d75d	0.06632874
181	0x3e3b7600	0.18306732
182	0xbe381ac0	-0.17978954
183	0xbe210283	-0.15723614
184	0xbded2fce	-0.11581384
185	0xbdad47fd	-0.08460996
186	0x3e39fb62	0.18162301
187	0x3e12b5e0	0.14327192
188	0xbe29cd54	-0.16582233
189	0xbc257206	-0.010097986
190	0xbe3cbba4	-0.18430954
191	0xbe13754a	-0.14400211
192	0xbe25b669	-0.16182865
193	0x3ee707c6	0.45123118
194	0xbe6baba4	-0.23014694
195	0x3e5b8e1f	0.21440934
196	0x3d9e1202	0.077182785
197	0x3e90437b	0.28176484
198	0xbd4f70e5	-0.050644774
199	0x3d1e6d53	0.03867848
200	0xbed22313	-0.41042385
201	0xbe920ec5	-0.28526893
202	0x3efa8b5c	0.48934448
203	0x3e6bd163	0.23029093
204	0xbf395908	-0.72401476
205	0xbe02529f	-0.1272683
206	0xbea61641	-0.32438853
207	0x3f0980c5	0.5371211
208	0x3de34ad8	0.1109826
209	0xbcfea38e	-0.031083848
210	0x3d174cfc	0.036938652
211	0xbd84143a	-0.064491704
212	0xbe5e2060	-0.21692038
213	0x3dbc6fe5	0.0920103
214	0xbeaffb38	-0.34371352
215	0x3f1f96af	0.623393
216	0xbe626862	-0.22110131
217	0xbeb9904a	-0.36242896
218	0x3e8531d3	0.26014575
219	0x3e63c37d	0.22242542
220	0x3e353df1	0.1769941
221	0x3ea37a0d	0.31929055
222	0x3e7fad99	0.24968566
223	0x3e96049e	0.29300398
224	0x3eb405c1	0.3516064
225	0xbe981016	-0.29699773
226	0x3d95732e	0.072973594
227	0x3f443e06	0.7665714
228	0x3c7bcce3	0.015368673
229	0xbebfe7b4	-0.37481463
230	0x3e9cb730	0.3060851
231	0xbe43b645	-0.19112499
232	0x3e125f13	0.1429408
233	0x3f1c5506	0.61067235
234	0x3ec489cc	0.3838638
235	0xbefa723d	-0.48915282
236	0xbe828e2d	-0.25499097
237	0x3e84e37e	0.25954813
238	0x3ec5c1ba	0.38624364
239	0xbe828fb0	-0.2550025
240	0x3ea1eec4	0.31627476
241	0x3e377e02	0.17919162
242	0x3f0796f0	0.5296469
243	0x3dfc9f13	0.123350285
244	0xbedd6eb3	-0.4324852
245	0x3e5fc1f3	0.2185133
246	0xbec279f1	-0.3798366
247	0x3f53aa37	0.826816
248	0xbd74d1cc	-0.05977039
249	0xbe8c0698	-0.2734878
250	0xbf27c309	-0.65531975
251	0x3ecfaec4	0.40563023
252	0xbea77616	-0.3270728
253	0xbdbcbc2e	-0.0921558
254	0xbe430a2b	-0.19046848
255	0xbe5235d5	-0.20528348
