tut1-model.pt (torch_old, 250433 bytes, 14 tensors)

encoder.embedding.weight f4 [28, 32]
000000 b3 82 93 3d cd 1c 31 3a 77 db 9e 3d 18 33 4c bd
       0.07202663 0.0006756306 0.07756703 -0.049853414
000010 1f a7 20 3d d2 95 24 3d 29 2b 86 bc 03 83 08 3d
       0.03922188 0.040181942 -0.016378002 0.033328068
000020 85 fb 68 bb a3 96 21 bd f8 47 29 bd 80 d3 5e 3d
       -0.0035550308 -0.0394503 -0.0413284 0.05440092
000030 58 8f 4f bd 54 69 22 3d ee a9 24 3d 21 d8 2a 3d
       -0.050673813 0.03965123 0.04020112 0.041710023
000040 1f 57 21 3d 7a 59 6a bd 2e db 08 bc 43 df 09 bd
       0.039389726 -0.057214238 -0.008353038 -0.033660185
000050 05 25 4a bc 1a 9e d1 bc 1f 7d ef bb 52 46 c9 3b
       -0.012337928 -0.025588084 -0.007308617 0.006142416
000060 7b 80 81 3c 73 44 cc bc 78 c2 f6 bc 7a 49 5a bd
       0.015808335 -0.024934983 -0.030122027 -0.05329273
000070 df 7b 50 3d 66 6a c7 3c f3 9a a2 3d cd 4c cf b8
       0.050899383 0.024342727 0.079397105 -9.8848344e-05
000080 dd e8 89 3d b1 9e 64 3d a4 d7 72 3d 66 de 2f bd
       0.06733868 0.055815402 0.059287682 -0.042936705
000090 71 fd 84 3a fb 67 a6 3c e1 33 8e bb b7 de 21 bd
       0.0010146332 0.020313254 -0.0043396805 -0.039519038
0000a0 61 f4 12 3d 08 e1 72 3d 9a d0 51 3d 91 4d 5c bd
       0.03587759 0.059296638 0.05122433 -0.05378491
0000b0 29 3a 57 3c ec 26 e6 3c 76 cf 4d 3d 43 b6 7d 3d
       0.013136425 0.028094731 0.05024668 0.061941396
0000c0 e3 f1 97 bd 0a bb a4 3c b2 ba a2 bd fb 55 9e 3c
       -0.07419183 0.020108718 -0.079457656 0.019328108
0000d0 c3 9c e9 3c 7a de 87 3d 77 8a 8e bd b8 7f dd bb
       0.028517133 0.06634231 -0.06960004 -0.00675961
0000e0 a3 be 59 bd 59 9f 68 bd 57 07 3e bd 8f 75 76 3c
       -0.05316032 -0.05679259 -0.04639372 0.015042677
0000f0 ca 79 e3 bc 3a f7 98 3d d7 87 47 bd 9a 6e cd bc
       -0.027768034 0.0746903 -0.04871353 -0.025077153
000100 d3 26 cb be a9 be 9f bd fe b0 9e be eb 70 35 3f
       -0.39678058 -0.078000374 -0.3099441 0.70875424
000110 13 2e d6 3e 7e 18 8e be 3c 4d f7 be 3d 98 a0 be
       0.41832027 -0.2775306 -0.48301113 -0.3136615
000120 b5 39 04 bd d9 d5 cb 3e 0a 2f 86 3e 67 47 38 be
       -0.032281596 0.3981159 0.26207763 -0.17995988
000130 cc 43 68 3d 1e 06 17 3e 7f bd 5f be 17 85 d0 3c
       0.05670528 0.14748427 -0.21849631 0.025454087
000140 15 72 e3 bd 67 54 0a bf 46 99 7b be 3d 21 a3 be
       -0.11105744 -0.5403504 -0.24570188 -0.31861296
000150 62 5d c8 3c 37 cf e8 3d 47 eb 92 3e e0 e9 34 bf
       0.02445859 0.11367648 0.28695127 -0.70669365
000160 d2 64 cf 3d d6 56 18 3f a6 6b f6 3d 93 90 81 3f
       0.10126652 0.595075 0.12032251 1.0122246
000170 99 8d 3c bf 98 2a 7f bd cb 21 22 3e 13 e0 06 be
       -0.7365356 -0.06229648 0.15833203 -0.13171415
000180 91 cc af be 67 ab 4a bf 4f b8 38 bf 94 50 a1 bc
       -0.3433576 -0.7916779 -0.7215623 -0.019691743
000190 74 47 0c bf bf 64 ed 3d 2c 85 d2 3d 39 cb 48 be
       -0.5479653 0.115914814 0.10279307 -0.19608773
0001a0 7f e0 2d 3f f0 ea a8 3e 8b 35 70 3e 94 5c db be
       0.6792068 0.32991743 0.23457925 -0.4284407
0001b0 67 ac dd bc 84 5f 99 3e 8a fc b2 bd 72 98 1a bf
       -0.027059747 0.29955685 -0.08739574 -0.60388863
0001c0 d6 40 86 be 74 8b 21 bf a5 5c c0 3e 99 a3 ef 3d
       -0.2622134 -0.63103414 0.37570682 0.11701126
0001d0 cc 2e 50 bf ad 0a 08 bf 20 0a 6f be 04 e5 bf 3e
       -0.81321406 -0.5314129 -0.23343706 0.37479413
0001e0 82 65 e3 3e d4 a3 d6 3d 06 f3 0b bf ba a2 7a 3e
       0.44413382 0.104804665 -0.546677 0.24476138
0001f0 e4 e1 3d 3e 03 86 cc 3e 5f 78 00 bd db 49 c0 3e
       0.18543202 0.39945993 -0.031364795 0.37556347
000200 ce 0c 0c 3e 09 b1 64 be 41 14 04 be f8 4c e9 3e
       0.1367676 -0.22333159 -0.12898351 0.45566535
000210 e0 58 38 bd e2 1e bb 3e e9 bf 86 3e f2 51 43 be
       -0.045006633 0.36547 0.2631829 -0.19074228
000220 9c 15 b9 3e 35 54 95 3e f2 6f 30 3e c7 45 ab be
       0.361493 0.29165807 0.17230204 -0.33451673
000230 a9 03 23 bf 17 fe 11 3b cd c4 2a bf 08 ac be be
       -0.6367746 0.0022276693 -0.66706544 -0.37240624
000240 07 db 01 be be f6 92 3e 50 b9 22 bf 8d bb 90 be
       -0.12681209 0.28703874 -0.63564014 -0.2826809
000250 4b b9 28 bf fb 33 17 3f 36 03 cb 3d 64 1d 54 3e
       -0.65907735 0.5906369 0.09912722 0.20714337
000260 64 65 23 be 75 76 40 bf 65 c0 e8 3d 40 a6 85 3e
       -0.15956646 -0.7518075 0.11364821 0.261034
000270 12 c5 09 3f 30 c0 61 3e 49 1a bc be 20 6f 46 3e
       0.5381633 0.2204597 -0.36738804 0.19378328
000280 b5 a7 01 3e 11 c1 b0 3b c8 c3 0a 3f 53 45 72 3e
       0.12661631 0.005394109 0.5420499 0.23659258
000290 f0 8f b6 3e 7d c1 71 bc 27 b2 01 3f 7f 7f cc 3e
       0.3565669 -0.014755604 0.50662464 0.39941022
0002a0 59 43 12 3f e2 3b 24 be b7 af fe 3c e0 49 88 bd
       0.57134014 -0.16038468 0.031089647 -0.066547155
0002b0 91 b9 a9 3e 0d 5d af 3e 46 f7 06 bf f0 95 69 3d
       0.33149388 0.3425068 -0.5272106 0.057027757
0002c0 08 90 f2 be 9c 57 cf 3d cf 4a ab 3e bd 95 75 be
       -0.47375512 0.10124132 0.33455512 -0.23982902
0002d0 5c ae 0e bf 20 07 d5 3d 5b 28 96 3b dd 24 8f 3e
       -0.557348 0.104017496 0.0045824475 0.27957812
0002e0 83 e0 ce 3d 12 3c 36 bf cf 2e 97 be 36 24 fe bd
       0.10101416 -0.7118541 -0.295279 -0.124092504
0002f0 86 97 86 3e 97 ae e3 3e ff 4b 55 bc f1 74 65 3e
       0.26287478 0.4446914 -0.013018607 0.22407891
000300 8b 22 3c 3f fc 10 bd 3c e4 3c 0a 3f ab 7e 20 3e
       0.7349021 0.023079388 0.5399916 0.1567332
000310 87 ec 0c 3c 75 2e 55 3f 96 1f ae 3e 4b 26 82 3e
       0.008601314 0.8327401 0.34008473 0.2541984
000320 1d 01 b6 3e 88 e8 fc 3e f6 b7 37 3f fe 3e 4d bf
       0.35547724 0.49396157 0.7176508 -0.80174243
000330 33 e0 02 3e f5 70 51 bd 77 87 15 bf 4e 27 fb be
       0.12780838 -0.051133115 -0.5840983 -0.49053425
000340 96 47 bf be 5d ae e5 3e b1 50 cb be f7 ad bf bd
       -0.37359303 0.4485959 -0.3971 -0.09359353
000350 f4 7a 55 be 32 03 d5 3e db 21 25 bd d1 24 46 be
       -0.20847684 0.41604 -0.04031549 -0.19349982
000360 3c 24 28 bf 69 05 fc be 53 cb 1a bf 0c 4c c9 3d
       -0.6568029 -0.49222878 -0.604665 0.09828958
000370 3c 3c 02 3f 07 c4 8a 3d ba 5e 90 3e b8 91 32 bd
       0.5087316 0.067756705 0.2819727 -0.043596
000380 dc 0a be bd 3a 08 30 3e 3a 77 b0 3e 44 a8 24 bd
       -0.09279415 0.17190638 0.34465963 -0.040199533
000390 63 2e f5 bd cd a8 a9 3e 53 2c 1f 3e 3a c0 fa 3e
       -0.11971738 0.33136597 0.15544252 0.48974782
0003a0 4f a9 28 3f bb b4 04 3f 33 31 ab be 39 8d a5 be
       0.65883344 0.5183827 -0.33435974 -0.32334307
0003b0 a9 0e 24 3d 51 1c 83 3e 39 83 08 bf fb 5d 27 bf
       0.040053044 0.2560754 -0.5332523 -0.6537778
0003c0 27 57 9b be f8 6b 91 3e 69 2d 41 3f 88 4c c9 3c
       -0.3033993 0.28402686 0.75459915 0.024572626
0003d0 ad a0 97 be 92 0d e7 3e a4 47 f7 3e 37 38 29 3d
       -0.29614773 0.4512754 0.48296845 0.041313376
0003e0 d0 d4 2d 3f 8b 16 08 3f bb 20 2f bf 3e be c8 be
       0.6790285 0.531594 -0.6840932 -0.39207643
0003f0 fa fa 1c 3e 1e 77 f3 3d cf 75 7e 3e 48 c8 f7 3d
       0.15330115 0.11887954 0.24849628 0.120987475

encoder.LSTM.weight_ih_l0 f4 [256, 32]
000000 47 98 17 3e eb b2 24 bf b1 1e 10 bf a3 a1 a8 3e
       0.14804183 -0.6433551 -0.5629683 0.3293582
000010 52 88 df 3b f1 98 8e 3f 36 54 d5 3e 2d 0d dd be
       0.0068216706 1.1140424 0.4166581 -0.43174115
000020 a2 1c 81 3d 9d c6 1d bc f0 24 ad 3f 29 84 01 bd
       0.063042894 -0.009629873 1.3526897 -0.03162018
000030 54 ee 2c bf 10 7a e0 be ce 48 a3 be a7 ab f1 3d
       -0.6755116 -0.43843126 -0.31891483 0.11800318
000040 6e 9d 1f bf 6c 7f 10 3c aa 78 fb bd d5 64 99 3d
       -0.62349594 0.008819442 -0.12278874 0.07489935
000050 13 f5 49 bf 7c a3 3b 3f d2 97 3b be 7a 71 dc 3e
       -0.7888958 0.7329633 -0.18319634 0.43055326
000060 50 3d af be f4 d5 fe be 87 6a 33 3e 6c eb cc 3e
       -0.34226465 -0.49772608 0.17521106 0.40023363
000070 aa 21 c2 3d 05 ab 09 3f bb 58 5f 3f 70 40 37 3f
       0.09479077 0.5377658 0.87244767 0.715827
000080 e8 50 ad bd b6 dd 6e bf bd 87 0e 3f a0 42 dc 3f
       -0.08462697 -0.93307054 0.5567587 1.7207832
000090 7d 80 87 3f fb a4 08 3f 6b 23 69 3e 44 ee 97 bf
       1.0586087 0.5337674 0.22767417 -1.1869588
0000a0 68 39 5e be 0d 04 d2 3e f8 74 47 3f 58 0b a0 bf
       -0.21701586 0.41018716 0.77912855 -1.2503462
0000b0 67 8e 99 bf 2e e6 a2 be 1d 40 b5 be c3 5f 54 be
       -1.1996583 -0.31816238 -0.35400477 -0.20739655
0000c0 b0 d9 0e bf 18 e2 3d be 32 59 c0 3d 60 6a 6b 3e
       -0.55800915 -0.18543279 0.09392013 0.22989798
0000d0 c9 c1 88 be 7e a6 91 3f cf 72 92 3e 46 93 e4 be
       -0.26710346 1.1378934 0.28603217 -0.4464361
0000e0 69 d8 8c 3e f4 c0 5a bf 62 af ce bd 33 74 61 3f
       0.27508858 -0.85450673 -0.10092045 0.8806793
0000f0 dc 9d ad be 32 93 8b bd 1e 8c ea 3e ec dc 68 3f
       -0.339095 -0.06815185 0.45810026 0.909621
000100 05 77 92 3e 46 5a 52 be 57 51 be bd 68 dd 08 3f
       0.2860643 -0.20542249 -0.09292858 0.5346284
000110 1a ff db 3d da 59 21 3f d5 f6 86 3e e2 07 07 be
       0.10742016 0.6302773 0.26360193 -0.13186601
000120 9e e9 16 3e 0d 8c 3d 3e dd 70 62 3f 03 cb a7 be
       0.14737555 0.18510456 0.88453466 -0.32772073
000130 97 a3 5a be 4a 06 d1 3d a6 a7 d8 be ca 3c d6 bd
       -0.21351467 0.10206278 -0.42315406 -0.10460813
000140 7a b4 bb be 20 f7 2c be ab fb b9 3e 50 f0 c7 3d
       -0.3666113 -0.16891146 0.3632482 0.09762633
000150 80 06 bd be 0c ea 1f 3f 0b e3 28 3e 18 8b ff bc
       -0.36919022 0.624665 0.1649286 -0.031194255
000160 94 3f 18 3e 55 e3 a6 be be a6 0f be bf db 10 3e
       0.14868003 -0.32595316 -0.14028451 0.14146326
000170 e7 69 a8 3d 4e 9d 86 3e 73 a2 cb 3e 85 46 1e 3f
       0.08223324 0.2629189 0.39772376 0.61826354
000180 65 3c 7b 3d b7 9f e8 be ca cd 90 3f e0 5a 1d be
       0.061336894 -0.45434353 1.1312802 -0.15366697
000190 14 7b 24 3f 09 96 3c 3e 03 55 fd 3e 34 fa 0f 3e
       0.642503 0.18416609 0.4947892 0.14060289
0001a0 29 af 48 3f 8f 08 f2 3d f6 ae 93 3e e2 53 9f be
       0.78392273 0.11818039 0.28844422 -0.31118685
0001b0 e6 72 06 be 9a 88 e6 be 48 d3 32 bf 83 a8 86 bf
       -0.13129768 -0.45026094 -0.6985364 -1.0520176
0001c0 55 2f 5b bf 20 c3 16 bf c2 9c 7b 3f 69 4b 85 3f
       -0.856191 -0.5889149 0.9828607 1.0413638
0001d0 3b 19 aa be b7 90 02 3e 9e fc 46 3f e6 ae 3d bf
       -0.33222374 0.12750517 0.77729213 -0.74095
0001e0 0b 17 f0 3e bc 84 15 bf 48 71 97 bf 6d 85 21 3e
       0.4689258 -0.5840566 -1.1831446 0.15773554
0001f0 21 e4 8d bf 29 aa 12 3f 9c d4 84 3e cb ef 6e 3e
       -1.1085244 0.57290894 0.25943458 0.23333661
000200 ee bb 20 3e 3f 62 55 bf a0 8e f1 bd 1e 66 f2 3e
       0.1569669 -0.83353037 -0.11794782 0.47343534
000210 03 3b 2e 3e c8 a1 80 3e 55 74 85 3e 6a d3 98 be
       0.17014699 0.2512343 0.26065317 -0.29848796
000220 90 c2 78 be 2f 20 f4 3c 7f 67 68 3c 36 36 b3 be
       -0.2429297 0.029800503 0.014184832 -0.35002297
000230 5f 21 40 bf d6 22 93 be 1c 1c c9 be 88 61 9d 3c
       -0.7505092 -0.28737515 -0.39279258 0.019211546
000240 a0 b6 23 3e 68 6c 5c 3d b4 9c ca 3e 59 64 24 be
       0.15987635 0.05381432 0.3957268 -0.16053905
000250 f5 64 d0 bd 7e f7 2b 3f d4 f6 a0 3c 13 d2 3c 3d
       -0.10175506 0.6717452 0.019648947 0.04609878
000260 20 ea ae 3e de 66 00 bf 27 de d8 be 3d 60 24 3e
       0.34162998 -0.5015696 -0.4235699 0.16052337
000270 cb a8 46 be f9 74 b5 be 1c 5e c8 3e 74 b6 f4 3d
       -0.19400327 -0.35440806 0.391343 0.11948863
000280 40 e5 1d 3f 37 d7 f0 be a2 08 e2 be 0f 1c 5a 3e
       0.6167793 -0.47039196 -0.4414721 0.21299766
000290 46 8f 59 be f4 37 0f 3f 42 df c2 3e 42 9c 7a bd
       -0.2124606 0.5594475 0.38060957 -0.061184175
0002a0 38 b0 7c 3e 8f 0d c0 3e 74 d9 15 3f dc 60 fb bb
       0.24676597 0.37510344 0.5853493 -0.0076714586
0002b0 fa 75 69 bd fd 93 5e 3e 1b 74 48 3d 39 46 c1 bd
       -0.056997277 0.2173614 0.04893885 -0.09437222
0002c0 fa 53 02 bd 01 e3 fc 3d 58 d6 0a 3f c0 57 fe 3d
       -0.031818368 0.12347985 0.5423331 0.12419081
0002d0 85 02 e7 be 85 7a e6 3e 4b 04 f3 bc 58 42 97 3c
       -0.4511911 0.4501535 -0.029665133 0.018464252
0002e0 fc 61 1f be 19 49 9b ba f9 5b b3 be 8d ae 37 bc
       -0.15564722 -0.0011847346 -0.35031107 -0.01121105
0002f0 9e 4f 47 3e 54 3b 3e bc 00 f6 a9 3e f7 75 35 3f
       0.19463965 -0.011610825 0.33195496 0.70883125
000300 97 fb 2a be 68 6d c9 bc 2b fc cc bc 07 f3 53 3d
       -0.16697536 -0.024588302 -0.025022587 0.05174544
000310 a4 fe f3 3e 95 a3 95 3d ad 99 02 bf 83 5b 52 3d
       0.47655213 0.073065914 -0.5101574 0.051356804
000320 f4 2b ee 3d c5 d6 6a 3d ec fe 9b 3e 79 aa b4 bd
       0.11629477 0.057333726 0.30467927 -0.088215776
000330 39 d5 42 bd 0c 6e 7e 3e d0 bd b5 be 71 2e 1c be
       -0.047566626 0.24846667 -0.35496378 -0.15252091
000340 0a af 77 bd ff 49 52 be 3e 8d bd 3c a2 6b 1a 3e
       -0.060469665 -0.2053604 0.023138639 0.15080121
000350 fd 9e 97 be e7 0d f8 3d 0e 9f 22 3f a3 59 f7 3c
       -0.29613486 0.12112027 0.6352395 0.03019411
000360 f8 72 ef 3e 19 e2 5d bd a1 76 7c be 5e 97 9b 3e
       0.46767402 -0.0541707 -0.24654628 0.30388921
000370 b4 b2 02 bf 6f 27 4c 3e ac fd 03 3d 73 82 81 3e
       -0.5105393 0.19936918 0.032224342 0.25294837
000380 f9 72 be 3d 1a 46 d4 3c 65 dc 5c 3e 25 93 ae 3e
       0.09299273 0.025912333 0.21568449 0.34096637
000390 82 14 14 3e f9 63 70 be 52 b5 b8 bd 9c 6f dd be
       0.14460948 -0.23475637 -0.09018959 -0.43249214
0003a0 e5 ef 06 3f d6 43 88 3e 21 2c 31 3d 67 7f ca bc
       0.527098 0.26614255 0.043254975 -0.024718953
0003b0 70 d2 5f bd 7b ac 30 bd d7 88 9d be 86 86 d7 be
       -0.05464405 -0.04313324 -0.30768463 -0.4209482
0003c0 2c d7 03 3e 43 24 b8 3c c5 31 03 3e 59 03 54 bd
       0.1287505 0.022478228 0.12811954 -0.051761005
0003d0 dd 0b e0 bd cf b0 3e 3e c9 9b 93 3e 8c 95 c2 be
       -0.10939763 0.18622135 0.28829792 -0.3800472
0003e0 2f 52 32 3e de a9 92 3e b4 57 14 be 40 7a 0f 3e
       0.17414163 0.28645223 -0.14486581 0.14011478
0003f0 a4 61 d0 bc af d9 18 be ae a1 2c be 0b d9 e6 3d
       -0.025437184 -0.1492679 -0.16858551 0.112718664

encoder.LSTM.weight_hh_l0 f4 [256, 64]
000000 b3 d0 a8 be 16 8a 9f be e7 b1 2c 3c b6 e0 ba be
       -0.32971725 -0.3116004 0.010540462 -0.36499566
000010 8f e9 24 3d 8f 3d 29 3e 6a 1c c1 3d 83 bb f6 be
       0.0402618 0.16527389 0.09429248 -0.48189935
000020 89 7b eb bd e7 12 89 3d 64 e2 04 3c bb 12 26 be
       -0.11498172 0.066930585 0.008110616 -0.16218083
000030 fa 6c ec 3c 22 07 d0 be 5c 59 7a be 94 0f 72 bd
       0.028860558 -0.40630442 -0.2444815 -0.059096888
000040 20 a7 a7 3e aa 89 06 be 81 ef 6d 3e 7f ae 93 be
       0.32744694 -0.13138452 0.23235895 -0.28844067
000050 af b4 af 3f c7 e5 43 bc 0f 0b 96 bd 60 27 01 3f
       1.3727015 -0.011956639 -0.07326328 0.50450706
000060 7e c6 21 bf 8c fe ca 3b 82 56 c7 3d 3f 3b 1a be
       -0.631935 0.006194895 0.09733297 -0.15061663
000070 44 bb cb 3d ac a8 b4 3c 18 f7 a4 3e f7 bb 3e bd
       0.099478275 0.022053085 0.32219768 -0.046565976
000080 79 c2 08 3e fa b2 c4 bd f2 59 65 be 1e 20 29 be
       0.13355435 -0.096044496 -0.22397593 -0.16516158
000090 c6 1d 64 3e 97 fe 0f 3e 40 e7 53 be cb 47 66 3e
       0.22276983 0.14061962 -0.20693684 0.22488324
0000a0 36 e0 1b 3e 82 ad 7e bd 29 1b ca 3e 48 31 8f bc
       0.15222248 -0.06217719 0.39473847 -0.017479554
0000b0 88 58 34 bd 98 5b 84 3e fe a9 f7 3d 98 69 ac bd
       -0.044029742 0.2585113 0.1209297 -0.08418578
0000c0 ef 73 08 3f 41 01 7d 3e 70 3e 33 3e 9b 01 34 be
       0.533019 0.2470751 0.17504287 -0.17578737
0000d0 d6 4d 2e 3e a6 1a ce be 3e 5a 48 3d 66 84 31 be
       0.1702188 -0.40254706 0.048914187 -0.17335662
0000e0 f7 6b c7 bd 93 46 86 be 43 51 08 3e a4 d4 a6 be
       -0.097373895 -0.2622572 0.13312249 -0.32584107
0000f0 5d cf b2 bd df ea 68 bd e0 e0 d6 be e1 91 d9 bc
       -0.08730958 -0.056864616 -0.4196844 -0.026558818
000100 8b c3 20 3d 24 d4 06 3e 37 1d b0 3b 66 32 9f 3e
       0.039248984 0.13166863 0.0053745764 0.31093138
000110 69 97 40 3e 27 dd 7d bd 64 74 c0 bb a5 0a 53 bd
       0.18807758 -0.061978485 -0.00587325 -0.051523823
000120 cb bc 8e be 16 e5 e9 bd 40 a1 85 3d 1d f6 e7 3e
       -0.27878413 -0.11420648 0.065248966 0.45304957
000130 84 65 54 3e 6b 7b 2a be 38 b1 52 3e 3c 7e c7 3d
       0.2074185 -0.16648643 0.20575416 0.09740874
000140 06 24 93 be 98 ba 49 bd a1 60 85 3d cc 25 0f 3d
       -0.2873842 -0.049250215 0.06512571 0.034948155
000150 49 7c a4 3e ca 46 cd bd 80 ca 0c 3e fe 44 79 be
       0.32126072 -0.100232676 0.13749123 -0.24342725
000160 f2 a8 57 bd f5 5b 5b be 0e d5 05 bf ec f5 b2 3e
       -0.052651353 -0.21421798 -0.5227822 0.34953249
000170 b3 4a 31 3e d9 54 b5 bb d6 5e 4a 3d 8e e5 cc bd
       0.17313652 -0.0055337963 0.04940685 -0.100047216
000180 49 d1 0d 3e f7 88 1d 3d fc 42 61 3e 15 24 e7 bb
       0.13849367 0.038460698 0.21998209 -0.007053862
000190 09 4a d9 3d 43 a4 d5 3e 28 2c c3 3e 65 4a b2 3e
       0.10609824 0.41726884 0.38119626 0.34822384
0001a0 8b 41 ca bd 35 5c 81 bd 3c 3e 59 3e 2d 9e d1 bd
       -0.098757826 -0.06316415 0.21215147 -0.10235248
0001b0 ed 54 f0 3e 28 72 43 bc 74 02 53 3e 19 26 aa bd
       0.46939793 -0.011929072 0.20606405 -0.08308048
0001c0 86 be 00 3f c5 4a 33 be 53 f5 96 be 52 8a 65 bd
       0.50290716 -0.17508991 -0.29484043 -0.056040116
0001d0 f8 dc c4 be 8c ea 1a 3d d5 75 70 bf 29 6b 5c 3e
       -0.38449836 0.037821338 -0.939298 0.21525253
0001e0 64 93 ce 3e 76 98 68 bd 18 48 6e bf 99 f1 12 be
       0.40346825 -0.056786023 -0.93078756 -0.14349975
0001f0 51 e6 b0 3e 88 4d 16 3f b3 82 89 3e 84 0c c3 3e
       0.34550717 0.58712053 0.26857528 0.38095486
000200 c3 44 99 bd be c5 c9 bc bb 21 03 bb a9 b1 96 3c
       -0.074838184 -0.024630424 -0.0020009119 0.018395262
000210 3f 12 83 bc 41 94 1f be 15 55 a7 3b 29 db 85 3d
       -0.015999911 -0.15583898 0.005106578 0.06535942
000220 d3 ff c3 be ae 67 be bc 13 5d 94 bc 0f 13 ec 3c
       -0.38281116 -0.023242798 -0.018110787 0.028817682
000230 54 f4 8f bd c8 47 96 be d4 4b 2e be d0 84 a7 bd
       -0.07029024 -0.2935164 -0.17021114 -0.08179629
000240 50 a5 fb 3a 09 e2 a5 3d 8b a7 f5 3d fd 95 8c be
       0.0019199047 0.080997534 0.11994847 -0.27458182
000250 3f e7 bf 3d 0a c3 7c 3d bb c6 3b 3e f7 fd 26 3e
       0.093702786 0.06170944 0.18337528 0.16307817
000260 ed 2d 21 3d e1 bb d1 3d ff 61 03 3e 25 4e 0f bc
       0.03935044 0.10240913 0.12830351 -0.008746658
000270 3b 63 a0 bd b1 b7 8a bc c9 b8 df 3c 4b 04 6c bd
       -0.07831427 -0.016933294 0.027309792 -0.05762128
000280 86 57 99 3c d1 ee 50 be 44 a1 48 bd 25 25 a6 bd
       0.018718492 -0.20403601 -0.04898192 -0.081125535
000290 b4 7a a9 bd ab 68 83 3e 69 a4 85 be 16 fd 63 3d
       -0.08275357 0.25665793 -0.26101997 0.055661283
0002a0 b6 a9 ff bb 81 2c e2 3d 22 ca d7 bd b9 d2 36 bd
       -0.0078022135 0.11043645 -0.10536601 -0.044634555
0002b0 b7 51 fc 3d 91 27 18 3e 7d cf d7 3d c2 99 80 3d
       0.12320273 0.14858843 0.10537622 0.06279327
0002c0 0b a8 8a 3e 88 a2 5a bc 64 4a 0d 3e 57 3c dc bc
       0.27081332 -0.0133444145 0.13797909 -0.026884241
0002d0 be 80 8c bc ee c5 40 3e 30 2c cd bd 15 3c fc 3c
       -0.017151233 0.18825504 -0.10018194 0.030790368
0002e0 43 dd b5 bd 91 0c dd bd 4d 0f d0 3e d9 93 84 be
       -0.08880093 -0.107934125 0.40636674 -0.2589405
0002f0 92 23 ac 3d 94 f7 30 be 2d 21 99 3d 85 43 81 3e
       0.08405222 -0.17281944 0.07477031 0.25246826
000300 b0 95 63 3e db 3d da be a2 a8 41 3e 7b a6 01 be
       0.2222507 -0.42625317 0.18911985 -0.12661164
000310 9a 04 cb be dc 21 9a 3d 60 18 42 3c 50 bc af bd
       -0.39651948 0.075259894 0.011846632 -0.0858084
000320 f1 d4 52 be 30 02 b7 bc a3 67 3c 3d ec fb 70 3d
       -0.20589043 -0.02233991 0.045997273 0.058834
000330 f6 17 58 be ee b4 6a 3a c1 a8 e1 be 7e 35 f9 3d
       -0.2110289 0.0008953352 -0.44074062 0.12168406
000340 29 41 d6 3c 06 4f 02 bd 32 6c ea bd 14 98 74 bd
       0.026154118 -0.031813644 -0.11446418 -0.059715346
000350 08 1c 16 3e c9 cd bc be b7 0f 5c 3d 0e 4b 8c 3e
       0.1465913 -0.36875752 0.053725924 0.27401012
000360 6e da 14 be c4 b1 d0 3e 5f e7 19 be 8a 80 3f bd
       -0.1453645 0.40760624 -0.15029667 -0.046753444
000370 cb d9 20 3e ba 3f 8b 3d 9a e5 83 3e e9 6b dc be
       0.15708081 0.06799264 0.2576111 -0.4305108
000380 15 23 47 bc e5 2a 6b be 8f 5b ef be 8d d7 67 3d
       -0.01215436 -0.22965582 -0.4674954 0.05660205
000390 26 c8 53 3e d3 b7 e8 3e 16 11 82 be 82 92 6c 3e
       0.2068182 0.45452747 -0.2540366 0.23102763
0003a0 48 3a be 3d c9 f4 9f 3d ee 52 8c be b0 16 99 bd
       0.0928846 0.07810361 -0.2740702 -0.074750304
0003b0 0d 0f 39 3d c0 1f 36 3d e4 c9 1e 3e 92 d9 ae be
       0.04518037 0.044463873 0.15506703 -0.34150368
0003c0 05 42 07 3e 7f 31 fb 3d 12 82 ef bd 5c 79 87 3d
       0.13208778 0.122653 -0.11694731 0.06614944
0003d0 c4 4e db 3e 0a 0d 88 3e 64 fb e1 bd 49 22 ec be
       0.4283353 0.26572448 -0.11034277 -0.46119907
0003e0 cb ec bb 3c 26 d1 99 be 44 48 8b be e8 f3 f8 be
       0.02294006 -0.3004238 -0.27203572 -0.48623586
0003f0 e1 73 ef 3d 72 f6 92 be 41 0d a0 be 46 c1 6e bc
       0.11692024 -0.28703648 -0.31260112 -0.014572447

encoder.LSTM.bias_ih_l0 f4 [256]
000000 2d 17 a2 3e 98 fd 39 3f ca eb ff 3e 93 c8 a9 3e
       0.31658307 0.7265258 0.4998458 0.33160838
000010 5c 42 b8 3e 6c e2 62 3e 95 01 8e 3e 69 1f 1d bc
       0.35988128 0.22156686 0.27735582 -0.009590008
000020 0d 56 eb 3d e4 1c 03 3e d2 ea a7 3d 0d a8 70 3e
       0.11491022 0.1280399 0.08199085 0.23501606
000030 33 19 ed 3e 92 0e 62 3e 43 39 55 3e 57 22 a0 3e
       0.46308288 0.2207587 0.20822625 0.312762
000040 ec 6b 6c 3e f2 06 50 3d e6 59 f0 3e fa 19 43 3d
       0.23088044 0.050787874 0.46943587 0.047632195
000050 6c 06 a5 3b a4 22 27 3e 35 19 44 3d 3e 1b c5 3e
       0.005036166 0.16321808 0.0478756 0.38497347
000060 69 01 04 3d cc 44 8b 3d 4b cb 80 bd ab 24 36 3e
       0.032227907 0.06800231 -0.06288775 0.17787425
000070 0a 39 1f 3e 39 e5 3d 3e 3f 9c 47 3e 62 38 ae 3e
       0.15549102 0.18544473 0.19493197 0.34027392
000080 23 06 27 3d 1f d5 62 3e ab 32 8f 3e ba c5 a2 3c
       0.040777337 0.22151612 0.27968344 0.019869674
000090 43 6e 9a 3e 7f b2 34 3d 55 96 34 3e c7 1e df 3d
       0.30162248 0.04411554 0.17635472 0.10894542
0000a0 a6 81 41 3d 3e 03 42 3e f0 75 19 3f 28 52 e4 3d
       0.047242783 0.1894655 0.59945583 0.111484826
0000b0 ce 7b 0f 3e 0f 06 98 bc c5 0c 54 3e 7b 51 5d 3e
       0.14012071 -0.018557576 0.20707996 0.21613114
0000c0 64 22 98 3e 7f 37 a7 3e d8 fc 5a 3f 91 01 a9 3b
       0.29713738 0.32659528 0.8554206 0.0051576574
0000d0 b7 08 d9 3e ea c1 e2 3d 04 b3 ba 3e 72 f8 f7 3e
       0.4238946 0.110721424 0.36464703 0.48431736
0000e0 3e e5 08 bd df e5 d4 3e 87 a0 18 3c 85 93 0d 3e
       -0.033421747 0.41581628 0.009315616 0.13825805
0000f0 76 01 bf 3e 93 f6 72 3d a8 97 81 3c 1d e9 cf 3e
       0.37305802 0.059317183 0.015819386 0.4060754
000100 83 19 13 3d 09 92 49 3e 19 03 27 3e 3c aa 88 3d
       0.035913 0.19684614 0.16309775 0.06673095
000110 f0 b7 b3 3c f0 96 fe 3c c4 8e 20 3e 80 05 86 bd
       0.021938294 0.031077832 0.15679461 -0.06544018
000120 dd 69 80 bd 63 6c 40 3e dd e7 62 3e 16 54 12 3e
       -0.06270192 0.18791346 0.22158761 0.14289889
000130 d6 ee 73 be c7 29 c6 bd e9 96 ed 3d ce ab 21 3e
       -0.23821577 -0.09675937 0.116010495 0.15788195
000140 24 f0 9f 3d 31 c1 a5 bd 4d 5e a4 3d 31 26 50 be
       0.07809475 -0.08093489 0.08025799 -0.20327069
000150 c5 fa 5a be af ff c6 3d 1f 57 6a 3e 5a d2 de 3d
       -0.21384723 0.097167365 0.22884797 0.10879965
000160 53 50 e9 be f7 69 4d be f4 6b 1a 3e cb ee 47 3d
       -0.45569095 -0.20059954 0.15080243 0.048811715
000170 02 68 97 bd 97 3a 09 bc ff 4c 3a bd bf 1d 80 bd
       -0.07392885 -0.008375785 -0.045483585 -0.062556736
000180 5f 5a 5e 3d 07 95 8e 3d 3a 3c 35 bd 34 4f 27 3e
       0.054285403 0.069620185 -0.04424689 0.16338807
000190 46 34 d0 3d 05 74 bc bc a7 af 27 be e1 73 92 3e
       0.1016622 -0.023004541 -0.163756 0.28604034
0001a0 60 a1 0f 3e 5c 9b 2a 3e e3 07 a3 be 20 31 ad 3c
       0.14026403 0.16660827 -0.31841955 0.021141589
0001b0 83 fa f5 bd f0 1c 6a 3e ba 32 e9 3c c4 b0 85 3d
       -0.12010672 0.22862601 0.028466571 0.06527856
0001c0 86 9d b5 bd 92 ca fc 3d a3 db f7 bd 0d 91 bb 3c
       -0.08867936 0.12343325 -0.12102439 0.022896314
0001d0 36 34 be 3d 60 1c 0a 3e c1 7f b2 be 0f 75 b5 3d
       0.09287302 0.13487387 -0.34863093 0.08860218
0001e0 be 66 89 3d 0f 09 3d 3d 26 6d 1f be ec d7 38 3e
       0.0670905 0.046151217 -0.1556898 0.18051118
0001f0 3e 22 c4 bb aa 37 8f 3d 37 d4 bf bd 66 3d 22 be
       -0.0059855273 0.06993039 -0.09366649 -0.15843734
000200 23 70 48 3d a1 60 5d be 73 40 e0 3e 58 72 02 bf
       0.048935067 -0.21618892 0.4379917 -0.50955725
000210 d2 5d ba be 86 d0 10 bd 21 ea 3a bb c5 74 ec 3d
       -0.36399704 -0.035355113 -0.00285209 0.115457095
000220 83 22 00 be c0 09 23 be 72 37 81 3e 90 14 8d 3e
       -0.12513165 -0.15921688 0.25237614 0.2755475
000230 5c 36 c4 3d dd 51 52 3b 6e 64 bd be 1f 75 46 be
       0.09580681 0.0032092251 -0.36990684 -0.19380616
000240 da 06 d2 3d 27 a5 85 bd da 5e a8 bd f6 25 02 3d
       0.10255213 -0.06525641 -0.082212165 0.031774484
000250 36 06 60 bd f3 a2 23 be 27 64 2d 3e 8a 40 94 3e
       -0.054693423 -0.15980129 0.16932736 0.2895549
000260 7a f3 64 3c d3 52 69 3d d6 a4 cf bd f2 c3 2e be
       0.013974065 0.056963753 -0.10138862 -0.17066935
000270 95 e7 d3 3e 58 e7 21 bb ff 8d ad 3e 64 8c da be
       0.4138762 -0.0024704542 0.33897397 -0.42685235
000280 a7 25 b4 3d f5 3d 00 be 1d 66 cc be 9f b1 0d 3d
       0.08796244 -0.12523635 -0.39921656 0.03459322
000290 e4 e9 be 3d c0 06 ae 3d b0 3f 53 3d 4a d1 04 3d
       0.09321955 0.08497381 0.05157441 0.032426156
0002a0 36 07 2b 3e 65 28 6f 3d cf 7b a0 bc 9b 4f ea 3d
       0.1670197 0.058388133 -0.019590287 0.11440965
0002b0 43 63 9e bb d8 ff 0c bb ba bc 2b bd 7e c8 2c bd
       -0.0048336103 -0.00215148 -0.04192803 -0.04218339
0002c0 d9 61 90 3d ed 20 83 3e 1c 1e a2 be 3d 3d b0 3d
       0.07049913 0.25611058 -0.31663597 0.0860543
0002d0 c7 57 08 3f cd f8 3c 3d 37 ea 2d be 4d 25 f7 be
       0.5325894 0.046135712 -0.16983877 -0.48270646
0002e0 c9 5e 40 bd f9 ff 14 bf 00 3b ff 3c a0 7d be bd
       -0.046965394 -0.58203083 0.031156063 -0.09301305
0002f0 ac 5e 94 3e 96 5b 2a be df d0 11 be 24 f5 b8 3d
       0.2897848 -0.166365 -0.14239834 0.09031132
000300 5e 7e a3 3b 34 7f 89 3f d9 3e 32 3f 4c d1 9a 3e
       0.0049894294 1.0741944 0.6962715 0.30237806
000310 60 b0 00 3e 22 6c 09 3e ff ab 1c 3e f0 69 e0 3d
       0.12567282 0.13420156 0.15299986 0.10957706
000320 ad 5c 8a 3d 42 da 5f 3e 5f 72 19 be 94 a9 83 3e
       0.06755958 0.21860602 -0.14985035 0.25715315
000330 71 cf f5 3e 11 dc 7a 3e 6c 4a 8a 3e b2 60 5f 3e
       0.48009828 0.24498011 0.27009904 0.2181423
000340 93 69 cb 3d 4b 42 53 bd 46 88 96 3e 5c 7e ed 3e
       0.09932246 -0.051576894 0.29400843 0.46385467
000350 15 c3 33 3e 4b 58 71 3e af c3 02 be 56 0c 46 3e
       0.17554887 0.23568837 -0.1276996 0.19340643
000360 47 f0 62 3e 3e a2 3a 3e 98 43 f1 bd 77 f6 9f 3e
       0.22161971 0.18225953 -0.117804706 0.31242725
000370 8c f6 c1 3e 4b ac aa 3e 84 7f a2 bd 3a e7 67 3e
       0.37883413 0.33334574 -0.07934478 0.226468
000380 56 b3 c9 3d 84 1e 14 3e 89 a2 91 3e 5e 75 84 bd
       0.09848659 0.14464766 0.28444317 -0.064676985
000390 2e 03 8b 3e 3f b3 dd bd 6e 49 ac 3e a2 83 a6 bd
       0.27150863 -0.10825204 0.33649772 -0.08130576
0003a0 54 2d 8e bb c0 f1 25 bd 7a 29 3a 3e c7 a1 71 bc
       -0.0043388996 -0.040513754 0.18179885 -0.014748043
0003b0 0d 69 ed bd 31 1b 40 be bf f5 28 3d 46 1d 18 3e
       -0.115923025 -0.18760373 0.041249987 0.14854917
0003c0 da 5f 75 3e ab a2 de 3e ba 6e 31 3f d5 1e 28 3e
       0.23962346 0.4348348 0.6930958 0.16418011
0003d0 e7 d0 63 3e 6b 4f 97 3e e2 e4 30 3e 6b b3 88 3e
       0.22247659 0.2955278 0.17274812 0.26699385
0003e0 04 80 5e bb c5 30 cd 3e ea 4b 5f 3e b1 7a 90 3d
       -0.0033950815 0.4007627 0.21806303 0.070546515
0003f0 cc 39 e7 bd 02 57 bd 3d f2 9b b2 bd d2 50 57 3e
       -0.11290321 0.09245111 -0.087211505 0.21026924

encoder.LSTM.bias_hh_l0 f4 [256]
000000 df 3c a2 3e 54 83 3e 3f 6e ab 03 3f 70 c3 d7 3e
       0.31687066 0.7441914 0.51433456 0.42141294
000010 6b 03 a4 3e f6 a3 b9 3e a8 9a 56 3e 9c ea b7 bd
       0.32033858 0.36257905 0.20957434 -0.08980295
000020 1b cb 2c 3e b1 c8 03 3e 05 83 84 bc ed 67 52 3e
       0.16874354 0.12869526 -0.016175756 0.20547457
000030 8c 3b ab 3e 05 ca 8a 3e 71 5a 2e 3e 21 66 d4 3e
       0.33443868 0.27107254 0.17026688 0.41484168
000040 45 69 01 3e 21 9a ae 3d 11 36 a9 3e cb cf 7d 3d
       0.12637813 0.085254915 0.33049062 0.061965745
000050 15 07 57 bc 2f 98 5b 3e 99 c3 3f bd 18 62 9f 3e
       -0.013124247 0.21444772 -0.046817396 0.31129527
000060 a8 b0 ea 3d e1 12 3f 3e c1 9a 4c bb 62 49 78 3e
       0.11459476 0.18659545 -0.003122017 0.24246743
000070 a6 d7 9a 3e 39 19 5c 3e 5e 51 fb 3d eb 79 99 3e
       0.30242652 0.21493997 0.12271379 0.2997583
000080 e9 12 3c 3d 01 9c 62 3e ac 8b 6d 3e 21 31 0f bb
       0.04591647 0.22129823 0.23197812 -0.0021849351
000090 a2 d4 25 3e 2b 95 e6 3d aa e3 0a 3e e2 64 55 bc
       0.16194394 0.1125892 0.1356341 -0.013024541
0000a0 92 d0 ef 3d 0f 6c 76 3d a6 03 14 3f 21 49 a6 3d
       0.117097035 0.060161646 0.5781807 0.08119417
0000b0 39 52 68 3d e3 93 82 bd a5 ef 20 3e 71 5a 46 3e
       0.05671904 -0.063758634 0.15716417 0.19370438
0000c0 60 12 7b 3e de e5 c1 3e e5 cd 64 3f 85 eb de 3c
       0.24518728 0.37870687 0.8937667 0.027211914
0000d0 7e 40 d7 3e 29 0b b1 3d 71 81 fc 3e 60 64 df 3e
       0.4204139 0.08644707 0.49317506 0.43631268
0000e0 b2 d9 6b bd ff e9 cf 3e 1e c4 f8 3d 53 2d 29 3e
       -0.057580657 0.40608212 0.121467814 0.16521196
0000f0 1f 53 9b 3e 97 33 e4 3d 18 43 9f 3d 1b 86 b1 3e
       0.30336854 0.111426525 0.07776469 0.34672627
000100 d4 13 e8 3c 36 2e 0e 3e 00 7d 30 3e 41 37 73 3d
       0.028329767 0.13884816 0.17235184 0.059378866
000110 c5 34 c6 3d 91 5a e5 3d ba 0d 03 3e 11 6a 45 be
       0.09678034 0.11198915 0.12798205 -0.19278742
000120 87 9f ed 3c a2 96 23 3e 30 10 65 3e bf 1e a7 3d
       0.029006733 0.1597543 0.22369456 0.08160161
000130 27 69 56 be a5 73 4c be 95 2b ad bc 1e 0b 2b 3e
       -0.2093855 -0.1996599 -0.021138946 0.1670346
000140 3b f7 69 3d c5 34 06 be eb ad 02 3e 61 8a 84 be
       0.057120543 -0.13106067 0.12761657 -0.25886825
000150 0d f8 89 be 59 29 f0 3b c8 f3 45 3e ea 7b 93 3c
       -0.2694706 0.007329148 0.19331276 0.018003423
000160 db 75 ac be 7e d7 ae be 7e a8 5a 3d da fc 6e 3d
       -0.33683667 -0.34148782 0.053383343 0.058346607
000170 6e d6 94 bd df 33 ba 3c 95 72 b1 bd 73 2b 06 3d
       -0.07267462 0.022729812 -0.08664433 0.03275628
000180 db a3 b1 3d 4a d4 c3 3d a6 d1 fd bc bd a7 27 3e
       0.08673831 0.09561975 -0.030983757 0.16372581
000190 06 78 f6 3d 9e d7 d5 bc f1 85 48 be e3 d8 47 3e
       0.120346114 -0.02610379 -0.19582345 0.1951633
0001a0 8a d5 05 3e e6 9b a3 3d a1 6d 92 be c0 93 23 3d
       0.1306974 0.0798872 -0.28599265 0.039935827
0001b0 73 e9 34 bd a7 d0 22 3e 43 ed ec 3c 17 d8 ce 3c
       -0.044167947 0.15899907 0.028921729 0.025249524
0001c0 ad 61 fc bc 32 f8 9b 3c 27 02 fd bd 2b f2 66 bd
       -0.030808294 0.019039247 -0.12353926 -0.056383293
0001d0 00 da d3 3d 1f 6c 95 3d d8 33 98 be 0f 11 96 3d
       0.103443146 0.07296013 -0.29727054 0.073274724
0001e0 d1 66 fd 3d 96 30 bc 3d 1b 98 3b be 02 8e 90 3e
       0.12373126 0.091889545 -0.18319742 0.28233343
0001f0 75 df fd 3d 68 4b f7 3b 42 ac ee bd 2c e1 47 be
       0.12396137 0.007546831 -0.11653949 -0.1951949
000200 6c 90 d7 3c 2f ef 87 be 85 98 a6 3e 31 ac f4 be
       0.026313983 -0.2654967 0.32538238 -0.47787622
000210 a4 c8 96 be c5 90 22 be 60 48 82 3d 75 e4 0f 3e
       -0.29449952 -0.15875538 0.06361461 0.14051993
000220 38 47 ef bd 13 e5 22 be 31 a0 11 3e d1 0d 77 3e
       -0.11683506 -0.15907697 0.14221264 0.24126364
000230 23 79 02 3e 0a 2c 8f bd 9a da a9 be 1e cc 56 be
       0.12741522 -0.06990822 -0.33174592 -0.20976302
000240 04 dd df 3d 4a 16 ea bd 6e 95 2b bd ed 7e 8c 3d
       0.10930827 -0.114300326 -0.041890554 0.06860147
000250 a5 0b 62 3a 20 e5 50 be d0 b7 67 3e f7 e4 73 3e
       0.0008622951 -0.20399904 0.22628713 0.23817812
000260 d5 ca 86 bd a0 1f 2b 3d 14 a8 db bc f6 d9 7b be
       -0.06581656 0.041778207 -0.026813544 -0.24594864
000270 17 de d8 3e f4 8b 04 be f0 22 a8 3e a0 d6 d0 be
       0.4235694 -0.12944013 0.32839155 -0.40788746
000280 ce 3a 2e 3e f9 37 fb bd ec e4 b3 be 2a 0f 21 3e
       0.1701462 -0.12266535 -0.3513559 0.15728441
000290 db ed a6 3d dd d8 fa bb 85 d9 39 bc fa f9 39 bd
       0.08150836 -0.0076552466 -0.011343365 -0.04540441
0002a0 aa 35 a7 3d d0 13 45 bd 78 42 1d bd 77 95 e2 3b
       0.081645325 -0.048114598 -0.038393468 0.0069147903
0002b0 90 c5 7f 3d 59 cb b2 3d 56 e2 2b bd 04 dc ad 3c
       0.06244427 0.08730192 -0.041963898 0.021223076
0002c0 c0 00 c4 3c e4 d9 8f 3e ef 5d 76 be 4b cd c5 bc
       0.023926139 0.28095925 -0.2405927 -0.024145743
0002d0 ff 2a 0e 3f 87 e6 12 3e 8b 4d 65 be f6 5a 07 bf
       0.55534357 0.14345752 -0.22392862 -0.5287317
0002e0 6d 8f af bd ac 02 ff be cf 42 dd 3c 4d 74 75 bd
       -0.08572278 -0.49806726 0.027009396 -0.059925366
0002f0 84 73 a0 3e 42 51 c5 bd fc b2 90 be bb 8d 1a 3d
       0.3133813 -0.09634639 -0.28261554 0.03773282
000300 fc a9 bf bb 8a 60 83 3f 76 1e 21 3f 3c 20 5d 3e
       -0.005849121 1.0263836 0.62937105 0.21594328
000310 dc b9 18 3e 54 75 05 3d 82 7c 79 3e c8 b0 63 3d
       0.1491465 0.032582596 0.24363902 0.055588514
000320 8d 29 1e 3e bb da 25 3e dd a1 ec bd 34 a1 21 3e
       0.15445538 0.1619672 -0.115543105 0.1578415
000330 c4 22 ff 3e 18 f4 38 3e 66 06 5b 3e 32 94 42 3e
       0.49831212 0.18061864 0.2138916 0.19001845
000340 6e b6 5b 3e 6d 15 2e bc dd 67 9a 3e e1 31 01 3f
       0.2145631 -0.0106252255 0.30157366 0.50466734
000350 4f 28 9e 3d d1 c8 71 3e d8 81 a9 bd de 37 88 3e
       0.07722532 0.23611762 -0.08276719 0.26605123
000360 d4 3b 62 3e eb f4 23 3e bc 88 1f be 8d 71 8c 3e
       0.22093135 0.16011398 -0.15579504 0.27430382
000370 c2 c5 c6 3e 19 51 68 3e 00 f8 82 3d d9 11 8f 3e
       0.38822752 0.22687186 0.063949585 0.27943304
000380 02 01 3b 3e 1c f4 3d 3e 72 3c aa 3e b2 61 2d bd
       0.18262103 0.18550152 0.3324924 -0.042329498
000390 09 eb 98 3e 0b 14 b3 bd 18 3c 58 3e 3b 6e d2 bd
       0.29866818 -0.08744057 0.21116674 -0.10274931
0003a0 7d 88 37 3c be 04 b7 bd b8 52 7b 3e a8 53 ba bd
       0.011201975 -0.089364514 0.24543273 -0.090979874
0003b0 a4 9b cf 3c 6b a4 bf bd e3 6c 84 3c 91 00 d9 3d
       0.02534277 -0.09357532 0.016165202 0.10595811
0003c0 cc ca 53 3e 4a 13 ec 3e 7d d0 21 3f 8f 4e 6d 3e
       0.2068283 0.46108466 0.6320875 0.23174499
0003d0 ae 8e aa 3e 73 51 a6 3e 1b 28 f0 3d 28 c3 9a 3e
       0.3331198 0.32484016 0.117263995 0.30227017
0003e0 15 43 b0 bd 98 b8 e3 3e 3c 6f 63 3e b8 1f b1 3d
       -0.08606545 0.4447677 0.22210401 0.08648628
0003f0 a3 f8 ef bc 26 35 41 3e cc 07 ca bd d1 ed 3c 3e
       -0.029293364 0.18867931 -0.098647684 0.18450095

decoder.embedding.weight f4 [28, 32]
000000 a7 3e 8b bd 88 0a a9 bc 81 33 84 bd 6e 58 03 3d
       -0.06799059 -0.020634905 -0.06455136 0.032066755
000010 91 b8 85 3d 00 fc 93 3b 34 a3 91 bd 7b 2c 33 3b
       0.06529344 0.0045161247 -0.07111207 0.0027339745
000020 9a d7 9d bd 3c 3c 62 bd fb 73 1a bc 8a ec 7f 3d
       -0.07707138 -0.055233225 -0.009427066 0.06248144
000030 cd 4a bc 3c 40 25 21 3d 36 36 5a bd df fa 74 3d
       0.022984887 0.039342165 -0.053274356 0.05980956
000040 9c b2 98 bd c0 6b 26 3d f6 db 56 3c 71 39 4e 3b
       -0.07455942 0.040630102 0.013113966 0.0031467343
000050 6c ca 98 bd e1 e4 26 3d 38 a0 d3 bc 92 21 47 3d
       -0.07460484 0.04074562 -0.025833234 0.048616
000060 9a 19 14 3a 81 78 98 bd 38 98 64 3d a4 75 09 3d
       0.0005649567 -0.07444859 0.05580923 0.033559456
000070 24 88 ac 3c f6 35 68 bd 71 60 d2 3c ca 34 3b 3d
       0.02106101 -0.056692086 0.025680752 0.04570464
000080 8a 2c 66 bc d7 83 34 3d b3 83 87 bc a4 8e 80 3c
       -0.014048705 0.044071045 -0.016542291 0.015693016
000090 f1 d5 23 bd 13 88 9f 3d e9 08 91 3d db 7c 9f 3d
       -0.039998952 0.07789626 0.070817776 0.07787486
0000a0 5c 59 5b bd 61 53 28 3d 0f 54 48 bc ec 38 7d 3d
       -0.053552017 0.04109514 -0.012227072 0.061821863
0000b0 04 30 18 bd 2c 5c 01 3d b9 78 24 bd 71 83 fe 3b
       -0.037155166 0.031582043 -0.040154193 0.007767134
0000c0 5c 2d 65 bd a8 42 66 bd a4 60 62 bb f6 d0 a2 bd
       -0.05595146 -0.056215912 -0.0034542466 -0.079500124
0000d0 98 40 51 bd ec 98 86 3d 3d f6 74 3c 8e 35 76 bd
       -0.051086992 0.06572136 0.014951286 -0.060109667
0000e0 91 a3 6e bd 3d 44 77 3d b3 35 31 bc ae 1c 61 bd
       -0.058261458 0.06036781 -0.010816026 -0.05495899
0000f0 85 25 37 3c b1 f8 59 3d 83 ba d6 bc 9d 41 03 bd
       0.011178379 0.053215686 -0.026211983 -0.032044996
000100 d1 da 5e 3f f7 ba 6b be 97 08 ae 3d e7 2e 02 3e
       0.8705264 -0.2302054 0.08497732 0.12713204
000110 6e 51 f1 bc 8c 4f 0e bf 22 99 4c bf fb 0c 65 be
       -0.029457774 -0.5559013 -0.7992116 -0.22368233
000120 1f 6d 36 3e 32 b8 91 3e cf eb 39 3f d5 82 e0 3d
       0.17815064 0.28460842 0.7262544 0.10962454
000130 4a cc 13 bf 4f 06 01 3f 0c 05 19 3f 7f 55 9b bd
       -0.57733595 0.5040025 0.59773326 -0.075846665
000140 29 8a f2 be e4 aa a1 be c4 64 09 3f 18 e7 77 3f
       -0.47371033 -0.31575692 0.5366938 0.96836996
000150 39 62 11 3f 1d 4a db 3d d3 7d 05 bf a8 1c f6 bd
       0.567905 0.10707495 -0.5214512 -0.120171845
000160 62 a8 cb 3e b3 b3 0c 3e b7 da 8b 3f ae 74 25 3e
       0.39776903 0.13740425 1.0926121 0.16157791
000170 fe fb 3d 3e 49 53 82 3f e8 36 01 bf cb 6a c6 be
       0.18553159 1.0181667 -0.50474405 -0.38753352
000180 5c b1 99 3b a3 69 04 bd d8 e8 84 3d 52 e7 96 3d
       0.0046903323 -0.032327306 0.06489724 0.073683396
000190 ae 06 96 bd 5c bc 9b bb 0a 12 53 3d 29 55 f6 3c
       -0.07325493 -0.004752679 0.051530875 0.030069904
0001a0 38 0c 67 3d ca c5 43 3d b1 1e 95 bd b7 4a 8a bd
       0.056408137 0.04779605 -0.072812445 -0.06752532
0001b0 b8 01 09 bc 24 f3 13 bd 4a 11 3a bd 52 c2 d6 3c
       -0.008362226 -0.03612055 -0.045426644 0.026215706
0001c0 e1 ce 82 ba ae 03 0a 3d 38 35 93 bd d3 4c 0a bd
       -0.0009979868 0.033694915 -0.07187885 -0.03376467
0001d0 96 5b 8a 3d bf b0 09 bd 76 42 02 bd ec cb 63 3c
       0.0675575 -0.033615824 -0.031801663 0.013903599
0001e0 00 74 d7 3c 45 58 13 3d 80 0a 1c 3d c3 1c 81 3c
       0.02630043 0.035972852 0.03809595 0.015760785
0001f0 8d 92 42 3d 2d 14 8e 3d a4 d4 41 3b 85 81 3b bd
       0.047503043 0.06937442 0.0029576207 -0.045777816
000200 e9 6c 90 3d 62 7f 95 ba fc b1 4d bd 1a 12 ce bd
       0.07052023 -0.0011405761 -0.050218567 -0.10062046
000210 19 9d 9a be c3 04 fc be 6b 1f cb 3e 7a ae 31 be
       -0.3019798 -0.49222383 0.39672408 -0.17351714
000220 7b a3 88 3e 3d c5 11 3f c8 9e 8f bd 42 99 ce 3e
       0.26687226 0.56941587 -0.07012707 0.403513
000230 f2 c4 8f 3e 61 a0 43 be 78 c3 7d 3e e4 9c 35 3e
       0.28079945 -0.19104148 0.24781597 0.1773563
000240 08 74 0b 3f 4a d9 8e 3e fd e2 2c 3e 31 15 86 be
       0.54473925 0.27900153 0.16883464 -0.26188043
000250 40 af 57 3e 6a 3c fe be d1 52 5c be 76 30 f4 3b
       0.21062946 -0.49655467 -0.21515967 0.007452066
000260 07 3a 73 3f c9 45 ee 3d e5 1a 8d be 38 6a b2 3d
       0.9501042 0.11634404 -0.2755958 0.08711666
000270 cb 81 ab bc c5 9d e5 3e 61 56 2d 3d da 4b 2b be
       -0.020935914 0.4484693 0.042318705 -0.16728154
000280 84 03 8c be 4f af dd 3e d3 5f 57 3d e8 97 48 3e
       -0.27346432 0.43297812 0.05258162 0.19589198
000290 f0 0a ae be db 88 de 3e f9 63 ef 3d 84 39 d0 bd
       -0.3399272 0.43463787 0.1168899 -0.1016722
0002a0 fc b3 60 3d a0 a6 ed 3d 29 a9 7a 3e 43 c8 1c bf
       0.054859146 0.11604047 0.24478592 -0.61243075
0002b0 96 a6 99 3d 7f 71 e9 3e ea 60 cc be 61 67 29 bf
       0.07502477 0.45594403 -0.3991769 -0.6617337
0002c0 bc a9 f2 bd a7 4d 02 3e 38 9e bc be 6b d9 a7 bd
       -0.118487805 0.12724935 -0.3683946 -0.08195766
0002d0 52 ef d3 be 20 c7 96 3e 47 5c cf 3e 49 ba 84 bd
       -0.41393524 0.29448795 0.4050009 -0.064808436
0002e0 9a 40 64 3e da 10 59 3e 6d 33 18 be d7 e5 73 bd
       0.22290269 0.21197835 -0.14863367 -0.059545364
0002f0 74 5d a0 be 6f 0f 1d be e0 b1 70 be 21 a9 7c bd
       -0.313213 -0.15337919 -0.23505354 -0.06168473
000300 37 4d 6f be 6a ef 6e 3e d6 c9 4c 3e 1f ca 1a 3f
       -0.23369299 0.23333517 0.1999887 0.6046466
000310 d7 fd eb be cd 22 75 3e f2 bb dc ba 26 43 9c 3e
       -0.46092102 0.23939057 -0.001684068 0.3051998
000320 22 15 d4 3d 3b a7 15 bf 30 12 d6 3d 48 bc 69 be
       0.10355593 -0.584583 0.10452688 -0.2282573
000330 42 6c 66 3e c1 8d f7 bc 89 df 2c 3e d2 73 59 be
       0.22502235 -0.03021896 0.16882147 -0.21235588
000340 65 db 97 3d b4 18 e9 be f8 32 0d bf ed 20 9b 3e
       0.07414893 -0.4552666 -0.551559 0.30298558
000350 bd d0 32 be dc 12 5c bd 3f d2 17 3f 05 75 5c be
       -0.1746244 -0.053728923 0.59305185 -0.21529014
000360 67 f8 35 be b7 4b c9 be ad 61 3f 3e cb 7a 9e be
       -0.17770539 -0.39315578 0.18689604 -0.3095306
000370 26 b6 f9 3d e9 76 72 be 78 db 74 be 35 32 e0 be
       0.12192945 -0.23678173 -0.23911846 -0.43788305
000380 b1 25 83 bd d1 63 4d 3e 69 4b 97 bd 22 83 e3 be
       -0.064036734 0.20057608 -0.0738743 -0.44435984
000390 0c d9 88 bf bd 65 f6 3e 18 5c 02 3f 11 f3 31 3f
       -1.0691237 0.48124495 0.50921774 0.69511515
0003a0 5c 6d 02 bf e9 0a 8e 3c 79 8e 55 bb 03 f9 05 3d
       -0.5094812 0.017339187 -0.003258614 0.03270818
0003b0 b9 41 ec be 3d 68 53 3e 7d e2 01 3e d4 d8 60 be
       -0.46143892 0.20645232 0.12684055 -0.21957713
0003c0 4a 88 a5 be 02 ee 60 3e bf 36 dc 3b 96 7f 1b bd
       -0.32330543 0.21965793 0.0067203934 -0.037963472
0003d0 0f f0 bc bd c1 fa 1e 3e 05 c1 ad be 81 d9 ca 3e
       -0.09225475 0.15525343 -0.33936325 0.39619067
0003e0 85 a4 2a be 62 08 14 bf e3 44 03 bf 2b 51 a8 be
       -0.16664322 -0.5782529 -0.5127699 -0.32874426
0003f0 07 8b 51 3f 73 e6 9c 3e f3 f9 6b 3e 53 72 f7 be
       0.81852764 0.3064457 0.23044567 -0.4832941

decoder.LSTM.weight_ih_l0 f4 [256, 32]
000000 ae 00 0e be 72 a7 bd be 75 98 d0 3e e6 8d 44 3e
       -0.13867447 -0.37041813 0.40741315 0.19194755
000010 51 2d 44 bd a2 17 e4 be 95 e6 18 3d 83 21 fc 3d
       -0.04789478 -0.4454928 0.037329275 0.12311079
000020 31 5d cb 3e c6 31 3b 3e 87 9b 07 be 06 0e 04 be
       0.39719537 0.18280706 -0.13242923 -0.12895975
000030 fb 21 c8 3e 17 b6 8d be b2 63 8b 3e 94 92 1d 3f
       0.39088425 -0.27677986 0.272245 0.61551785
000040 35 27 c4 3e dd be a7 3e 51 02 51 bd 00 87 37 3e
       0.38311163 0.32762805 -0.0510276 0.17922592
000050 b6 32 83 be 57 ed 5d 3d 13 ea 5a be cd 27 f5 3d
       -0.25624627 0.054181423 -0.21378355 0.11970482
000060 37 69 81 3e 24 30 90 be c8 b8 0b 3d 06 5b 77 be
       0.25275585 -0.28161728 0.034111768 -0.24155816
000070 21 9a 1d 3f 59 37 5b be 5f c3 6c be 1a ef d8 3d
       0.6156331 -0.21407832 -0.23121403 0.1059248
000080 82 3c 6d be 09 56 8f 3e a7 ab c3 bd 77 d5 80 3e
       -0.23167613 0.27995327 -0.095542245 0.2516286
000090 1c de 2a 3d 5a df 11 3f 1e 41 ce be b3 d9 34 3f
       0.041715726 0.5698143 -0.40284055 0.7064468
0000a0 0e 25 ec be 87 b0 91 bd 91 db 4b bf c4 b5 1d bf
       -0.4612202 -0.07113748 -0.79631907 -0.6160548
0000b0 42 16 da 3e 4a 54 bb 3d ec 5e 9f 3e 45 be f1 bd
       0.42595106 0.09146936 0.31127107 -0.11803869
0000c0 67 59 0f 3e cc bc 01 bf 9d 58 81 be 18 28 8c 3d
       0.13998948 -0.50678706 -0.2526292 0.06843585
0000d0 ec c9 1c bf 50 48 48 3c 0f ae c0 3e 4b 51 a6 3c
       -0.6124561 0.012224272 0.37632796 0.020302435
0000e0 5d 67 12 be 17 d0 20 3f 7b 18 a7 3e fe 84 5d bf
       -0.14297242 0.6281752 0.32635865 -0.86531055
0000f0 57 42 fb be 01 d6 bf be 55 65 36 bd f0 ea b5 3e
       -0.4907405 -0.3746796 -0.04453023 0.35530806
000100 a8 f2 35 3e 81 f3 6d 3e bc 4f 55 bd e5 bd b4 3e
       0.17768347 0.2323742 -0.052077994 0.35301128
000110 93 77 47 be 97 f8 38 bd 6b 69 8c be e4 de 1b be
       -0.19479208 -0.04515895 -0.27424178 -0.15221745
000120 4c f6 ca bd a3 bb 31 3e 97 2d 88 3e a9 85 29 3d
       -0.09910259 0.17356734 0.26597282 0.041387234
000130 c8 93 04 3e 22 9d a9 3e bd c4 14 3e 05 d5 c6 3d
       0.12946999 0.33127695 0.14528175 0.09708599
000140 8b 9f b5 be 1c 33 c0 bd 2c 45 b1 3e f6 10 e0 3d
       -0.35473284 -0.09384748 0.34623086 0.10940735
000150 f4 f2 67 3e eb 0a ca 3c 76 ff e0 3d d4 ed 81 be
       0.22651273 0.02466341 0.10986225 -0.2537676
000160 f0 34 14 bd b4 5f 00 3e 89 b2 63 3e a2 48 5b 3c
       -0.036183298 0.12536508 0.22236075 0.013384016
000170 e6 59 46 be 89 04 18 3d 8e 6f 02 bf 42 09 65 bd
       -0.19370231 0.0371137 -0.5095147 -0.055917032
000180 0f fd 0e bf dc 0d 17 be 2f 67 25 3f 36 90 0d be
       -0.55854887 -0.1475138 0.6461057 -0.13824543
000190 0c 2b 97 3e 1c 47 24 3f 03 80 ec be fb c0 da 3e
       0.2952503 0.64171004 -0.46191415 0.42725357
0001a0 aa dc f0 3d 88 22 37 be af d4 27 be e5 97 09 bf
       0.11760838 -0.17884266 -0.16389726 -0.537474
0001b0 fb 73 05 3e 32 9a 92 be 9d 14 06 be fb 84 bd 3d
       0.13032524 -0.28633267 -0.13093801 0.0925388
0001c0 1d bd 1c bf 71 bd 98 3e 25 7f c2 bd 12 73 21 3f
       -0.61226064 0.29832032 -0.09496907 0.6306621
0001d0 f9 c5 32 bf 76 a3 02 3f 28 5b 4f 3e 48 62 77 bf
       -0.6983333 0.5103067 0.20249617 -0.9663434
0001e0 3b 6b ea bd bb df 85 be fb 58 36 3f 89 4f 31 bf
       -0.11446234 -0.26147255 0.71229523 -0.69261986
0001f0 5c b7 cf bd f0 ba f8 be bb 46 2e bf 87 71 ba be
       -0.10142395 -0.48580122 -0.68076676 -0.3641474
000200 96 3c 01 bf aa 3f 84 3e 08 db 4d be 8d fc ca 3e
       -0.5048307 0.25829822 -0.20103085 0.39645806
000210 cd 3a 09 be f7 53 5d 3e 5c 54 8e 3e a9 10 89 3e
       -0.13401337 0.21614061 0.27798736 0.26770523
000220 81 0d 97 be 43 27 8e be 09 5a a6 be 51 33 9e be
       -0.2950249 -0.2776433 -0.32490566 -0.30898526
000230 96 af 0d 3f e0 b4 10 3e 19 aa c0 bd a8 3f 97 3e
       0.5534605 0.14131498 -0.094074436 0.29540753
000240 11 a5 2f 3e 4c 18 1f bf 7d ec e3 be 8f 49 82 be
       0.17152812 -0.6214645 -0.44516364 -0.25446746
000250 4c 1b f7 be 59 a4 66 3d 7d cc 48 3f 38 34 89 3e
       -0.48263013 0.056309078 0.78437024 0.26797652
000260 41 0f 57 be e1 05 d1 3d a8 e0 ae be d3 69 b3 bc
       -0.21001913 0.102061994 -0.34155774 -0.021901047
000270 f1 27 aa bb 10 2e 68 3d 6f b7 fd 3e 54 90 b5 3e
       -0.0051927497 0.056684554 0.4955401 0.35461676
000280 24 8f f2 be 5a f9 f2 3e ed 7c b7 bc 05 b3 14 3f
       -0.47374833 0.47455865 -0.022398436 0.5808566
000290 1b b9 5c be 4b 09 1b 3e e2 5a b1 be 61 94 08 3e
       -0.21554987 0.15140264 -0.3463965 0.13337852
0002a0 2c 5c 67 be cb dd 1a 3f 69 1e 1d bf ae 78 e8 bc
       -0.22593755 0.6049468 -0.6137453 -0.028377857
0002b0 5f ec 29 3f c0 90 ac 3e 9d 0d 0d 3f 45 4f 71 3f
       0.663763 0.33704185 0.550989 0.9426158
0002c0 40 e9 07 3b 7d a6 b6 ba ff 27 de 3e 2e 6b b1 be
       0.0020738393 -0.0013935115 0.4338989 -0.34652084
0002d0 ed cd 27 be 87 95 86 be 3d 09 59 3e 3c 36 cc 3c
       -0.16387148 -0.26285955 0.2119493 0.024928205
0002e0 75 fa f5 3e 23 8c 42 3f 8c dd e4 3c 71 80 ff be
       0.48042646 0.7599508 0.027937673 -0.4990268
0002f0 0c 07 6a bd b6 73 86 be 91 d9 46 be a8 3f 8e 3e
       -0.057135627 -0.26260155 -0.19418932 0.2778294
000300 90 f0 90 be 18 c2 a5 3d 67 19 7b 3e 13 8a f2 3e
       -0.28308535 0.08093661 0.24521409 0.47370967
000310 f1 3d 8b be a5 88 8d 3e 36 28 b3 be 75 c3 d3 3d
       -0.27195695 0.27643314 -0.34991616 0.10340015
000320 6c 68 9a be e2 59 72 3e 01 59 59 bc c3 8e 9a be
       -0.30157793 0.236671 -0.013265849 -0.30187044
000330 81 8b 09 3e 4e 77 58 3e 2e 47 12 3e 7b d6 8f bb
       0.13432123 0.21139261 0.14284965 -0.0043895817
000340 d7 33 27 bd f8 b1 2e be 9d d0 62 3d ec eb 91 3e
       -0.040820923 -0.17060077 0.05537473 0.28500307
000350 c5 b7 8e ba b5 18 86 be 15 e4 24 3e 17 2d 5a 3d
       -0.0010888508 -0.26190725 0.16102631 0.053265657
000360 de 80 73 be 70 ed b5 3e 20 2d 15 3c c8 70 a8 be
       -0.23779628 0.35532713 0.009104997 -0.32898545
000370 0b 42 c4 3e 9c b4 40 be 6f 31 6e be 90 5a 6f 3d
       0.38331637 -0.18818897 -0.23261045 0.058435977
000380 11 f1 9d be 73 e0 f1 be c8 47 c2 bc 4b ac b7 3d
       -0.30847982 -0.47241554 -0.023715869 0.08968409
000390 12 2a 3e be 6e 53 8f be f7 38 88 3f c9 c7 54 be
       -0.18570736 -0.2799334 1.0642384 -0.20779337
0003a0 ec aa a1 3e 06 4e b6 3d 47 13 19 3f 50 c6 bf be
       0.31575716 0.089016005 0.5979504 -0.37455988
0003b0 6a 3d 49 3f 0a ec 19 be 13 87 41 3e 91 17 05 3f
       0.78609335 -0.15031448 0.18899183 0.51989084
0003c0 cc 30 8c 3e 42 bb 41 bf fb 31 55 3e 28 02 89 3e
       0.2738098 -0.7567636 0.20819847 0.26759458
0003d0 54 b7 3c bd 44 14 eb be de 04 93 3f db 7f d7 be
       -0.046073273 -0.459139 1.148586 -0.42089733
0003e0 95 64 9f bb 1c 65 29 3f c0 dd ba be f8 36 09 3f
       -0.0048642852 0.66169906 -0.36497307 0.535995
0003f0 43 b7 a5 3e 2d 4c 5b 3f d1 36 0e 3e 75 43 be 3e
       0.3236638 0.8566311 0.13888098 0.3716084
