tut1-model.pt (torch_old, 957315 bytes, 14 tensors)

encoder.embedding.weight f4 [28, 64]
0.046133623 0.025041495 -0.011038261 -0.04311878 -0.05978184 -0.07976108 0.064804174 0.060140714
-0.054403175 0.06360555 -0.02520811 0.0071281623 0.07742074 -0.05664716 0.023147574 0.056396343
-0.053171735 -0.07707099 0.06934008 0.054694556 -0.025485296 -0.015783967 0.06591342 -0.0600203
0.0015127468 0.0147128105 -0.023828436 -0.0045837164 0.027079402 -0.06091165 -0.0566932 -0.04537272
-0.005261488 0.0021897126 0.06584801 0.004349785 0.024306545 -0.073021114 0.06538086 0.06395164
-0.029273886 0.0130840875 0.027664594 -0.030371161 0.0484618 -0.053416666 0.04455806 -0.024510246
0.024035444 0.0022122478 -0.022192035 0.045982197 -0.07494303 0.033612154 -0.06414697 0.05571728
-0.07884906 0.0018929004 0.013210353 0.030422239 -0.019466247 -0.041110996 0.04920542 -0.025940109
-0.07290151 0.0754483 -0.031522304 0.015731554 -0.05765755 0.04549285 0.034847803 -0.07012553
0.021061258 0.0014869213 -0.06481453 -0.05379594 0.054455224 0.03673769 0.07635024 0.07850859
0.064634845 -0.01773694 -0.038696203 0.018435383 -0.053778935 0.048224144 -0.028894039 0.05263424
-0.0075056646 0.0743724 -0.047120392 0.035912 0.0024442482 0.046308395 -0.01751934 -0.07402603
-0.007259703 0.07507886 -0.027429037 0.003228531 0.07234468 0.04690419 0.068138495 -0.064503215
0.011583443 -0.06780206 0.07792675 -0.029955512 -0.055031456 -0.019252695 -0.0062723923 0.00719821
-0.052795116 -0.0502153 -0.05046057 0.02580264 0.014580279 0.046001397 -0.041702412 -0.041228723
-0.049448982 0.04508763 0.04399349 -0.023892727 0.049373474 0.023777628 0.004244175 0.016797371
-0.0032776312 -0.37190908 -0.06594651 0.039722316 0.012299328 0.14091063 -0.2285491 -0.08002628
0.019822296 -0.06045701 -0.08427952 0.08333228 0.031764954 -0.14017145 0.18525913 9.109043e-05
-0.072943546 0.02885825 -0.23006481 -0.01727275 0.20012814 0.080133416 -0.059722416 -0.0512915
-0.14287148 0.41319722 -0.06001876 0.30437815 -0.13786691 0.26941955 -0.11418807 0.055186894
-0.05799314 -0.2820431 0.13315022 -0.013478425 -0.24394812 0.08822117 -0.10460999 -0.11532013
0.22077629 0.15435892 -0.00800826 -0.20482351 -0.07847834 0.02406065 -0.103037536 0.09618035
-0.04809066 0.21181877 -0.03630106 -0.19994757 -0.044340596 0.14316721 0.09204723 -0.060471397
0.09466169 0.040131334 0.32457528 -0.021910131 -0.14543152 0.26077858 0.22542025 -0.023872951
0.18018265 -0.030338762 -0.14439654 0.23202072 0.17400543 -0.13020009 -0.009881317 -0.014418231
0.10610607 -0.26105183 -0.08790337 -0.20192145 0.04152739 -0.086881615 0.34424105 0.05521501
0.13829729 0.16246997 -0.14113167 0.036837 0.084214225 -0.10316506 0.08004759 -0.28529847
-0.26705 0.38888398 -0.08334283 0.33107752 -0.08393861 -0.0025035911 0.05817306 0.040903058
-0.3279419 -0.10016728 -0.15539104 0.021184314 0.3149541 -0.046242848 0.021217199 -0.053467136
0.23863687 -0.11074261 0.35129923 0.01308335 0.24933901 -0.023075111 -0.18118499 0.25028214
-0.16236573 0.0787514 -0.2074086 -0.115004234 0.07352519 0.007879487 0.09008446 0.017044239
-0.07065425 -0.0718834 0.07113316 0.22722957 -0.23540978 0.2023893 0.15645546 0.29950562
00000000: 9cf6 3c3d d223 cd3c d2d9 34bc 519d 30bd
00000010: cddd 74bd c759 a3bd 0db8 843d 1c56 763d
00000020: ddd5 5ebd a043 823d 3d81 cebc 5c93 e93b
00000030: c48e 9e3d da06 68bd fb9f bd3c daff 663d
00000040: 9bca 59bd 65d7 9dbd 2c02 8e3d 6607 603d
00000050: 8ac6 d0bc 614d 81bc 9dfd 863d d9d7 75bd
00000060: 5c47 c63a 000e 713c da33 c3bc 0033 96bb
00000070: 9fd5 dd3c 7f7e 79bd 2137 68bd bfd8 39bd
00000080: 8f68 acbb 4881 0f3b 52db 863d a488 8e3b
00000090: 851e c73c 188c 95bd 66e6 853d 14f9 823d
000000a0: cacf efbc a45e 563c dca0 e23c f1cc f8bc
000000b0: e17f 463d 6fcb 5abd 8382 363d b6c9 c8bc
000000c0: fbe5 c43c 5cfb 103b 12cc b5bc d457 3c3d
000000d0: bb7b 99bd e6ac 093d 7d5f 83bd cd37 643d
000000e0: 9e7b a1bd 331b f83a 3d70 583c 0f38 f93c
000000f0: ae77 9fbc 0164 28bd 9f8b 493d 5a80 d4bc
00000100: 634d 95bd a384 9a3d 881d 01bd 76df 803c
00000110: 532a 6cbd b656 3a3d 92bc 0e3d f99d 8fbd
00000120: a988 ac3c cde4 c23a 7bbd 84bd 2259 5cbd
00000130: 710c 5f3d 437a 163d 845d 9c3d 1dc9 a03d
00000140: 465f 843d 0f4d 91bc e97f 1ebd cd05 973c
00000150: 4d47 5cbd ae86 453d 31b3 ecbc 0097 573d
00000160: 14f2 f5bb 8f50 983d 5001 41bd 7618 133d
00000170: ae2f 203b dfad 3d3d b884 8fbc f69a 97bd
00000180: cde2 edbb f2c2 993d dcb2 e0bc c395 533b
00000190: 7329 943d 9c1e 403d 328c 8b3d 431a 84bd
000001a0: 7bc8 3d3c cedb 8abd 0f98 9f3d 4365 f5bc
000001b0: aa68 61bd d4b7 9dbc a488 cdbb f6de eb3b
000001c0: b13f 58bd 8fae 4dbd beaf 4ebd 0f60 d33c
000001d0: 1fe2 6e3c f66b 3c3d 26d0 2abd 73df 28bd
000001e0: 048b 4abd cfad 383d 8532 343d aeba c3bc
000001f0: d73b 4a3d 4dc9 c23c b812 8b3b a49a 893c
00000200: 87cd 56bb de6a bebe f70e 87bd deb3 223d
00000210: 1f83 493c e04a 103e c608 6abe d1e4 a3bd
00000220: 5e62 a23c c5a1 77bd be9a acbd 1daa aa3d
00000230: f81b 023d 1b89 0fbe 92b4 3d3e cd07 bf38
00000240: 6d63 95bd 2368 ec3c 1c96 6bbe 957f 8dbc
00000250: 64ee 4c3e fd1c a43d 7e9f 74bd 0917 52bd
00000260: e74c 12be 968e d33e 3bd6 75bd 74d7 9b3e
00000270: fc2c 0dbe 5cf1 893e 6fdb e9bd a70b 623d
00000280: 378a 6dbd f467 90be 8858 083e 9dd4 5cbc
00000290: 89cd 79be 4dad b43d c33d d6bd f62c ecbd
000002a0: 2e13 623e 4410 1e3e 1435 03bc 41bd 51be
000002b0: 40b9 a0bd d71a c53c 5805 d3bd 34fa c43d
000002c0: b6fa 44bd 05e7 583e 6cb0 14bd 0ebf 4cbe
000002d0: 7c9e 35bd 6d9a 123e 4283 bc3d dbb0 77bd
000002e0: fddd c13d c160 243d bb2e a63e e07c b3bc
000002f0: 00ec 14be c584 853e 91d4 663e 3591 c3bc
00000300: cd81 383e ff88 f8bc b0dc 13be d796 6d3e
00000310: 7b2e 323e 2c53 05be 3fe5 21bc 723a 6cbc
00000320: 244e d93d 96a8 85be af06 b4bd 7fc4 4ebe
00000330: a018 2a3d fdee b1bd 5d40 b03e 2229 623d
00000340: ce9d 0d3e 875e 263e d284 10be 65e2 163d
00000350: 8278 ac3d 3448 d3bd feef a33d a412 92be
00000360: c7ba 88be cd1b c73e a5af aabd fe82 a93e
00000370: 02e8 abbd 4a13 24bb e046 6e3d f789 273d
00000380: 00e8 a7be 8124 cdbd d41e 1fbe ba8a ad3c
00000390: aa41 a13e 2469 3dbd b1cf ad3c 5b00 5bbd
000003a0: 395d 743e 06cd e2bd 7edd b33e 8c5b 563c
000003b0: ba52 7f3e 0408 bdbc 8f88 39be fb24 803e
000003c0: 3443 26be 6a48 a13d ec62 54be 5787 ebbd
000003d0: 6094 963d f718 013c 347e b83d 5ca0 8b3c
000003e0: 2db3 90bd 9b37 93bd 43ae 913d deae 683e
000003f0: 430f 71be 243f 4f3e dc35 203e cd58 993e

encoder.LSTM.weight_ih_l0 f4 [512, 64]
0.75901437 -0.15296915 -1.1961873 0.9657501 0.5775435 0.1884799 -0.4021154 -0.5499563
0.37643564 -0.7667988 -0.5032948 -0.2008023 -0.45112225 -0.74233866 -0.09249272 0.6318001
0.2788742 0.13297264 -0.45841128 -0.1420762 0.43527094 -0.99133754 0.20742472 -0.20249094
-0.15548915 0.33629882 -0.05301286 -0.066732585 -0.16478162 0.03997073 0.37805197 0.041047845
-0.34657192 -0.08955421 -0.036622457 0.09979098 -0.09402595 0.24173659 -0.25632232 -0.23942234
0.35483322 0.29518467 0.09595719 -0.28911453 0.007838765 -0.20829277 -0.18913828 0.6604728
-0.3568366 0.06964877 -0.1473374 -0.40657598 -0.012169669 0.28519776 0.1606013 -5.804162e-05
0.33320007 0.4319177 0.1862066 -0.048080787 0.00086901075 0.36871448 0.15936343 -0.012552892
-0.07343837 -0.22188543 0.28258523 -0.19736132 -0.3107718 0.58409745 -0.17711149 -0.6475265
0.3008441 -0.30969763 0.07150089 -0.19713554 -0.54359955 0.35169193 0.44809678 -0.32813975
-0.39437252 0.24994636 -0.54976094 -0.5195321 0.45282897 0.35435525 -0.3322498 0.40468872
-0.24162097 0.2851607 0.6045703 0.17350784 -0.22686292 0.5415412 0.3143318 0.65067196
-0.23018713 -0.3347612 -0.27463123 0.49418223 -0.32932216 0.4700092 -0.05847093 -0.20218812
0.35046634 0.48436728 0.23429185 -0.35013336 0.04104559 0.35198084 -0.41577497 0.064321846
-0.3356753 0.42702487 -0.14597282 -0.2159753 0.12319849 -0.022881394 0.38464892 -0.03666761
0.31001848 0.20933993 0.10365424 -0.045339957 -0.47309324 0.4854721 -0.015154412 -0.05928164
-0.039415732 -0.15195498 0.019830972 -0.058018573 -0.043984707 0.07727242 -0.034639955 -0.07287182
0.11647052 -0.08921203 0.10885406 -0.013078979 -0.12955129 0.082880266 -0.030790163 0.04846775
0.081533976 0.1250807 -0.06847081 -0.23513839 -0.053776324 0.13434643 -0.067447335 0.019733155
-0.047629684 -0.052792538 0.2335536 0.11692767 0.0014720648 0.018121697 0.07228362 0.05778233
-0.04490686 -0.048656512 -0.023546979 -0.00019893305 0.015775347 0.15104792 -0.06946192 -0.05773811
-0.07419439 -0.027161667 -0.01939504 0.012052715 -0.13054232 0.17313354 -0.1087442 0.046048924
-0.012604387 0.13705158 0.018124444 -0.13251679 0.093175754 -0.04950999 0.046831522 -0.07206463
-0.05431266 0.014030109 0.04648278 -0.109314755 -0.075419985 0.07458142 -0.004393944 -0.05462788
-0.13435823 -0.14789002 0.13986433 -0.12398054 0.10325754 0.10987986 -0.0069351927 -0.13004799
0.004437346 -0.02753196 0.14277615 -0.22248231 -0.17400332 0.21713397 0.13088791 -0.16815396
-0.20141421 0.084389836 -0.14351368 -0.046803545 -0.12259297 0.22391091 0.12315711 0.5687145
0.0981539 0.03870242 -0.1629427 -0.19421153 -0.07174999 -0.046908937 -0.12898095 0.08614402
0.17090338 -0.098041065 -0.0910252 0.28377768 -0.1723436 -0.01351896 0.025365828 -0.10761124
0.042523213 0.090339005 -0.080661416 0.06187359 -0.04152416 0.02373117 -0.078386955 0.12479962
-0.25212896 -0.12693395 0.15185195 -0.26341385 -0.007787621 0.21964477 0.11386886 0.2874509
0.23659545 -0.018176213 -0.066644646 -0.10921969 -0.008585423 -0.0010183827 0.011129181 -0.17227773
00000000: c44e 423f f2a3 1cbe aa1c 99bf 663b 773f
00000010: e4d9 133f e000 413e 12e2 cdbe f0c9 0cbf
00000020: 2cbc c03e ed4c 44bf eed7 00bf 1e9f 4dbe
00000030: 7ff9 e6be e809 3ebf d36c bdbd a7bd 213f
00000040: 99c8 8e3e fb29 083e e2b4 eabe 6c7c 11be
00000050: d5db de3e 4cc8 7dbf 2567 543e c959 4fbe
00000060: 8c38 1fbe 5c2f ac3e 0324 59bd 18ab 88bd
00000070: 83bc 28be 59b8 233d 0790 c13e c921 283d
00000080: e071 b1be 3368 b7bd 6e01 16bd 375f cc3d
00000090: ad90 c0bd cc89 773e ae3c 83be 212b 75be
000000a0: b3ac b53e 7222 973e 3485 c43d d206 94be
000000b0: 2a6e 003c b34a 55be 77ad 41be bf14 293f
000000c0: 49b3 b6be 04a4 8e3d 9edf 16be ba2a d0be
000000d0: 4b63 47bc 7105 923e ab74 243e b771 73b8
000000e0: 3399 aa3e 5124 dd3e f1ac 3e3e 5cf0 44bd
000000f0: 53ce 633a 25c8 bc3e 2b30 233e a5aa 4dbc
00000100: db66 96bd ef35 63be 03af 903e 1619 4abe
00000110: 7b1d 9fbe 6987 153f b75c 35be 4cc4 25bf
00000120: 3d08 9a3e b090 9ebe 0f6f 923d e6dd 49be
00000130: 5729 0bbf f710 b43e f16c e53e ef01 a8be
00000140: 32eb c9be f0f1 7f3e 22bd 0cbf 0e00 05bf
00000150: 33d9 e73e 0d6e b53e a51c aabe 5c33 cf3e
00000160: 7d6b 77be 9500 923e 1fc5 1a3f 0aac 313e
00000170: c14e 68be 72a2 0a3f 19f0 a03e 7092 263f
00000180: 2db6 6bbe d265 abbe 779c 8cbe 7405 fd3e
00000190: ea9c a8be 0ca5 f03e 377f 6fbd 670a 4fbe
000001a0: 5370 b33e fdfe f73e 34ea 6f3e ae44 b3be
000001b0: 6c1f 283d d536 b43e 75e0 d4be 2cbb 833d
000001c0: a2dd abbe 01a3 da3e e679 15be a128 5dbe
000001d0: 7d4f fc3d c371 bbbc b4f0 c43e c730 16bd
000001e0: beba 9e3e 355d 563e ad48 d43d 64b6 39bd
000001f0: 4739 f2be cd8f f83e 364a 78bc 4ed1 72bd
00000200: 6472 21bd 169a 1bbe 9074 a23c e2a4 6dbd
00000210: 4f29 34bd 0141 9e3d a0e2 0dbd d23d 95bd
00000220: 1988 ee3d ccb4 b6bd e1ee de3d 3749 56bc
00000230: 18a9 04be 21bd a93d a73b fcbc 1f86 463d
00000240: 49fb a63d 2815 003e 6d3a 8cbd 1ec8 70be
00000250: 9044 5cbd 1c92 093e d421 8abd 6da7 a13c
00000260: 5817 43bd fd3c 58bd ad28 6f3e c677 ef3d
00000270: 4cf2 c03a f473 943c 6f09 943d 2aad 6c3d
00000280: 41f0 37bd 0d4c 47bd 98e5 c0bc af98 50b9
00000290: 4d3b 813c 4eac 1a3e 0d42 8ebd cc7e 6cbd
000002a0: 3af3 97bd 2582 debc 59e2 9ebc c078 453c
000002b0: e3ac 05be eb49 313e 47b5 debd cc9d 3c3d
000002c0: a182 4ebc 4057 0c3e b779 943c 7bb2 07be
000002d0: eed2 be3d fdca 4abd 69d2 3f3d 9f96 93bd
000002e0: f476 5ebd 8bde 653c ba64 3e3d 6ae0 dfbd
000002f0: cb75 9abd 25be 983d 13fb 8fbb 7cc1 5fbd
00000300: 3495 09be 7b70 17be 9838 0f3e 82e9 fdbd
00000310: b078 d33d b108 e13d 9d40 e3bb 4d2b 05be
00000320: 2867 913b b48a e1bc e933 123e 67d2 63be
00000330: ed2d 32be 5e58 5e3e 7b07 063e 8d30 2cbe
00000340: 873f 4ebe 94d4 ac3d 40f5 12be 13b5 3fbd
00000350: 0612 fbbd e748 653e cb39 fc3d 4697 113f
00000360: e904 c93d 6e86 1e3d 73da 26be 63df 46be
00000370: a9f1 92bd 9623 40bd 9513 04be 476c b03d
00000380: 4c01 2f3e c1c9 c8bd 6c6b babd 4f4b 913e
00000390: d77a 30be a17e 5dbc ffcb cf3c 4863 dcbd
000003a0: d22c 2e3d a803 b93d d031 a5bd 296f 7d3d
000003b0: 3d15 2abd df67 c23c 5789 a0bd f196 ff3d
000003c0: 0c17 81be f9fa 01be 147f 1b3e 2ede 86be
000003d0: 4d2f ffbb 8fea 603e 1434 e93d c42c 933e
000003e0: 1446 723e 48e6 94bc fd7c 88bd 93ae dfbd
000003f0: e0a9 0cbc 417b 85ba 2b57 363c 9369 30be

encoder.LSTM.weight_hh_l0 f4 [512, 128]
0.34119484 -0.018463686 0.04129945 -0.016483635 -0.09806491 0.025060032 0.14645176 -0.12111737
0.024637707 0.08244107 -0.105696164 0.01560691 -0.009653321 0.046408553 -0.07507308 0.0071908166
0.12557775 -0.024965119 0.060426604 0.085183345 0.12239962 -0.028820405 -0.11067432 0.110442884
-0.07373249 0.025338309 0.09178588 -0.23756945 0.33895177 -0.07844885 -0.09569303 -0.025983948
-0.015551152 0.022493714 0.15912755 0.119938225 -0.01559959 -0.07000994 -0.025403995 -0.03858336
0.062202457 -0.06444614 0.26039934 -0.0013558683 -0.027074883 0.018012473 0.12114688 0.04950373
-0.08905557 -0.03262087 0.03621721 0.07031235 0.11273095 -0.01458292 -0.030553306 -0.044826355
-0.13167326 -0.12277792 0.023769826 -0.115811616 -0.034983646 -0.09215183 0.049423095 0.02833837
0.16889256 -0.013963943 0.005191938 0.003355572 0.1188297 -0.069281355 0.059639137 0.04988187
-0.06414426 0.04666214 -0.09311285 -0.07747261 0.044863224 -0.108311936 -0.026840324 0.0116208065
0.022352371 0.057993848 -0.04432055 0.077218026 0.021803442 0.04868823 0.023900624 0.04874451
-0.024944838 -0.046289135 -0.08575841 -0.015507175 0.023231123 0.014127998 -0.055391166 -0.017687371
0.07762753 -0.10358706 -0.15936269 0.010833086 0.02994837 0.102289855 0.049142845 0.0795575
0.0250385 0.037806977 0.04145901 -0.016528036 0.05400862 -0.0020049491 -0.05487404 -0.008358938
0.006650438 -0.11814359 0.013140602 -0.08688119 -0.13074942 0.08405695 0.0019738968 -0.047274068
0.035060998 -0.01693485 -0.037450887 -0.08037406 0.035247926 0.100735605 -0.013723899 0.06842025
0.13874187 0.11801623 -0.018496756 -0.0017051054 -0.25581458 -0.11845397 -0.06807234 -0.1658701
-0.04004215 -0.047345925 -0.18035704 0.017191838 0.10485899 -0.055737086 -0.23435983 -0.037199434
0.110290974 -0.062861614 -0.12539957 0.15310732 0.3044946 -0.2247675 -0.005063248 0.112025
-0.24880767 -0.14417529 0.061781246 -0.09975271 -0.2801465 0.09211993 -0.030111223 -0.07638303
-0.16600113 0.009812945 0.1952818 -0.10061865 0.04077428 -0.16287638 -0.090989225 0.35707426
-0.10806256 -0.03251069 -0.30271962 -0.25561666 -0.042767882 0.034875516 0.22296579 0.12369139
-0.07227073 0.09479851 0.1592278 0.087034725 0.022287156 0.09269079 -0.5241449 -0.021186858
-0.09205278 -0.055668347 0.09388524 -0.26979592 0.049804423 -0.020356612 0.11407214 -0.012679842
0.4988096 0.014818288 -0.30184317 0.31782132 -0.012269203 -0.30331874 -0.13944648 0.07553035
-0.09695567 0.32096735 -0.07809232 -0.11420472 -0.27113935 -0.29846334 -0.123039916 -0.15283419
0.059888855 0.12183992 -0.0823075 0.07010381 0.20876129 -0.11679991 -0.062180337 0.12136665
0.12454603 -0.009361834 0.1258587 -0.03178238 -0.13440438 0.16129941 0.008908958 0.23484789
0.06906481 -0.16424514 0.35736403 0.082663685 0.09383962 0.0074334787 0.036157787 -0.10447408
-0.33725196 0.09142319 0.20572668 -0.073635176 0.07186132 -0.024105718 0.12072091 -0.211218
-0.16302387 -0.23225479 0.017268956 -0.3996283 -0.43485627 0.019307807 0.16014639 0.21766628
0.19983187 0.018735833 0.29094678 0.11724773 -0.013745611 0.24404503 -0.25685954 0.08387744
00000000: 17b1 ae3e 2841 97bc 9d29 293d b008 87bc
00000010: 41d6 c8bd b24a cd3c 73f7 153e 620c f8bd
00000020: 04d5 c93c ddd6 a83d 3b77 d8bd 20b4 7f3c
00000030: f628 1ebc e516 3e3d eabf 99bd f1a0 eb3b
00000040: 7497 003e a683 ccbc e381 773d 9b74 ae3d
00000050: a7ac fa3d c518 ecbc 38a9 e2bd e12f e23d
00000060: 0f01 97bd 4992 cf3c 3cfa bb3d 6845 73be
00000070: 168b ad3e caa9 a0bd b5fa c3bd 4adc d4bc
00000080: 42ca 7ebc bd44 b83c 55f2 223e 2ca2 f53d
00000090: 6c95 7fbc 5f61 8fbd 0a1c d0bc 9609 1ebd
000000a0: 01c8 7e3d 56fc 83bd 1053 853e 64b7 b1ba
000000b0: 25cc ddbc e58e 933c db1b f83d 6cc4 4a3d
000000c0: c462 b6bd 769d 05bd 7f58 143d ecff 8f3d
000000d0: 7cdf e63d 33ed 6ebc ed4a fabc d79b 37bd
000000e0: 5bd5 06be fd72 fbbd f0b8 c23c a42e edbd
000000f0: 034b 0fbd 19ba bcbd df6f 4a3d df25 e83c
00000100: 2cf2 2c3e 06c9 64bc 2221 aa3b 28e9 5b3b
00000110: fc5c f33d 62e3 8dbd 2b48 743d ef50 4c3d
00000120: 115e 83bd cd20 3f3d f3b1 bebd f6a9 9ebd
00000130: 80c2 373d a6d2 ddbd 3de0 dbbc 3265 3e3c
00000140: 521c b73c f58a 6d3d 7789 35bd 7c24 9e3d
00000150: 229d b23c 4f6d 473d 3ecb c33c 53a8 473d
00000160: 1e59 ccbc ad99 3dbd 1ba2 afbd ce11 7ebc
00000170: 324f be3c 1e79 673c d9e1 62bd 1be5 90bc
00000180: 2ffb 9e3d 7425 d4bd f92f 23be 427d 313c
00000190: 4956 f53c 587d d13d 024a 493d 0bef a23d
000001a0: 8a1d cd3c 7ddb 1a3d ecd0 293d ce65 87bc
000001b0: 2538 5d3d 7765 03bb 9ac3 60bd edf3 08bc
000001c0: ebeb d93b 44f5 f1bd ae4b 573c c4ee b1bd
000001d0: 2de3 05be 0d26 ac3d 7e5c 013b 74a2 41bd
000001e0: 1f9c 0f3d f4ba 8abc 1a66 19bd 289b a4bd
000001f0: 2160 103d 784e ce3d 34da 60bc eb1f 8c3d
00000200: 5912 0e3e 7eb2 f13d 8286 97bc d87d dfba
00000210: 21fa 82be ff97 f2bd 8369 8bbd dad9 29be
00000220: 3d03 24bd cded 41bd 84af 38be e6d5 8c3c
00000230: 4fc0 d63d 924c 64bd 06fc 6fbe 6f5e 18bd
00000240: 3ce0 e13d 97bd 80bd bf68 00be 2ac8 1c3e
00000250: b7e6 9b3e 7429 66be 9ae9 a5bb 5d6d e53d
00000260: 70c7 7ebe b0a2 13be 550e 7d3d 264b ccbd
00000270: 5d6f 8fbe 60a9 bc3d d0ab f6bc b56e 9cbd
00000280: 33fc 29be 79c6 203c f4f7 473e 2711 cebd
00000290: ee02 273d 11c9 26be 8f58 babd 70d2 b63e
000002a0: e74f ddbd ee29 05bd 11fe 9abe 30e0 82be
000002b0: 602d 2fbd a1d9 0e3d 2551 643e e951 fd3d
000002c0: ad02 94bd b925 c23d 9d0c 233e 433f b23d
000002d0: 8e93 b63c abd4 bd3d 5c2e 06bf 1090 adbc
000002e0: 2b86 bcbd 7e04 64bd e846 c03d b122 8abe
000002f0: b9ff 4b3d e9c2 a6bc a79e e93d 1dbf 4fbc
00000300: f963 ff3e 68c8 723c 308b 9abe 7ab9 a23e
00000310: c404 49bc 984c 9bbe 0fcb 0ebe a8af 9a3d
00000320: b290 c6bd d555 a43e deee 9fbd 2ae4 e9bd
00000330: c7d2 8abe 30d0 98be 5afc fbbd 9180 1cbe
00000340: 044e 753d 3587 f93d d690 a8bd 9692 8f3d
00000350: 85c5 553e cb34 efbd cfb0 7ebd 148f f83d
00000360: fd11 ff3d 6162 19bc 1ae1 003e 3e2e 02bd
00000370: 4da1 09be ac2b 253e e1f6 113c f77b 703e
00000380: da71 8d3d e12f 28be 6bf8 b63e 944b a93d
00000390: fd2e c03d 8a94 f33b 301a 143d 82f6 d5bd
000003a0: 4aac acbe 153c bb3d 04aa 523e 0ace 96bd
000003b0: 072c 933d 5b79 c5bc 863c f73d 8849 58be
000003c0: bbef 26be 33d4 6dbe a077 8d3c 159c ccbe
000003d0: 7ba5 debe 682b 9e3c 6afd 233e e9e3 5e3e
000003e0: baa0 4c3e e47b 993c faf6 943e 941f f03d
000003f0: 4535 61bc f1e6 793e 1883 83be efc7 ab3d

encoder.LSTM.bias_ih_l0 f4 [512]
0.007192924 0.16048586 -0.07175564 0.085279234 -0.0126828505 0.29679686 0.19570437 -0.020730544
0.42300093 0.021474522 0.17135431 0.16637753 0.32590118 0.23392326 -0.01652769 0.29081675
0.3336381 0.2840198 0.14572649 -0.20683835 -0.06766419 0.07004829 -0.03465516 -0.012377134
-0.037629444 -0.1022295 0.06840963 -0.022924699 0.23655331 -0.010241666 0.20296969 -0.023861893
0.32053006 -0.057521734 -0.037354786 -0.0020284953 0.062852874 0.17077935 0.05975609 -0.011085403
0.104433045 0.12855518 0.08278126 -0.06514236 0.08712012 0.17892571 0.0059629134 0.39673337
0.22499168 0.21999806 -0.0034850999 -0.025161853 -0.19976895 0.168476 -0.06333196 0.21476671
0.25853226 -0.026114084 0.034788597 0.08297271 0.11453862 0.05974155 -0.030058563 0.04363581
-0.07682101 0.087726615 0.086024396 0.1111294 0.0059943837 -0.05420196 0.06856973 0.18872772
0.049561553 0.052535065 -0.10532335 0.22030362 0.06207554 0.100344196 0.028623031 0.18326113
0.16769482 0.11707374 0.17091335 -0.008141362 0.24702233 0.02223053 -0.14817062 0.33021757
-0.068712674 0.034036312 0.09139814 0.13465638 0.14948085 0.08095111 0.2557514 0.1524285
0.03123662 0.28941616 0.07801311 0.26576793 0.12453881 0.017721308 0.008559265 0.24844494
-0.0055875266 0.12750576 0.15474753 -0.050962303 -0.07377554 0.006969766 -0.0065603387 -0.013826717
0.30346856 0.098522924 0.052293114 -0.03097521 -0.043152325 0.017532127 0.18855198 0.2816937
0.0007596661 0.14012711 0.060714174 0.021643566 -0.03128575 0.31556886 0.07199782 -0.04049743
0.059652574 0.043224677 0.07415998 0.119119085 0.03700637 0.025789266 0.20955694 0.046677247
0.10291353 0.057144992 0.10633206 0.21353115 0.069704585 0.078330055 0.2095752 0.17470609
0.0058149514 0.14087008 0.11989412 0.15031205 -0.056388292 0.05285992 0.049061477 0.12072218
0.08901239 0.0140161 0.05253964 -0.07911317 0.0023685866 0.14393859 0.19316657 0.0016143405
0.14647523 0.018155767 -0.032997984 -0.045377318 -0.07976903 0.048125803 0.1576156 0.036991075
-0.029971724 0.040711723 -0.05584053 0.031832315 0.1453305 0.09164622 -0.062023792 0.12019603
-0.040901847 0.19087197 0.0069862963 0.039091643 -0.026160091 0.049594227 -0.041663706 0.14152099
0.09851942 0.13117138 0.06170031 -0.0104078455 0.07678553 0.008428678 0.09576183 0.03812328
0.08387313 0.0038867453 0.07829506 -0.012672232 -0.08663759 -0.008616173 0.1737632 0.1876513
0.017350059 0.104599625 0.101651214 0.20338017 0.12077154 -0.048354134 -0.021219358 -0.030698573
-0.02587464 -0.002698897 0.027529212 -0.07843426 0.19637713 0.027904272 0.1185797 0.10313846
-0.010956631 0.2300674 -0.009584619 0.048001837 -0.06622171 0.013854134 0.0067403233 -0.013129312
-0.0025224385 0.07429189 0.1878636 0.13980134 0.054610383 0.20884053 0.1254641 0.19826584
0.09384588 0.14200784 0.03245589 0.071670786 -0.03052925 0.1026447 0.053284932 0.034505453
0.111763105 0.010598843 0.1656568 0.12030813 0.0698526 0.10867186 -0.036956824 -0.029823335
0.075915426 0.19819157 0.022859015 -0.033215817 0.048797905 -0.0082712555 0.0066531403 0.09469679
00000000: 9fb2 eb3b 6856 243e 9ff4 92bd e1a6 ae3d
00000010: bbcb 4fbc c2f5 973e ba66 483e 1ad3 a9bc
00000020: 9493 d83e 56eb af3c 8177 2f3e df5e 2a3e
00000030: 85dc a63e 9489 6f3e 1465 87bc efe5 943e
00000040: 9dd2 aa3e 0b6b 913e 5339 153e 6fcd 53be
00000050: 8693 8abd 7a75 8f3d 92f2 0dbd 76c9 4abc
00000060: 5521 1abd b35d d1bd 591a 8c3d 94cc bbbc
00000070: 083b 723e a9cc 27bc 49d7 4f3e 047a c3bc
00000080: 841c a43e e99b 6bbd 5501 19bd 81f0 04bb
00000090: 02b9 803d c8e0 2e3e cdc2 743d 8d9f 35bc
000000a0: fee0 d53d f8a3 033e 3989 a93d 5c69 85bd
000000b0: 096c b23d 4d38 373e 8b64 c33b a320 cb3e
000000c0: 3864 663e 2c47 613e 4666 64bb 3b20 cebc
000000d0: 3b90 4cbe f984 2c3e 30b4 81bd ceeb 5b3e
000000e0: 575e 843e 34ed d5bc 7d7e 0e3d 99ed a93d
000000f0: 3993 ea3d 8eb3 743d 603d f6bc 77bb 323d
00000100: 5554 9dbd 03aa b33d 8f2d b03d d097 e33d
00000110: 896c c43b e002 5ebd 496e 8c3d d741 413e
00000120: 0e01 4b3d 022f 573d c5b3 d7bd 4697 613e
00000130: ec42 7e3d 4281 cd3d d97a ea3c cea8 3b3e
00000140: 31b8 2b3e 5bc4 ef3d e903 2f3e 5963 05bc
00000150: 6cf3 7c3e cd1c b63c 0aba 17be 4712 a93e
00000160: 3bb9 8cbd a969 0b3d f32e bb3d 5de3 093e
00000170: 8211 193e b2c9 a53d d9f1 823e 3716 1c3e
00000180: f1e3 ff3c 5b2e 943e 56c5 9f3d bc12 883e
00000190: 340e ff3d 472c 913c 293c 0c3c 5a68 7e3e
000001a0: 9217 b7bb df90 023e 2376 1e3e d9bd 50bd
000001b0: a117 97bd a362 e43b 1cf8 d6bb 7489 62bc
000001c0: 3b60 9b3e 63c6 c93d 4e31 563d b9bf fdbc
000001d0: 7ec0 30bd 899f 8f3c c513 413e 283a 903e
000001e0: 5424 473a 7b7d 0f3e 6daf 783d d94d b13c
000001f0: 7d25 00bd 3e92 a13e 9873 933d a2e0 25bd
00000200: 4256 743d 5c0c 313d 30e1 973d b5f4 f33d
00000210: fe93 173d 0344 d33c 1896 563e a430 3f3d
00000220: 54c4 d23d de10 6a3d a0c4 d93d e9a7 5a3e
00000230: 47c1 8e3d 826b a03d e29a 563e 27e6 323e
00000240: 598b be3b 3f40 103e 0c8b f53d 67eb 193e
00000250: 69f7 66bd a583 583d b0f4 483d 313d f73d
00000260: 214c b63d c9a3 653c ce33 573d 1606 a2bd
00000270: 4a3a 1b3b a364 133e 75cd 453e 4798 d33a
00000280: 9afd 153e 67bb 943c e528 07bd 91dd 39bd
00000290: f25d a3bd 901f 453d fc65 213e f483 173d
000002a0: 4387 f5bc 56c1 263d 0ab9 64bd 9a62 023d
000002b0: 85d1 143e 03b1 bb3d a90c 7ebd 5629 f63d
000002c0: b288 27bd f173 433e 4ded e43b 8f1e 203d
000002d0: b04d d6bc 5123 4b3d 90a7 2abd e1ea 103e
000002e0: 8dc4 c93d ca51 063e 77b9 7c3d ab85 2abc
000002f0: bb41 9d3d 7018 0a3c c71e c43d 2827 1c3d
00000300: adc5 ab3d c4b8 7e3b 2959 a03d 329f 4fbc
00000310: 0c6f b1bd d92a 0dbc fbee 313e aa27 403e
00000320: b621 8e3c 5438 d63d 832e d03d e442 503e
00000330: 1257 f73d fc0e 46bd 38d4 adbc 937b fbbc
00000340: 0ef7 d3bc fadf 30bb f184 e13c 24a2 a0bd
00000350: 1617 493e 8097 e43c ead9 f23d 423a d33d
00000360: 7183 33bc ca96 6b3e ce08 1dbc 939d 443d
00000370: 3f9f 87bd 73fc 623c eedd dc3b 531c 57bc
00000380: 7f4f 25bb 5926 983d 515f 403e 1528 0f3e
00000390: 23af 5f3d 4bda 553e a979 003e 3306 4b3e
000003a0: 4532 c03d 816a 113e 78f0 043d 22c8 923d
000003b0: 7a18 fabc 6237 d23d 4d41 5a3d 9755 0d3d
000003c0: 0ee4 e43d c5a6 2d3c f0a1 293e 1c64 f63d
000003d0: e10e 8f3d 5a8f de3d 0a60 17bd 1150 f4bc
000003e0: 8c79 9b3d bbf2 4a3e d442 bb3c 4f0d 08bd
000003f0: 50e0 473d 2984 07bc 9602 da3b 64f0 c13d

encoder.LSTM.bias_hh_l0 f4 [512]
-0.030002646 0.158597 0.012195997 0.044450838 0.069300845 0.3570367 0.27729377 0.014067706
0.46374482 -0.050407235 0.18094584 0.114886254 0.45261905 0.30630535 -0.06925273 0.38883406
0.29381174 0.34040034 0.11750557 -0.19133162 -0.040575564 -0.01617991 0.06589626 -0.045173846
0.061589003 0.018706825 0.031786617 0.013534807 0.13762344 0.034053385 0.3081668 -0.047485188
0.37285838 0.0054823454 0.030051565 0.10681244 0.060895402 0.036868114 0.14105645 0.006191249
0.10663882 0.054899413 0.101170346 0.0037387882 0.19814159 0.1816042 -0.047375858 0.3659635
0.31171867 0.13030015 -0.09546149 0.08528522 -0.17584893 0.12428593 -0.051083185 0.22559859
0.27509117 0.12521052 -0.04018847 0.07703902 0.12753646 0.164272 -0.07036728 0.042012908
-0.030858997 0.05373336 0.03900138 -0.040444516 0.04893955 -0.060778428 0.04387987 0.181366
0.11783643 -0.07990036 -0.12717067 0.25127473 0.0505507 0.05427988 0.0058772857 0.10365132
0.15615644 -0.003643659 0.18279177 -0.022549137 0.25496483 0.007116575 -0.16205126 0.22603518
0.053168427 0.0602429 0.03325113 0.058321178 0.1592664 -0.013302478 0.1755546 0.14887019
0.058806207 0.32806113 -0.0129931625 0.21266644 0.18331963 0.04672845 0.02185159 0.30035278
-0.012778818 0.08706882 0.07150347 -0.10860225 0.04384915 -0.07405878 -0.053179357 -0.07590062
0.27510577 0.06303345 -0.017552717 -0.039374694 -0.04983295 0.018538773 0.21298978 0.22968827
0.03094379 0.0851058 0.15017392 -0.008358159 0.051563676 0.2494386 -0.044135556 -0.010912573
0.09784743 -0.019059105 0.115910806 0.10149742 0.10943003 0.13735862 0.22471185 0.0523819
0.10915768 0.08176067 0.037171174 0.2852111 0.074001744 -0.034688026 0.24701017 0.07611125
-0.020568544 0.1812465 0.03718821 0.0032185484 0.045658946 0.030957773 -0.003932359 0.10062721
0.110994786 0.14274517 -0.028699994 -0.07618839 -0.10348385 0.010834708 0.28497776 -0.06224274
0.19289961 -0.021492556 0.012838603 -0.055063028 -0.07008179 0.00040942297 0.14784749 0.14420919
0.07404383 -0.0214725 -0.114618935 0.098661475 0.16420566 0.047257226 -0.06254481 0.15910232
-0.049074892 0.13794513 0.018502785 -0.038808208 0.009161564 0.07852733 0.054740977 0.07552626
0.051342633 0.105136566 0.007728499 -0.07972113 -0.020970782 -0.055965405 0.003033697 0.030356586
0.11937171 -0.03727382 0.13248749 -0.040840328 0.045094617 -0.030515999 0.091063395 0.12871757
0.04367877 0.045582414 0.032957267 0.21940449 -0.009563891 0.004653704 0.0984966 -0.02592955
0.043624885 0.06346611 0.105523035 0.0015996449 0.13490294 0.012250339 0.098981105 0.053190913
0.06905444 0.33432382 0.10928703 0.088629924 0.026379613 0.050624605 0.09094005 0.009020823
0.0013955192 -0.0003286977 0.252619 0.048466086 0.037208155 0.24927713 0.19552922 0.104430884
0.053101916 0.11638477 -0.052781817 0.017028766 0.06762161 0.0153599605 0.03452525 -0.03077159
0.14463754 -0.022400726 0.19122136 0.20369944 0.0808768 0.045650456 0.098224066 0.0541641
0.025044272 0.13660662 -0.07450547 0.026784496 0.04884818 -0.089068055 0.0044364994 0.03417462
00000000: 1cc8 f5bc 4167 223e b8d1 473c 1512 363d
00000010: 9aed 8d3d 84cd b63e 73f9 8d3e 3c7c 663c
00000020: f66f ed3e d177 4ebd de49 393e 7c49 eb3d
00000030: afbd e73e 0ed4 9c3e 60d4 8dbd 4215 c73e
00000040: 7e6e 963e f448 ae3e c3a6 f03d 70ec 43be
00000050: 9032 26bd bb8b 84bc 9ef4 863d 3608 39bd
00000060: c044 7c3d 0e3f 993c af32 023d 18c1 5d3c
00000070: 29ed 0c3e 907b 0b3d 0ac8 9d3e d47f 42bd
00000080: 4be7 be3e 3fa5 b33b b32e f63c 7bc0 da3d
00000090: 756d 793d 0503 173d 1a71 103e f6df ca3b
000000a0: 7465 da3d 35de 603d 6632 cf3d 7506 753b
000000b0: a1e5 4a3e 74f6 393e 300d 42bd 915f bb3e
000000c0: 9799 9f3e 676d 053e 5081 c3bd 04aa ae3d
000000d0: be11 34be 9f89 fe3d 9a3c 51bd 5103 673e
000000e0: c0d8 8c3e 3037 003e aa9c 24bd a2c6 9d3d
000000f0: eb98 023e eb36 283e b81c 90bd ba15 2c3d
00000100: 02cc fcbc 8317 5c3d e9bf 1f3d 26a9 25bd
00000110: d674 483d cdf2 78bd 61bb 333d 02b8 393e
00000120: 3a54 f13d cda2 a3bd 0739 02be 15a7 803e
00000130: 400e 4f3d 9454 5e3d 3f96 c03b 2547 d43d
00000140: 79e7 1f3e 74ca 6ebb c42d 3b3e f8b8 b8bc
00000150: c08a 823e 2832 e93b c4f0 25be c475 673e
00000160: 23c7 593d 42c1 763d 5632 083d 30e2 6e3d
00000170: bb16 233e a3f2 59bc 96c4 333e 6d71 183e
00000180: c7de 703d a1f7 a73e 46e1 54bc 3bc5 593e
00000190: 24b8 3b3e 5566 3f3d 1b02 b33c d7c7 993e
000001a0: 3f5e 51bc 2351 b23d 6970 923d db6a debd
000001b0: 2b9b 333d 21ac 97bd 99d2 59bd c971 9bbd
000001c0: aada 8c3e ae17 813d b7ca 8fbc 5c47 21bd
000001d0: a31d 4cbd a0de 973c fe19 5a3e 6733 6b3e
000001e0: d57d fd3c f34b ae3d 31c7 193e a9f0 08bc
000001f0: 6f34 533d d56c 7f3e 7cc7 34bd a6ca 32bc
00000200: 3c64 c83d d721 9cbc a562 ed3d e1dd cf3d
00000210: da1c e03d bda7 0c3e dd1a 663e 678e 563d
00000220: 108e df3d 2372 a73d cd40 183d 3007 923e
00000230: 3a8e 973d 0815 0ebd 3cf0 7c3e 37e0 9b3d
00000240: 5d7f a8bc af98 393e aa52 183d 48ee 523b
00000250: e004 3b3d 289b fd3c 05db 80bb a415 ce3d
00000260: 3c51 e33d ca2b 123e 401c ebbc a908 9cbd
00000270: 57ef d3bd 0f84 313c 9be8 913e 3ef2 7ebd
00000280: 7a87 453e 2811 b0bc 0159 523c c589 61bd
00000290: 0b87 8fbd d2a7 d639 5565 173e 93ab 133e
000002a0: 4ba4 973d 19e7 afbc 55bd eabd 070f ca3d
000002b0: 8725 283e cb90 413d 7e17 80bd b8eb 223e
000002c0: c102 49bd 7d41 0d3e 2793 973c 5bf5 1ebd
000002d0: 621a 163c f0d2 a03d 1338 603d 83ad 9a3d
000002e0: a74c 523d d751 d73d 593f fd3b d544 a3bd
000002f0: ebca abbc fb3b 65bd fdd0 463b 60ae f83c
00000300: 2879 f43d 6fac 18bd cdaa 073e 3048 27bd
00000310: 22b5 383d b0fc f9bc 727f ba3d 8ace 033e
00000320: 83e8 323d a0b4 3a3d 33fe 063d 92ab 603e
00000330: deb1 1cbc 197e 983b 96b8 c93d 356a d4bc
00000340: 02b0 323d 85fa 813d 761c d83d 2dab d13a
00000350: ff23 0a3e a5b5 483c 9bb6 ca3d b7de 593d
00000360: 6a6c 8d3d 7e2c ab3e e1d1 df3d 9b83 b53d
00000370: 0f1a d83c bf5b 4f3d c73e ba3d 13cc 133c
00000380: dbe9 b63a 0f55 acb9 4757 813e 6084 463d
00000390: 9467 183d 8142 7f3e d038 483e dcdf d53d
000003a0: 6581 593d 235b ee3d bf31 58bd e97f 8b3c
000003b0: 337d 8a3d 58a8 7b3c 596a 0d3d b414 fcbc
000003c0: dd1b 143e ba81 b7bc 88cf 433e 9696 503e
000003d0: bca2 a53d f9fb 3a3d b329 c93d 2ddb 5d3d
000003e0: a529 cd3c 9be2 0b3e 5396 98bd 296b db3c
000003f0: 0715 483d 5069 b6bd 0e60 913b b0fa 0b3d

decoder.embedding.weight f4 [28, 64]
0.016271267 0.06103018 0.016367111 -0.04471844 0.04788249 0.041253585 0.047488526 -0.05697485
0.05785138 -0.038430568 -0.04317823 -0.043142248 0.06532326 0.07159457 0.014201965 0.07594436
-0.020024337 -0.034693703 0.07402509 0.037029658 -0.038731292 -0.010045662 0.06387698 -0.07929876
-0.078478016 0.03423934 -0.018176332 0.028730964 0.0436835 -0.02929451 0.044166345 -0.005868821
-0.018070769 0.005272951 0.020663928 -0.06207166 0.018432599 -0.076817654 -0.03606933 0.037392825
-5.3448675e-05 -0.019250384 0.008676891 -0.016179876 0.057100847 0.021653594 -0.024020681 0.076140225
-0.017874993 -0.026095333 -0.07315219 -0.030140067 -0.06864909 0.04960353 0.06343784 0.06400305
0.07843442 0.0430836 0.023450833 -0.041880537 -0.02944287 0.027064828 0.03204403 0.0334052
-0.034813628 0.04152626 -0.025489073 -0.07423439 -0.029452266 -0.05913225 -0.04502761 -0.06129637
0.023151007 0.059151724 0.06667428 -0.007387905 0.07505497 -0.05316871 -0.056089558 -0.06889727
-0.06907672 -0.04647068 -0.060419932 0.069330595 0.017945146 0.05797075 -0.067086995 0.076917626
0.0063685225 -0.07979247 -0.060123432 0.074741535 0.017954579 -0.069925554 -0.075478114 0.038728036
-0.07874922 0.061576758 -0.056363143 -0.06546267 0.07993759 -0.057128537 -0.07294361 -0.03365352
-0.0620519 0.06126091 0.022029648 -0.020435572 -0.07529339 0.041040964 -0.004806533 0.039793957
0.052204456 0.055607844 0.07253084 0.06059247 0.07825643 -0.05509943 0.0016761589 -0.0037405537
0.0581376 0.016105538 0.00036718367 0.057735693 -0.029432159 0.026017189 0.0786731 -0.019197864
-0.047797605 -0.28963566 0.13962467 -0.03612433 -0.128541 0.0732586 -0.07835895 -0.045743626
-0.10162996 0.010342017 -0.04865079 -0.14421965 0.020756425 0.09443806 0.13971682 0.17535217
0.14514044 0.08295913 0.088748425 0.02093053 0.06929479 0.035710223 -0.060650576 0.027043018
0.11734435 -0.059575044 -0.09186237 0.13270858 -0.24809499 0.05543147 -0.13953885 0.019397132
-0.029569006 0.022629911 0.17162165 -0.08140866 -0.24803217 -0.01477476 0.018255563 -0.09974703
0.16605122 0.10352013 0.1479617 -0.08769349 0.058489814 -0.19574554 0.025175225 -0.060198512
-0.0061375774 0.07226106 -0.055052362 0.14065199 0.07052126 -0.1846824 0.16697493 0.04090568
-0.054424632 -0.11573851 0.09489141 -0.16585302 -0.036735132 -0.21324047 -0.0051175295 0.14202374
-0.062120747 0.017027026 0.04828372 -0.07919597 -0.023732591 -0.06443523 -0.018151507 0.023012552
0.026386796 0.06007169 0.0403232 -0.007781129 -0.051804733 0.06782013 -0.054092668 -0.06327409
0.007278433 -0.066635735 -0.027508473 -0.015367555 0.054006997 0.0037150383 -0.064824134 -0.045282274
-0.022490572 -0.026735844 0.039344996 -0.06904659 0.03062809 0.045494605 -0.03486402 0.0385295
0.0586117 0.04741683 -0.058466595 0.02011548 0.046611663 -0.055760562 -0.031105723 -0.04831268
-0.039824355 -0.009189716 -0.011201892 -0.043880533 0.03240345 0.040050182 -0.05637182 0.046102438
0.043728076 -0.04695673 -0.049323265 -0.0437898 0.07277133 -0.04919912 -0.023244776 -0.02437646
-0.07264416 0.052652348 -0.029003663 -0.021211233 0.029551717 -0.0062377215 0.076344386 -0.02082939
00000000: 524b 853c c8fa 793d 5214 863c af2a 37bd
00000010: 6e20 443d 85f9 283d 5483 423d 765e 69bd
00000020: 92f5 6c3d 5f69 1dbd a8db 30bd edb5 30bd
00000030: 34c8 853d 2da0 923d 5caf 683c b788 9b3d
00000040: 140a a4bc fc1a 0ebd 779a 973d 69ac 173d
00000050: b4a4 1ebd 8f96 24bc efd1 823d 6367 a2bd
00000060: 15b9 a0bd 8d3e 0c3d 88e6 94bc 335d eb3c
00000070: 78ed 323d 0afb efbc c5e7 343d 3d4f c0bb
00000080: 2609 94bc b8c8 ac3b 6647 a93c da3e 7ebd
00000090: f6ff 963c 9352 9dbd 6fbd 13bd 3829 193d
000000a0: 142e 60b8 fbb2 9dbc 8529 0e3c a98b 84bc
000000b0: 94e2 693d e162 b13c 05c7 c4bc 68ef 9b3d
000000c0: 946e 92bc e1c5 d5bc d1d0 95bd 4de8 f6bc
000000d0: e597 8cbd 122d 4b3d b3eb 813d 0814 833d
000000e0: 3aa2 a03d 6e78 303d f61b c03c ed8a 2bbd
000000f0: 2c32 f1bc 0fb7 dd3c 9a40 033d e4d3 083d
00000100: bc98 0ebd 7117 2a3d 76ce d0bc 3308 98bd
00000110: e145 f1bc a834 72bd df6e 38bd e711 7bbd
00000120: 2ea7 bd3c 1449 723d 868c 883d 3d16 f2bb
00000130: 6cb6 993d 6fc7 59bd 2abe 65bd 031a 8dbd
00000140: 1878 8dbd 0a58 3ebd e47a 77bd 33fd 8d3d
00000150: b301 933c bd72 6d3d e864 89bd fd86 9d3d
00000160: 0aaf d03b 3c6a a3bd fd43 76bd 1712 993d
00000170: 7b15 933c 2135 8fbd 4594 9abd 4aa1 1e3d
00000180: 4547 a1bd e937 7c3d 0add 66bd 4b11 86bd
00000190: 52b6 a33d 9dff 69bd 7663 95bd 46d8 09bd
000001a0: 222a 7ebd b8ec 7a3d 8577 b43c 8068 a7bc
000001b0: 6c33 9abd 921a 283d 1f80 9dbb fdfe 223d
000001c0: 57d4 553d 0dc5 633d 0d8b 943d cf2f 783d
000001d0: e844 a03d f1af 61bd 8fb2 db3a 1424 75bb
000001e0: b121 6e3d c3ef 833c 8f82 c039 437c 6c3d
000001f0: b61b f1bc 0022 d53c 5d1f a13d d744 9dbc
00000200: 6cc7 43bd 204b 94be c5f9 0e3e 1bf7 13bd
00000210: 40a0 03be 9b08 963d a87a a0bd ab5d 3bbd
00000220: 5e23 d0bd 9071 293c 0d46 47bd 51ae 13be
00000230: 6109 aa3c be68 c13d ed11 0f3e 858f 333e
00000240: b29f 143e 7ae6 a93d bcc1 b53d 8176 ab3c
00000250: 6dea 8d3d e244 123d bd6c 78bd 5289 dd3c
00000260: 3c52 f03d f604 74bd 5722 bcbd c2e4 073e
00000270: 9d0c 7ebe 1c0c 633d 46e3 0ebe bce6 9e3c
00000280: b33a f2bc 5d62 b93c 96bd 2f3e 95b9 a6bd
00000290: 25fc 7dbe d611 72bc b18c 953c 2c48 ccbd
000002a0: 5509 2a3e 5d02 d43d 4683 173e a598 b3bd
000002b0: 0493 6f3d 8571 48be 463c ce3c b792 76bd
000002c0: bb1d c9bb 9bfd 933d 967e 61bd 1307 103e
000002d0: 736d 903d 621d 3dbe 7afb 2a3e b78c 273d
000002e0: 5dec 5ebd 5008 edbd 6d56 c23d 60d5 29be
000002f0: 9477 16bd b65b 5abe f3b0 a7bb ac6e 113e
00000300: 5372 7ebd 437c 8b3c 26c5 453d 7f31 a2bd
00000310: da6a c2bc 9ef6 83bd 78b2 94bc d284 bc3c
00000320: 1f29 d83c bb0d 763d f129 253d d7f8 febb
00000330: 3331 54bd 48e5 8a3d 4690 5dbd d995 81bd
00000340: ec7f ee3b 5178 88bd 7359 e1bc 33c8 7bbc
00000350: 7136 5d3d 0078 733b 84c2 84bd e879 39bd
00000360: 263e b8bc 2105 dbbc 3828 213d 4c68 8dbd
00000370: c3e7 fa3c 8d58 3a3d 93cd 0ebd 1cd1 1d3d
00000380: d212 703d 2638 423d ab7a 6fbd 38c9 a43c
00000390: dfeb 3e3d 3065 64bd 6ed1 febc 84e3 45bd
000003a0: dd1e 23bd 7690 16bc 2488 37bc 13bc 33bd
000003b0: 7bb9 043d a90b 243d 23e6 66bd e9d5 3c3d
000003c0: 361c 333d b355 40bd 3107 4abd ef5c 33bd
000003d0: 2309 953d 0485 49bd d46b bebc 24b1 c7bc
000003e0: 76c6 94bd fda9 573d 1799 edbc 2ec3 adbc
000003f0: 7116 f23c cd65 ccbb 725a 9c3d 66a2 aabc

decoder.LSTM.weight_ih_l0 f4 [512, 64]
0.20222516 -0.02384175 0.054631367 0.008886817 -0.13699028 0.100541495 0.16302088 0.04235928
0.044584297 -0.08635251 -0.18200147 -0.11229205 0.1198641 -0.009912718 -0.05325441 -0.07089868
0.07152328 0.10715676 -0.034642883 0.0035153017 0.02621177 0.004893753 -0.15192698 0.0053465585
0.23217975 0.11358782 -0.16658995 -0.37987548 0.038525976 0.21879669 -0.20627415 -0.20390525
0.11612039 0.23429883 0.11842259 0.16500637 -0.05709435 0.16035044 0.39190835 -0.11034411
-0.04203178 -0.011509364 0.11135873 -0.14768341 -0.16439955 -0.008745031 -0.023038907 0.12805748
0.14223412 -0.1909363 -0.12902789 -0.056654382 0.14349782 0.06058353 -0.1232584 0.01808048
-0.14489262 -0.067558266 0.13756251 -0.08207297 -0.039631993 0.17377871 -0.06616107 0.0089099975
-0.027544245 0.26096174 0.017493533 0.13410701 0.058809638 0.16029552 0.16334303 0.099834554
0.16499725 -0.10986627 0.13259041 -0.0016500613 -0.06240486 0.070704736 -0.019787032 -0.15801184
-0.21065432 -0.022307036 0.08807601 -0.18045078 0.0947754 0.15051839 0.20532885 0.0020758195
-0.0896075 -0.00013984668 0.03504013 -0.09926977 0.15469387 0.097699426 0.048043735 -0.12027199
-0.106459185 0.17940755 -0.05070848 0.17190878 0.018775528 0.14144269 0.046964627 0.111887
-0.16217116 -0.15637133 -0.17269957 0.19759527 0.0298246 0.1849381 -0.30389175 0.14508177
0.037969206 -0.20520921 -0.069600634 -0.08317419 0.06764333 0.19033378 -0.16182162 -0.16938066
-0.008334727 0.06988161 -0.047754757 0.0722654 -0.047345836 0.14961563 -0.0664439 -0.19586019
0.020413714 -0.06977572 -0.14950374 0.2588741 -0.09235649 0.109797604 -0.017431282 0.08325815
0.06792558 -0.06725663 -0.04424705 0.17486347 0.14036807 0.02386515 0.080169454 -0.21336204
-0.07900041 0.22595768 -0.092028864 -0.0948927 0.17491266 -0.033017285 0.21588886 -0.0777259
0.16487066 -0.13173063 0.042185497 0.00088714523 -0.047261905 -0.009904089 0.030635888 -0.06728749
0.12319177 -0.12926683 0.13305862 0.16696255 -0.12931046 0.1597686 0.1688827 0.051051293
0.07307917 -0.02578792 0.028253965 0.106224276 -0.14189601 0.092580914 0.059808724 0.10575937
0.123777464 0.036407225 -0.1001087 0.014011798 0.047756147 -0.018180728 -0.017824627 -0.048372064
-0.19725536 0.15317471 0.14694583 -0.1565903 0.094916575 0.16196346 -0.025354695 -0.13767304
0.010176775 0.0313626 -0.054439608 -0.061382554 -0.1128146 0.0066982377 -0.13473661 -0.13401148
0.11045019 0.10931235 0.026998643 0.017403787 0.031075247 -0.0631534 0.063790776 0.021337787
-0.016917733 0.017782493 0.16906044 0.11223384 0.03326427 -0.06889643 -0.029459367 0.0073790876
0.040143788 -0.21003474 0.044277795 -0.021064866 -0.17179437 0.022882793 -0.014490957 0.034685664
-0.03670481 -0.008892633 0.069213346 -0.15695123 -0.13378629 0.17275691 0.03287398 -0.0033760695
0.033804893 0.07043533 0.13264185 0.04190327 -0.0053625447 0.00082578836 -0.02374745 -0.021983547
0.09087523 -0.023488184 -0.05794109 0.106047586 -0.023526944 -0.11939827 0.11407858 0.081380285
-0.05848788 -0.008316218 -0.06678567 -0.02986929 0.010272159 -0.13044345 -0.05291688 0.12874709
00000000: 1d14 4f3e c64f c3bc 24c5 5f3d 039a 113c
00000010: 2e47 0cbe b3e8 cd3d f2ee 263e ed80 2d3d
00000020: 069e 363d 96d9 b0bd 985e 3abe 60f9 e5bd
00000030: 4f7b f53d f468 22bc 4c21 5abd 5433 91bd
00000040: cc7a 923d 0175 db3d b2e5 0dbd fa60 663b
00000050: 11ba d63c c75b a03b bf92 1bbe 2f32 af3b
00000060: 87c0 6d3e bba0 e83d 8e96 2abe 0a7f c2be
00000070: 6acd 1d3d 3d0c 603e 8839 53be 8acc 50be
00000080: 87d0 ed3d 08ec 6f3e 8b87 f23d 6ef7 283e
00000090: c4db 69bd e832 243e 36a8 c83e 18fc e1bd
000000a0: 8429 2cbd c591 3cbc 0c10 e43d 523a 17be
000000b0: 5b58 28be 5247 0fbc 17bc bcbc 8021 033e
000000c0: d2a5 113e ce84 43be e31f 04be 6d0e 68bd
000000d0: 18f1 123e 7026 783d e66e fcbd 841d 943c
000000e0: bb5e 14be fd5b 8abd 30dd 0c3e e015 a8bd
000000f0: 2855 22bd 0cf3 313e 747f 87bd 3dfb 113c
00000100: 78a4 e1bc c79c 853e 994e 8f3c 5953 093e
00000110: 60e2 703d 8224 243e 6543 273e 0f76 cc3d
00000120: 0af5 283e 9101 e1bd c8c5 073e df46 d8ba
00000130: 3d9c 7fbd a5cd 903d 6a18 a2bc dbcd 21be
00000140: c4b5 57be 3fbd b6bc 3261 b43d 17c8 38be
00000150: 9b19 c23d 7e21 1a3e ba41 523e 790a 083b
00000160: 2384 b7bd cfa3 12b9 3d86 0f3d f34d cbbd
00000170: 1268 1e3e a316 c83d 82c9 443d 2951 f6bd
00000180: 4607 dabd 9db6 373e b2b3 4fbd db08 303e
00000190: 23cf 993c 5ad6 103e fb5d 403d 0325 e53d
000001a0: 3210 26be ce1f 20be 28d8 30be 6a56 4a3e
000001b0: b852 f43c 6a60 3d3e b397 9bbe 5190 143e
000001c0: 9985 1b3d 5d22 52be c78a 8ebd 3b57 aabd
000001d0: 9688 8a3d dce6 423e 91b4 25be 2072 2dbe
000001e0: 618e 08bc 171e 8f3d 7e9a 43bd e2ff 933d
000001f0: b5ed 41bd d734 193e bd13 88bd 938f 48be
00000200: a93a a73c 93e6 8ebd 8217 19be 258b 843e
00000210: 6625 bdbd 91dd e03d 0ccc 8ebc 4083 aa3d
00000220: 911c 8b3d d8bd 89bd 653c 35bd 690f 333e
00000230: a6bc 0f3e d980 c33c e22f a43d 947b 5abe
00000240: f8ca a1bd 7361 673e a179 bcbd 1b57 c2bd
00000250: 4e1c 333e 223d 07bd f811 5d3e c22e 9fbd
00000260: dbd3 283e 65e4 06be b3ca 2c3d 4f8f 683a
00000270: b395 41bd c344 22bc 1df8 fa3c 06ce 89bd
00000280: f74b fc3d 865e 04be 8540 083e 3bf8 2a3e
00000290: f669 04be 619a 233e 96ef 2c3e 291b 513d
000002a0: 88aa 953d 3041 d3bc dc74 e73c 1d8c d93d
000002b0: 304d 11be 109b bd3d fef9 743d 5e98 d83d
000002c0: 0a7f fd3d be1f 153d ca05 cdbd be91 653c
000002d0: f39b 433d c0ef 94bc f404 92bc c921 46bd
000002e0: 4ffd 49be d5d9 1c3e f878 163e 3559 20be
000002f0: 9f63 c23d c0d9 253e a6b4 cfbc 29fa 0cbe
00000300: 7dbc 263c 1276 003d 11fc 5ebd 466c 7bbd
00000310: 570b e7bd e47c db3b 65f8 09be 4e3a 09be
00000320: b633 e23d 27df df3d 422c dd3c 6392 8e3c
00000330: 8491 fe3c 9256 81bd bda4 823d 95cc ae3c
00000340: 0f97 8abc 97ac 913c 2e1e 2d3e dbda e53d
00000350: 1d40 083d 9219 8dbd c554 f1bc 46cc f13b
00000360: d06d 243d 5913 57be a25c 353d 3a90 acbc
00000370: ddea 2fbe b274 bb3c 7b6b 6dbc 8e12 0e3d
00000380: c857 16bd 68b2 11bc babf 8d3d d3b7 20be
00000390: 46ff 08be 30e7 303e dea6 063d 0c41 5dbb
000003a0: 0077 0a3d 6640 903d 44d3 073e c3a2 2b3d
000003b0: 49b8 afbb b879 583a 038a c2bc d716 b4bc
000003c0: cb1c ba3d 4b6a c0bc a353 6dbd 7a2f d93d
000003d0: 94bb c0bc 1587 f4bd 08a2 e93d b5aa a63d
000003e0: fd90 6fbd bf40 08bc edc6 88bd 71b0 f4bc
000003f0: 8f4c 283c f892 05be 5fbf 58bd 47d6 033e

decoder.LSTM.weight_hh_l0 f4 [512, 128]
0.20384565 -0.030618763 -0.09746671 0.021951493 -0.12275234 0.121876754 0.019739574 0.018741041
-0.03595149 -0.03891671 -0.05953769 0.10730596 0.06852002 0.024918899 0.08130813 -0.14165802
-0.07545801 -0.14751054 -0.1227142 0.08805263 -0.0128895575 -0.008976627 -0.12099735 0.02937624
-0.019866893 -0.13059324 -0.031673986 0.037889343 0.09671514 0.114549674 0.08762833 -0.11002474
-0.12703067 -0.05143703 0.14124815 0.06863603 -0.13709357 0.007008548 -0.07119453 0.08498545
-0.030825416 -0.059721235 0.09730063 0.08386022 -0.08890617 -0.041562654 -0.035862423 -0.0936868
0.08947034 -0.0660597 0.19101255 0.093246326 0.0077789733 -0.034283705 0.054025915 -0.037399538
-0.09858715 -0.042713765 -0.07893325 -0.08626228 -0.019821068 0.06700796 0.09425878 -0.031197576
-0.053184144 -0.094122924 -0.035481464 -0.15064809 -0.0770295 0.08161895 -0.08673841 0.108141795
-0.05510637 -0.023489038 0.13051537 -0.08590038 0.005890225 -0.085858814 0.025351193 0.002315363
0.022234201 0.031453837 0.030231427 -0.0035423972 -0.06965777 -0.042568598 -0.14475748 0.06419323
0.115552396 -0.05325255 0.010260169 -0.1651098 0.07791691 -0.041723784 0.09687304 -0.104592964
0.13869973 -0.021062355 0.11379802 -0.09987092 -0.050648507 0.20150998 0.106346875 -0.07487058
-0.07306307 -0.04615856 -0.2326175 -0.100349866 -0.040525023 0.05648899 0.051209938 -0.11390479
-0.108272806 0.043612074 0.09104663 -0.06141538 0.05781365 0.030276302 -0.027439374 -0.027056983
0.026476743 0.049739648 -0.0278112 -0.23043162 0.0059660873 -0.13641512 0.13480288 -0.011153423
-0.012823442 0.05930732 -0.18089655 -0.012881753 -0.08058213 -0.007257165 0.08310559 -0.014814431
0.014359934 -0.024229463 0.024551898 -0.14353369 0.03260337 0.029041141 -0.107773125 0.06302578
0.08582204 -0.06233445 -0.09796617 0.13600612 0.029724142 0.06131558 -0.12131825 -0.09867302
-0.037497457 0.06102086 -0.095966026 -0.21983753 -0.03670403 0.111480445 0.08566516 -0.029660443
-0.06622864 0.11510656 -0.0021212185 -0.018351818 -0.06197193 -0.10480382 0.08297646 0.11110743
-0.014485254 -0.153465 0.015360831 -0.15948056 -0.02309371 0.063086726 0.12277072 -0.023594134
-0.15846913 0.006916316 0.08002541 -0.091294065 -0.07310392 -0.13824365 -0.11663383 0.061647244
-0.03885328 0.060106557 0.13060683 -0.04500661 0.044274256 -0.19467787 -0.13854708 0.025091203
0.11953231 -0.006228752 -0.12319338 0.13612212 0.09709949 -0.0019103091 0.015039023 0.08842777
0.015077677 0.105413295 0.065855235 0.016429052 -0.12132817 0.007060243 -0.035523288 0.04142572
0.040856183 0.005267092 -0.06474147 0.13909253 0.026993558 -0.2044348 -0.06355494 -0.05004533
0.14217639 -0.11225035 -0.06979073 0.040985495 -0.08410393 0.11732612 0.0586077 0.08334138
-0.009345995 -0.077109694 0.010201947 0.088272884 -0.12818697 -0.10272396 0.09968141 0.19088511
-0.115285374 0.020431776 0.26062647 0.055765912 -0.020171292 0.029089078 -0.08472557 -0.07507683
0.00030101175 0.09558273 -0.059547096 -0.030921282 0.124859355 -0.12702993 0.06835197 0.118026406
0.009323115 0.013847973 -0.042635582 0.10365921 -0.0717234 0.14476664 -0.043169882 0.021481736
00000000: eabc 503e 33d4 fabc a09c c7bd 9ed3 b33c
00000010: 9465 fbbd 859a f93d e3b4 a13c d086 993c
00000020: df41 13bd 2167 1fbd cbdd 73bd 3ac3 db3d
00000030: 3954 8c3d b822 cc3c e084 a63d cd0e 11be
00000040: bb89 9abd 010d 17be 9551 fbbd f054 b43d
00000050: b92e 53bc b412 13bc 75cd f7bd 71a6 f03c
00000060: e5bf a2bc 3cba 05be 95bc 01bd db31 1b3d
00000070: 9612 c63d 0599 ea3d 7b76 b33d a754 e1bd
00000080: 5414 02be a3af 52bd 5ba3 103e 0c91 8c3d
00000090: 4262 0cbe f6a7 e53b 70ce 91bd da0c ae3d
000000a0: 9585 fcbc 419e 74bd 8d45 c73d e8be ab3d
000000b0: 7014 b6bd 9a3d 2abd 7ae4 12bd ddde bfbd
000000c0: 3a3c b73d 4f4a 87bd cb98 433e eef7 be3d
000000d0: c2e6 fe3b 126d 0cbd 474a 5d3d 4230 19bd
000000e0: 0fe8 c9bd a1f4 2ebd c1a7 a1bd 47aa b0bd
000000f0: cb5f a2bc 783b 893d bf0a c13d 0f92 ffbc
00000100: 9ed7 59bd 85c3 c0bd 0355 11bd 7e43 1abe
00000110: a4c1 9dbd d627 a73d e8a3 b1bd 7279 dd3d
00000120: 38b7 61bd 156c c0bc d2a5 053e 8aec afbd
00000130: ca02 c13b bfd6 afbd 4ead cf3c 58bd 173b
00000140: 8024 b63c bdd5 003d e6a7 f73c 9027 68bb
00000150: bca8 8ebd 695c 2ebd 4e3b 14be bd77 833d
00000160: bca6 ec3d 591f 5abd 451a 283c 8b12 29be
00000170: e792 9f3d 8fe6 2abd 5f65 c63d d634 d6bd
00000180: 4d07 0e3e f68a acbc f00e e93d 2089 ccbd
00000190: cf74 4fbd a258 4e3e 64cc d93d bf55 99bd
000001a0: 17a2 95bd c210 3dbd 4833 6ebe 3b84 cdbd
000001b0: 91fd 25bd 0061 673d 83c1 513d ea46 e9bd
000001c0: 22be ddbd 93a2 323d a876 ba3d b28e 7bbd
000001d0: 02ce 6c3d 0206 f83c 8ac8 e0bc 9ba6 ddbc
000001e0: c1e5 d83c cdbb 4b3d 50d4 e3bc 44f6 6bbe
000001f0: 2b7f c33b 68b0 0bbe c409 0a3e d9bc 36bc
00000200: 6a19 52bc 3bec 723d f23c 39be fd0d 53bc
00000210: 3e08 a5bd 83cd edbb 4333 aa3d 3ab8 72bc
00000220: ee45 6b3c de7c c6bc 1021 c93c 7ffa 12be
00000230: 1c8b 053d b0e7 ed3c 28b8 dcbd a913 813d
00000240: 77c3 af3d 6952 7fbd 7da2 c8bd 3045 0b3e
00000250: 0b80 f33c 0c26 7b3d b475 f8bd 1515 cabd
00000260: ef96 19bd 02f1 793d d689 c4bd 171d 61be
00000270: f756 16bd dc4f e43d 3771 af3d 75fa f2bc
00000280: e2a2 87bd fdbc eb3d 2404 0bbb 8d56 96bc
00000290: 47d6 7dbd 63a3 d6bd 90ef a93d 4b8c e33d
000002a0: 8f53 6dbc ee25 1dbe ffab 7b3c df4e 23be
000002b0: 052f bdbc 9d33 813d 376f fb3d 7c48 c1bc
000002c0: bb45 22be 44a2 e23b 5de4 a33d 62f8 babd
000002d0: 82b7 95bd be8f 0dbe b8dd eebd d281 7c3d
000002e0: 9e24 1fbd 4b32 763d ccbd 053e da58 38bd
000002f0: ec58 353d a359 47be 49df 0dbe 118c cd3c
00000300: 5bcd f43d 8f1a ccbb d04c fcbd 9963 0b3e
00000310: 19dc c63d 5663 faba 3c66 763c 9e19 b53d
00000320: 5c08 773c ede2 d73d 1cdf 863d 3896 863c
00000330: e77a f8bd 9c59 e73b de80 11bd 04ae 293d
00000340: d058 273d 9297 ac3b 2d97 84bd 466e 0e3e
00000350: 9821 dd3c 5b57 51be 1829 82bd 55fc 4cbd
00000360: b096 113e 83e3 e5bd 71ee 8ebd 68e0 273d
00000370: ae3e acbd ad48 f03d a10e 703d e3ae aa3d
00000380: f21f 19bc b0eb 9dbd 1126 273c 6ac8 b43d
00000390: 7243 03be f160 d2bd c425 cc3d 6377 433e
000003a0: bd1a ecbd 8a60 a73c d570 853e cc6a 643d
000003b0: 443e a5bc 384c ee3c 9a84 adbd e2c1 99bd
000003c0: 1dd1 9d39 e1c0 c33d a8e7 73bd a14e fdbc
000003d0: 43b6 ff3d 2214 02be 1efc 8b3d d4b7 f13d
000003e0: fbbf 183c 9ce2 623c a6a2 2ebd 484b d43d
000003f0: b8e3 92bd b53d 143e e7d2 30bd 77fa af3c
