tut1-model.pt (torch_old, 250433 bytes, 14 tensors)

encoder.embedding.weight f4 [28, 32]
00000000: 2ce4 8dbc e698 083d b890 95bc ed75 a33d
00000010: b02a a2bd 3d16 7e3d e93a 883d 1381 2dbd
00000020: 5164 86bd 38a2 483d e134 fc3b c873 b0bc
00000030: b896 65bb cef3 03bd d7ce c63c 0ca8 5abd
00000040: e18f 17bd 8a19 db3c 2e7c 0e3d c3cb 233d
00000050: 764c 363d eeb6 07bd 85c6 a33d b886 df3a
00000060: 4305 803c c400 a13d b9e5 6bbd 48c1 083b
00000070: a131 9b3d 69d4 303d 4e65 9cbd a415 24bc
00000080: 12b7 b5bc 3822 873c 4507 803d 33b0 083c
00000090: b5ee 4abd 42a4 67bd c360 823c 8365 75bd
000000a0: 52b4 743c 4879 2e3c 64f9 0a3d e783 9cbd
000000b0: 57c9 a83c cdcc ac35 294a 94bd a751 93bd
000000c0: ae13 e93b b749 34bd f6fe 863c d43f 0f3d
000000d0: b87c e3bb 7165 b93c a444 a13b 83ae 783d
000000e0: 6444 653d 0835 473d 0a40 5d3c 5c6b 5e3b
000000f0: c120 65bd 5789 a1bd 2930 a13b a8e4 7cbd
00000100: 2f4f dfbd 33a8 c6bd 5d3d b0bd d768 6b3d
00000110: 54dc 94bd 61f7 b13d 1eac 0c3e eb3b 37be
00000120: bef7 52be 0d41 afbd d5e8 2c3e 2e21 05be
00000130: b526 3abe cd6a 7b3e 4a52 eabc 5f88 80bd
00000140: 9304 b33d 143d 95bd 7260 0dbe b616 cf3d
00000150: 5690 13be 7745 3bbe 28ab 42be dca1 783e
00000160: dbbc 97bd 8f4b af3d 5374 cd3d ae2d b6bd
00000170: c35f 08be 4549 073e 5eaa 77be be18 213e
00000180: a18c 03be 3fb8 89bd 33f6 02be 78f4 203e
00000190: 2529 2abe c344 503e 9384 3f3e 1acf 30be
000001a0: a068 f4bd 9ee2 09be d82f b7bc 47cd 31be
000001b0: a3c1 623c ff81 893d 3ed1 113e 1328 58bd
000001c0: 1aab 423e acc7 59be 654f 3fbe eff2 063e
000001d0: 86f4 08be 414d 4dbe 8483 b7bc df25 fd3d
000001e0: d970 19be 9690 153e fc0a 2f3e 7a32 f4bd
000001f0: 1f6a eabd 50a4 103e 3e76 a1bc a68b bd3d
00000200: baee 4dbd e16d 06be 681b 04bd f556 c33d
00000210: 8573 82bd de28 173c a5a5 d03b 5c7e dbbd
00000220: fb11 61be bdba c7bd 27c1 033e e1be f2bc
00000230: b5f7 2cbe 5849 943d 46f6 41bd fb2c 8abd
00000240: dd16 7a3c 7591 7a3d f6cb d9bd e70e ca3d
00000250: 7417 1bbe fbb6 53bd 24e1 a5bd 048c 5a3e
00000260: b761 dbbb 6e1f 7c3d 32a9 473d 8767 23be
00000270: cb59 ee3c 638a 973d 68d2 2fbe 48a7 183e
00000280: f6c9 f9bd a9f5 1cbe 8f8c 04be e1ca ea3d
00000290: 4ee4 93bd 5b48 eb3d 1d94 163e 9acb eebd
000002a0: 942f c7bd 22b4 93bd 4d1a 233e ca19 8bbd
000002b0: 2842 91bd 4c22 d63d 022b c33d 5bd7 99bd
000002c0: 3261 213e d649 3abe a589 e5bd 827e 083e
000002d0: 5057 29be 7754 0abd 8176 09bd 16fe 4b3e
000002e0: 1c9c 12bd 53d2 123d 63e7 093e 29dd b3bd
000002f0: 4262 2bbe 13d3 003e e3fb 27be 1321 f13d
00000300: 537a debd 0fab 24bd 2995 643c 1b75 7b3c
00000310: cb39 46bd 9315 1a3d ebb3 7a3d 82c0 5abd
00000320: e6b8 17be c4c1 91bd 1cb3 853d 8f1e 213d
00000330: 21ba 54bd 53b7 c83d 8d51 d53c 5996 5b3d
00000340: 66d6 a73c 5fc1 87bd 8a72 aebd 6320 8a3d
00000350: edc8 b8bd 8197 9abd 9dbc b5bc 4c79 dd3d
00000360: 4066 e3bd f6f5 8a3d 196b 873d f06a 03be
00000370: 3ecb a3bd fbfd 333c 3ddb 77bd d479 7d3d
00000380: dec3 f4bd 2089 43be dd96 05be 033f 953d
00000390: f5f3 7bbe e6af 503e e188 1a3e 2ffc 48be
000003a0: 5187 3fbe 59bb 0fbe 618d 853e 5e49 50be
000003b0: ffdd 8cbe bdec 213e 8fd5 033e 9e00 bdbd
000003c0: eb7e 9d3d 9206 25be a363 e9bd f81f 343e
000003d0: b5f7 81be 1595 2fbe 592e 28be 1f39 443e
000003e0: e28e 25be 3857 4c3e eaed 453e 3aff 99be
000003f0: 3224 47be 6d91 053e c05b 6fbe 9027 5b3e
-0.017320715 0.03334894 -0.018257484 0.07981477 -0.07918298 0.062032927 0.06651861 -0.042359423
-0.065621026 0.04898283 0.0076967333 -0.021539584 -0.0035032462 -0.032214932 0.02426855 -0.05338292
-0.037002448 0.026745576 0.034786396 0.039989244 0.044506513 -0.03313344 0.07996849 0.0017053699
0.015627509 0.07861474 -0.057592127 0.0020867158 0.07577825 0.04317132 -0.0763651 -0.010014925
-0.022182021 0.016495809 0.062513866 0.00834279 -0.049544055 -0.056553133 0.01591528 -0.059911262
0.01493557 0.010649033 0.033929244 -0.07642346 0.020603819 1.2874603e-06 -0.072407074 -0.07193308
0.0071129417 -0.044015612 0.016478997 0.03497298 -0.006942358 0.022631379 0.0049215127 0.060713302
0.055973426 0.04863456 0.013504038 0.0033938503 -0.05593944 -0.078875236 0.004919071 -0.0617415
-0.10903775 -0.0970005 -0.08605454 0.05747303 -0.07268587 0.08689762 0.13737532 -0.1789395
-0.20602319 -0.08557329 0.16885693 -0.13000938 -0.18178828 0.2455246 -0.028603692 -0.06276011
0.08741107 -0.0728704 -0.13806322 0.10111754 -0.14410529 -0.18288217 -0.19010603 0.24280494
-0.07409068 0.085593335 0.10031953 -0.088954315 -0.1331778 0.13211544 -0.24186084 0.15732095
-0.12846614 -0.06724595 -0.1278923 0.15718257 -0.16617258 0.2033873 0.18702917 -0.17266503
-0.11934018 -0.13465354 -0.02236168 -0.17363463 0.013840112 0.06714248 0.14239976 -0.052772593
0.19010583 -0.21267575 -0.1868263 0.1317861 -0.13374528 -0.20049001 -0.022401579 0.12360739
-0.14984454 0.14605936 0.17094034 -0.1192369 -0.11446022 0.1412518 -0.019709703 0.092551515
-0.050276496 -0.13127853 -0.0322527 0.0953807 -0.0636969 0.009226052 0.0063674026 -0.107174605
-0.21979515 -0.097524144 0.1286665 -0.029632034 -0.16891368 0.07240552 -0.047354005 -0.067468606
0.01526424 0.061173875 -0.106346056 0.09866124 -0.15145665 -0.051688176 -0.08099583 0.21342474
-0.006694998 0.06155341 0.04874534 -0.15957461 0.029095551 0.07399442 -0.17170107 0.14907563
-0.12196724 -0.15328087 -0.12944244 0.11464477 -0.0722128 0.1148841 0.14704938 -0.11659928
-0.09725872 -0.07212092 0.15928002 -0.06792028 -0.070926964 0.1045576 0.095296875 -0.07511779
0.15759733 -0.18192229 -0.11207894 0.13329509 -0.16537213 -0.03377196 -0.03356028 0.19921145
-0.03579341 0.035845112 0.13467173 -0.08782417 -0.16736701 0.12580518 -0.16404681 0.117738865
-0.10863175 -0.040202197 0.013951578 0.015347744 -0.04839496 0.03761823 0.06120674 -0.053406246
-0.14816627 -0.07117036 0.06528303 0.039335784 -0.05193532 0.09800591 0.026039863 0.05361018
0.020487975 -0.066286795 -0.0851794 0.067444585 -0.090226986 -0.07548428 -0.022184664 0.10814151
-0.11103487 0.067851946 0.06612224 -0.12833762 -0.0799775 0.010985847 -0.060511816 0.061883762
-0.11951421 -0.19095278 -0.13045831 0.07287409 -0.24604781 0.203796 0.15091278 -0.1962745
-0.18703963 -0.14036311 0.26084426 -0.20340487 -0.2751312 0.15812965 0.12874435 -0.09228633
0.07690223 -0.16115788 -0.11395957 0.1759032 -0.25384298 -0.17146714 -0.1642393 0.19162415
-0.16167787 0.19955146 0.19329038 -0.30077535 -0.19447401 0.13043757 -0.23374844 0.2140181

encoder.LSTM.weight_ih_l0 f4 [256, 32]
00000000: 3959 e5bc 85ca 99bd 5385 3dbd 3a0c 723c
00000010: d21d 213d 1e5f 943d 6bf9 ca3c 5fb6 45bd
00000020: 03b4 d33d 1c78 273d d136 2ebd 1411 97bc
00000030: acfc 31bb 72c1 a4bc 4e8e c33d 9c4c 0cbc
00000040: 1aba 3f3d 5ab0 a9bd bf80 173d 49bf 7abd
00000050: adb8 273c 5a36 81bc a43a d3bb 3e22 f2bd
00000060: 679b 5fbc c7a3 84bd 4af8 333c 98da 41b9
00000070: 39e9 e6bd ee30 953c 0a58 1f3e eb49 40bd
00000080: dcd1 b9be 88d0 b7be b1d9 b6be 34f5 ca3e
00000090: 9ff6 8abe 1905 963e 46d3 a43e 0d59 7abe
000000a0: 065e b4be ff32 93be 433f 943e 8ee7 75be
000000b0: 285c 81be 5397 8a3e 777b 6d3e fd18 4abe
000000c0: c020 c13e b627 99be 9168 d8be 1911 933e
000000d0: fc64 b9be bb12 c3be fe30 a6be a25e a23e
000000e0: d97e 8bbe e846 ad3e ea8a 9d3e e683 63be
000000f0: 4728 a7be 52da 953e ad90 b6be f5b1 9b3e
00000100: 756a c33d 4add 3e3b 514d f53c d94c 41bc
00000110: ea5a 603d c913 bcbd 23f0 573d 0af9 d43d
00000120: 71b3 213d 5370 933d 19e3 13be a468 ea3c
00000130: 4e38 463e fa86 763c 1310 48bd c028 fe3d
00000140: e96a a03c 1399 423d 6e77 4fbc 896c d8bd
00000150: a154 173e 5e88 983b 826d 60bb a39d 1fbd
00000160: fb94 bd3a 366c 83bd 9502 b8bd eaa5 a33d
00000170: 0af3 3c3c 7c5b 1b3d c59b 133e a162 84bd
00000180: fe82 913d 62c2 7c3d b786 513c 6585 30bd
00000190: 1472 e0bc 3e57 1fbd e964 26bd 1ff3 003e
000001a0: 23ed 1d3e c5d8 183e 3020 2fbe e4ce f5bb
000001b0: 2e83 8d3d a2e4 dabd b38e d2bb 22ae 8bbc
000001c0: 8a66 573d 65f4 5fbd 6801 c23d 46cb b6bd
000001d0: f168 723d fc5b d7bd 1dd3 393d 4047 09be
000001e0: b3b2 6ebd 6fe9 ba3c 62ed aebc c5c5 043d
000001f0: 1020 a1bc 6bdc 0d3c 7dac bc3d 2f00 19be
00000200: 7a00 a7be 5508 d0be 2e2c f4be a543 d13e
00000210: 9e02 d4be 057a be3e e7e3 fb3e 5066 dabe
00000220: a919 e3be 8262 bcbe 9c6b 083f d95e ffbe
00000230: c66c efbe f9fd f63e 9a42 993e cdcd ffbe
00000240: c132 db3e c7aa acbe 55d4 9bbe e60e 983e
00000250: 84cc 04bf f638 dfbe 3f43 90be 135b e23e
00000260: 20bd d7be 661a de3e a606 eb3e a3d0 cbbe
00000270: ed1d cbbe fa3e d23e a49d b8be b95f 9f3e
00000280: 865a 9dbe 9a6d 8abe 3c1c 69be b4eb 983e
00000290: 866d 7dbe 7f0c a03e c7d5 a93e d806 6ebe
000002a0: 04bb 61be e36d 26be ae91 ea3d 2c29 25be
000002b0: c6bd 42be f103 363e c2ab 123e df4f 35be
000002c0: d6d6 6f3e a6fb 5ebe cb6e a6be d5d3 663e
000002d0: 6eb4 11be 8399 77be 8965 10be d985 743e
000002e0: 66b3 6cbe f185 903e 0435 1e3e 8f6a 6dbe
000002f0: 717c 53be 4235 6d3e da66 f9bd bcca 043e
00000300: dd79 b5bb 59cf abbd 660e b2bd 96a0 ce3c
00000310: 5783 9abd 3f77 a6bc f5aa 723c 26d6 393d
00000320: 491f 1bbd f932 013d dd3f 493d 2afb 07bd
00000330: 4776 79bc 2995 da3d 6451 f33d f7a2 8f3d
00000340: 125c 073d c10b a8bd 6810 0ebe f68e 053e
00000350: e76d 2b3d 7bde 763c b484 1ebd 180a 153b
00000360: b6d3 9dbd f8e9 843c 0f65 54bd 87c8 25bd
00000370: a63a 263b 16d5 a03c f538 98bd deb5 1d3d
00000380: 340c 683d c44f 213d 49a7 bf3d cad5 e4bd
00000390: 86b1 523d 82fb bebd 7dcc 113d 9273 9d3d
000003a0: b95a 923d 752a ca3d 3520 0fbe 458f d53d
000003b0: 9aa1 d33d 5bab cebd 1e7d e3bd b8a3 b7bc
000003c0: a892 34bd 9901 ddbb 6168 173d faea c9ba
000003d0: 2e8d 7d3d ea21 9d3d a540 573d c6fe 6fbd
000003e0: 6106 123d 38de ffbc c250 b9bc 5dd5 383e
000003f0: 9135 d3bb 0204 c2bc 02bf 413e 45ae 1dbe
-0.027996646 -0.07509331 -0.046269726 0.014773423 0.03933508 0.07244705 0.024777135 -0.048269626
0.10337069 0.04088603 -0.042532746 -0.01844076 -0.002715866 -0.020111773 0.09548627 -0.008563187
0.04680834 -0.082855895 0.036988016 -0.06121758 0.010236901 -0.015772987 -0.0064461995 -0.118229374
-0.013647891 -0.064765505 0.01098449 -0.00018487347 -0.112749524 0.018211808 0.15560928 -0.046945494
-0.36292922 -0.35901284 -0.3571296 0.396402 -0.27141282 0.29300764 0.3219244 -0.24448033
-0.35227984 -0.28749844 0.28954515 -0.24014112 -0.25265622 0.27068576 0.2319163 -0.19736095
0.377203 -0.2991311 -0.42267278 0.28723982 -0.36209857 -0.38100228 -0.32459253 0.31712824
-0.27245215 0.3384316 0.30770046 -0.22218284 -0.32647917 0.29268128 -0.35657254 0.30409208
0.095417894 0.0029123598 0.029944094 -0.011798107 0.054774202 -0.09183461 0.052719247 0.10399063
0.03947777 0.071991585 -0.144421 0.02861435 0.19357416 0.015046829 -0.048843455 0.12410116
0.019582229 0.047509264 -0.012662752 -0.105675764 0.14778377 0.004654928 -0.003424496 -0.038968693
0.0014463955 -0.06417124 -0.089848675 0.0799063 0.011532554 0.037929043 0.1441489 -0.064641245
0.07105063 0.061708815 0.012788466 -0.043095965 -0.027398147 -0.03890156 -0.04062358 0.12592743
0.15422492 0.14926441 -0.17102122 -0.00750147 0.06909786 -0.106881395 -0.0064257025 -0.017050806
0.052588023 -0.054676432 0.094729245 -0.0892549 0.05918211 -0.105155915 0.04536735 -0.13406086
-0.05827589 0.022816388 -0.021353427 0.03241517 -0.019668609 0.008658509 0.09212587 -0.14941476
-0.3261755 -0.40631357 -0.47689956 0.4087192 -0.41408247 0.3720247 0.49197313 -0.42656183
-0.44355515 -0.36793905 0.532892 -0.4987705 -0.46762675 0.4824064 0.29933625 -0.499617
0.4281216 -0.33724043 -0.30435434 0.29698867 -0.51874566 -0.43598145 -0.28176305 0.4421011
-0.42136478 0.43379515 0.4590351 -0.39807615 -0.3967127 0.41063672 -0.3605777 0.31127718
-0.30733126 -0.27036744 -0.22764677 0.29867327 -0.24748811 0.31259534 0.33170912 -0.23244798
-0.22043997 -0.16252856 0.114535674 -0.16128987 -0.19017705 0.17774941 0.14323333 -0.1770625
0.23421797 -0.21775684 -0.32506403 0.22541745 -0.14228985 -0.24179654 -0.14101233 0.23879184
-0.2311531 0.2822719 0.15449911 -0.2318518 -0.2065294 0.23164847 -0.121778205 0.12967962
-0.005538209 -0.08389158 -0.086941525 0.025223058 -0.07544582 -0.020320533 0.014811267 0.045370243
-0.037871633 0.031542752 0.04913317 -0.033198513 -0.015225953 0.10672981 0.118807584 0.07013505
0.03304679 -0.08205367 -0.13873446 0.13042817 0.041852858 0.015067692 -0.038700774 0.0022741612
-0.07706396 0.016224846 -0.05185419 -0.04047444 0.0025364547 0.019632857 -0.07432739 0.03850352
0.056652263 0.03938271 0.09358079 -0.111735895 0.05143883 -0.09325315 0.035595406 0.07688059
0.0714621 0.09871379 -0.1397713 0.10427717 0.103335574 -0.10091277 -0.111078486 -0.022416934
-0.044085175 -0.006744575 0.036964778 -0.0015405111 0.061902218 0.07672484 0.052551884 -0.05859258
0.035650615 -0.031233892 -0.022621516 0.18050142 -0.0064455946 -0.023683552 0.1892052 -0.1539851

encoder.LSTM.weight_hh_l0 f4 [256, 64]
00000000: aaa6 613e f4a0 39be 7568 57be f212 57be
00000010: 4f9d 75bd 498c 243e 3a03 54be 8524 a6bd
00000020: 7af3 61be 2691 6f3d fe9c 82be c21a 633e
00000030: eddb 933d f690 303e 9e80 e03d c99a 6dbe
00000040: 05bf 6ebe c408 493e 300c 4bbe 7d45 713e
00000050: b874 78be c627 5abe 916e 2b3e 1055 763e
00000060: 3a51 4e3e 3405 013e 5d2d 543e 4264 753e
00000070: b981 44be 9e89 683e c46b e43d 51cc 90be
00000080: 48bd 4abe 19f5 473e c974 a33e 7c3d 08be
00000090: a598 99bd ef79 e3bd c68d 1ebe b191 293e
000000a0: 69e3 14be ef66 853c c443 4ebe f05d 58be
000000b0: d509 d63d e84e 7ebe faab 933d 154a 133e
000000c0: d371 87be 84be b5bd f44f 52be 9720 c4bd
000000d0: 3987 3b3e a62d b33d 03db e73d 9274 823d
000000e0: 0675 18be c7a2 483e 272f 4cbe 510f 043e
000000f0: a332 203e db1e 52be 9a51 193e 09f0 11be
00000100: 9f78 4a3d 73bb f6bd 4c64 5fbd 01dc 05be
00000110: dd6b 553e d022 de3d 7a2f 2f3b 9e5f 003c
00000120: 5613 0cbe ee15 ea3d f7a9 16be 1f24 2a3e
00000130: e858 66bc 8a87 1f3d 8049 9d3c f35a 58bd
00000140: 2c38 a0bd 11d1 0c3d 4417 d5bb 091e 2f3e
00000150: aba9 86bd b7e7 e6bd 6992 763b 5a43 f73d
00000160: e09f 103e a1d6 c63d 9c8a b33d e14a 0d3e
00000170: fc3e f6bd 8ae3 e93c ffd1 063e 4070 a3bd
00000180: 2223 4ebd 021d 1e3e 0bb8 063e 2c87 24be
00000190: 1967 ecbd ae4b b3bd 77b9 9dbd 3d8e d13d
000001a0: 91af 08be 3537 28be 98ba 80bd f84d eebd
000001b0: 73c5 593d fb33 bebd a738 d83d fa20 563d
000001c0: dd9f b7bd 093b 23bc 2677 9bbd 857d dabd
000001d0: 3979 2a3d 9235 053e 7c94 1a3e 77cc 70bb
000001e0: d4de d4bd 63a5 263e 3c95 34bd fac6 e83d
000001f0: c030 f93d 1f90 21be 2e3d ab3d 6086 5dbd
00000200: fdbd 5c3e eb2c 04be ed07 3bbe fcd0 b9bd
00000210: 1d2c a43d b0b6 313e f98f 40be 1f28 23be
00000220: 8cd6 08be ffcc e43d 7f60 e6bd ebdc 163e
00000230: 8944 153d 49e1 8a3e 52a9 b13d 53ee 88be
00000240: 73b9 4fbe 957b 5b3e 245f 5fbe 56e9 2a3e
00000250: f15d fbbd 2890 16be 7080 243e 13cd 893e
00000260: d83c 243e 75da 533e 1e2f 143e 0af5 1b3e
00000270: 0f58 6fbe acc8 103e 4e44 353e 9186 5fbe
00000280: b838 78be fc0b 3e3e 519c 963e 2e08 16be
00000290: f19e bdbd 4ff3 17be 0665 10be a168 073e
000002a0: 77a4 51be 9f62 f9bd 12b4 7fbe a6b6 4cbe
000002b0: 8756 603e 9a44 17be 7976 bd3d 0aec 303e
000002c0: 2d8d 85be 8b7a dcbd 28e1 5ebe 14d1 83be
000002d0: 23a4 1a3e e0fd a53d dfe5 243e c185 a73c
000002e0: 7248 75be b47d 873e 79b5 30be 3c64 3c3e
000002f0: 32f2 0e3e 6eb5 08be 0d11 653e 7b46 4fbd
00000300: f685 0e3e a8e6 53be 9cba e3bd a021 53be
00000310: d194 b33d 46d2 0a3e bfc7 4abe 74d3 a8bd
00000320: f06c 5cbe 7dab c63b 09c2 30be 4121 7b3e
00000330: 626b 0d3c 08d2 4c3e f6cd 463e a0a7 7ebe
00000340: 71ad 51be fa26 673e 96cc 83be 4a40 443e
00000350: 63ee 54be 000f 2abe 39d5 243e 871b 4d3e
00000360: ec91 153e 2c00 d53d 55b1 ea3d 958f 413e
00000370: aa77 17be 8d56 353e 8bd6 493e 388d 1bbe
00000380: fea0 6fbe 70c2 833e b204 283e 7cf4 41be
00000390: 799c 28be 5ca0 27be 270e dabd 36f0 063e
000003a0: e3a8 29be ebd2 213c 8dff 18be 92bc 5dbe
000003b0: cb2a 013e d336 3ebe b81c 213e 3639 753e
000003c0: 58ad 41be 7844 2fbe 9049 0fbe afa5 08be
000003d0: a8e0 593e 6639 473e fd2e 163e f018 02bc
000003e0: f9f0 8ebe 3852 d93d 337b 3fbe a0fd e73d
000003f0: c4cb 773e 1e45 b7bd cff8 273e 6809 1bbd
0.22036234 -0.18127805 -0.21035941 -0.21003321 -0.059964474 0.1606914 -0.20704356 -0.08112434
-0.22065535 0.058488034 -0.255104 0.22178176 0.07219682 0.17242798 0.10962032 -0.23203577
-0.23315056 0.1963225 -0.19828868 0.23561664 -0.24263275 -0.21304235 0.16741396 0.24055886
0.20148173 0.12599641 0.2072043 0.23964027 -0.1919011 0.22708747 0.11153367 -0.2828088
-0.19798768 0.19527091 0.31925038 -0.13304704 -0.07499818 -0.11107241 -0.1548377 0.16559483
-0.14539875 0.016284434 -0.20143038 -0.21129584 0.10451094 -0.24834788 0.07210536 0.14383729
-0.26454028 -0.088742286 -0.20538312 -0.095765285 0.18313302 0.08748941 0.1132107 0.0636989
-0.14888391 0.19593345 -0.19939862 0.12896468 0.15644316 -0.20519583 0.14972535 -0.14251722
0.04943144 -0.12047472 -0.05453901 -0.13072206 0.20841928 0.10846484 0.002673118 0.007835297
-0.13679251 0.11429964 -0.14713274 0.16615342 -0.014059283 0.03894762 0.019200087 -0.05282111
-0.07823214 0.03437907 -0.0065030176 0.17101301 -0.0657533 -0.11274665 0.0037623888 0.12073393
0.14123487 0.09708906 0.08766672 0.13798095 -0.12023732 0.028550882 0.13166045 -0.07980394
-0.050326474 0.15440753 0.13156144 -0.16067189 -0.11543102 -0.08754669 -0.0770139 0.10232208
-0.13348223 -0.1642731 -0.0628559 -0.11635965 0.053166818 -0.09287258 0.105576806 0.052277543
-0.089660384 -0.009962806 -0.07591085 -0.10668472 0.041619513 0.13008717 0.15095705 -0.0036742964
-0.103940636 0.16274028 -0.044087633 0.11366077 0.121675014 -0.15777634 0.083612785 -0.054083228
0.2155685 -0.1290776 -0.18264742 -0.09073064 0.080162264 0.17354846 -0.18804921 -0.15933274
-0.13363093 0.111719124 -0.11248874 0.14732711 0.036442313 0.27125004 0.086748734 -0.26744327
-0.20285587 0.21433862 -0.21813637 0.16690573 -0.12273777 -0.14703429 0.1606462 0.26914272
0.16038835 0.20688803 0.14471099 0.15230194 -0.23373435 0.1413905 0.17701837 -0.21828677
-0.24240386 0.18559259 0.29416135 -0.14651558 -0.09258831 -0.14838909 -0.14101037 0.13223507
-0.20472895 -0.121770136 -0.24971035 -0.1999155 0.21908008 -0.14772263 0.092511125 0.17277542
-0.2608427 -0.10765561 -0.21765578 -0.2574545 0.15101676 0.081050634 0.16103314 0.020449521
-0.23953417 0.2646309 -0.17256726 0.18397611 0.13959578 -0.1335046 0.22369786 -0.050604325
0.1391829 -0.20693457 -0.11119577 -0.20618296 0.08768619 0.13556775 -0.1980276 -0.082434565
-0.21525931 0.0060629235 -0.17261519 0.24524404 0.008631559 0.20001996 0.19414505 -0.24868631
-0.20476319 0.22573462 -0.25742024 0.1916515 -0.20794062 -0.16607285 0.16096963 0.20030032
0.14606446 0.104004234 0.11459605 0.18902428 -0.14791742 0.17708798 0.19710748 -0.1519059
-0.23401257 0.25734282 0.16408041 -0.1894092 -0.1646594 -0.16369766 -0.106472306 0.1317757
-0.16568331 0.009876947 -0.14941235 -0.21653965 0.1261398 -0.18575601 0.15733612 0.23947605
-0.18913782 -0.17115963 -0.13992906 -0.13344453 0.21277106 0.1945549 0.14666362 -0.007940516
-0.27918223 0.10611385 -0.1869934 0.11327672 0.24198824 -0.0894873 0.16403507 -0.037850767

encoder.LSTM.bias_ih_l0 f4 [256]
00000000: 08c4 26be f22e c83e 97ae 31be 60d0 a9bd
00000010: 5b2e 343f d567 973e ef41 d33d e00f fbbd
00000020: 1053 9e3d 2fa0 b83c 5e38 0bbd a087 0e3e
00000030: bc12 953e b9ba 233e ac15 2cbe 5f91 e1bd
00000040: 5356 c93e 2297 3abe fad9 143e 25cb ed3c
00000050: 3a3f 35be f5bf 05be b81f 79bd 5f94 573e
00000060: f830 29bd 2bac c43e 536a 003c 3a78 f73d
00000070: 4df4 2ebc aa5b 47bd 4e16 823e 0a47 ba3e
00000080: b74e 003d e652 143e f89c ab3e c8ba b93e
00000090: f382 66bd 9b63 b53d 5824 8d3d 28c7 b63d
000000a0: 5c5b 643e 8081 8dbd e6d0 ed3e 9d42 753e
000000b0: 8b0b 113d ca08 8d3e aeea c3bd faf0 a03e
000000c0: 404e 7fbc cfa1 93bd 5a46 6d3e 63bc b93e
000000d0: 415d 3ebe 0e8c 57be 60b6 34bd 46e3 e03e
000000e0: 9b08 8b3c a73c ad3e 29d2 a2bd 4167 f83e
000000f0: fe73 003f 63f4 dc3e fcc1 98bd 0447 fcbd
00000100: bb95 ab3d 3242 ddbd d48e 2d3e 6d90 0d3e
00000110: fc7b 853c a18c 883d e088 42bc a82c 823d
00000120: e95c 88bd ec39 553a e107 2f3e ccbc d93d
00000130: 8fec babd c1f6 4c3e b141 a73d 487a 483e
00000140: 5a55 77bc bad1 083e 171b fd3d 8deb 143e
00000150: ac6f 2b3e db31 fb3d 914b 17bd 372e 75bd
00000160: 662b 743e 2fd8 283b 9887 e7bb f03f ebbb
00000170: 80a5 0f3e 052e 053e 02f3 3bbc 06b7 3b3e
00000180: 4ea1 0c3e eefb 8b3e 9aad 063d d70f 313d
00000190: 2b5a ab3d cf51 c6bb 716c e53d 4bb2 24be
000001a0: 2bb0 613e 90e6 5a3d 3c79 8f3b ea89 a0bd
000001b0: e60e f13c fab1 783e ea9a 8a3d 1a12 16be
000001c0: 2402 413b 73e8 d3bc 88df b9bc a250 6ebc
000001d0: 70dd d33d d82e 093e 54a9 163e 672e fbbd
000001e0: aa07 3b3e 51f5 07bb 945c 193e 38ee 9ebb
000001f0: 636d 2cbd 748e be3d 3a4e 323e 58d1 bf3d
00000200: 066f 633b 6187 d3be 9bd1 583c 11be 4b3d
00000210: a129 073f 9447 b43e 23e4 bbbd 135a ca3d
00000220: a2e2 79be 1245 753c 1057 a33c 200b d73c
00000230: 34e1 28be 24a6 2b3e f139 06ba fb49 1ebc
00000240: 9741 a4be b470 44bd 55d4 89be a605 e83c
00000250: 95d7 a8bb 8567 28bc 7446 aabd f86b 7a3e
00000260: 80f6 ccbc 542c c63e fa8d e13d eb5c f33d
00000270: b3ea 00bd b221 903d be80 9c3e 5a2c b4be
00000280: 4638 073c 7420 923d 9039 6d3e 59ad cabe
00000290: 0a6d d73d 8f77 48be f662 7bba ec7f 8a3e
000002a0: 8768 2fbe 4062 853d 46c8 a6be cf65 98be
000002b0: 5734 a03d e9ec a5be f568 79bd cdbb ce3e
000002c0: ba6a 75bc 73c1 5e3d 6b03 b1be 1d4c d4be
000002d0: 4d96 89bc 1c67 60bd 3213 75bc 002d 95be
000002e0: 289e 0cbe 9b8d 9f3e 456f 923c 17d1 043f
000002f0: 23fd e23e 0012 d2be 14b4 033c 813c 0c3d
00000300: 8102 72be 7fbd c53d 54cb 28be acd3 84be
00000310: 090e 0d3f 7cfa ee3d 0f25 0abd b25c 69be
00000320: 93a3 e83d 424d 52bd 99fe bebd 6bbe 153e
00000330: 306a 703e c658 cd3d e1a3 98be a5c7 92be
00000340: d4a7 4d3e 4570 24be c3ed eb3d e02e 5cbd
00000350: 15ad 8abe 5472 9fbd 55a0 1f3d 2b0d 0f3e
00000360: e03c d3bd 3b3c 0f3e be8a cebd 3a94 50bd
00000370: 1463 c4bd c30b cdbc 5b55 ac3d ff45 ab3e
00000380: da8d 02be 78a9 eb3c 5ecc d63e 521a ce3d
00000390: 59cf 92bd f76b b03d f2bc babd 3087 333a
000003a0: ec0a 6c3d 7a41 93bd 526b fd3d 2e0c 013e
000003b0: 5d66 8c3b b287 2f3e 7751 893d 2a60 f53d
000003c0: 66d2 653d 0b47 c3bd 67ea be3d c33f 4f3e
000003d0: e3ac 4dbe 09cd 43be a6c0 ffbd 49d2 e93e
000003e0: 0359 ca3d 5fe1 493e d4a7 2abe ea77 ae3e
000003f0: 42f9 633e b920 903e f237 46be e972 c1bd
-0.16285717 0.39098316 -0.17351757 -0.082916975 0.7038323 0.29571405 0.1031531 -0.12258887
0.07730687 0.022537319 -0.033989303 0.13918924 0.29115856 0.15989198 -0.16805142 -0.110140555
0.39323673 -0.18221715 0.14536276 0.02902753 -0.176999 -0.13061507 -0.060821265 0.21052693
-0.041306466 0.38412604 0.00783785 0.12083478 -0.010678363 -0.048671402 0.25407642 0.36382324
0.03132507 0.14484748 0.33518195 0.36275315 -0.056277227 0.08856889 0.06891698 0.08924705
0.22300476 -0.06909466 0.4644844 0.23951192 0.0354114 0.27545768 -0.09566246 0.3143385
-0.015582621 -0.07208597 0.23171368 0.3627654 -0.18590261 -0.2104952 -0.04411924 0.43923396
0.016971877 0.33835337 -0.07950241 0.48516276 0.5017699 0.43155202 -0.074588746 -0.12318233
0.08378168 -0.108036414 0.16949016 0.13824625 0.016294472 0.06667448 -0.011873454 0.06356174
-0.06658346 0.0008133936 0.1709285 0.10631713 -0.09127151 0.20016004 0.081668265 0.19577897
-0.015096033 0.13361254 0.123586826 0.1454298 0.16741818 0.122653686 -0.0369373 -0.059858527
0.2384468 0.002576362 -0.0070657246 -0.007179253 0.14027977 0.13005836 -0.011471512 0.18331537
0.13733408 0.27340645 0.032880403 0.043227997 0.083668076 -0.006052233 0.11202324 -0.16083638
0.22039859 0.053442538 0.004378466 -0.07838805 0.02942605 0.24286643 0.06767829 -0.14655343
0.0029450739 -0.025867676 -0.022689596 -0.014545592 0.1034497 0.13396776 0.14713031 -0.1226471
0.18264642 -0.0020745585 0.14976722 -0.004850175 -0.042096507 0.093045145 0.17412654 0.09366101
0.0034703626 -0.41314223 0.013233568 0.04974181 0.52797896 0.3521086 -0.09174373 0.098804615
-0.2440286 0.014970081 0.019938976 0.026250422 -0.16492158 0.16762596 -0.0005120328 -0.009661193
-0.3208129 -0.047959045 -0.2691981 0.028323006 -0.0051526525 -0.010278587 -0.08314219 0.2445525
-0.025019884 0.38705695 0.11013408 0.11882957 -0.031473827 0.07037677 0.30566972 -0.35190088
0.008253163 0.07135096 0.2316649 -0.3958538 0.105188444 -0.19576858 -0.00095896365 0.27050722
-0.17129718 0.0651288 -0.32574672 -0.29765174 0.07822483 -0.3240731 -0.06089111 0.40377656
-0.014979059 0.054383706 -0.3457292 -0.4146432 -0.016795302 -0.054785833 -0.01495819 -0.29135895
-0.13732207 0.31162724 0.017875323 0.51881546 0.44333753 -0.41029358 0.008038539 0.03423739
-0.23633768 0.09655284 -0.16483814 -0.25942743 0.5509954 0.1166887 -0.033726748 -0.22789267
0.11359324 -0.05134321 -0.093259044 0.1462342 0.23478007 0.10026698 -0.2981253 -0.28667942
0.20083553 -0.16058452 0.11519959 -0.05375564 -0.27085176 -0.07785478 0.038971264 0.13969867
-0.10314345 0.1398782 -0.10085057 -0.05092261 -0.0958921 -0.025030022 0.08414718 0.3345184
-0.12749425 0.028767332 0.41952795 0.10063614 -0.07168455 0.08614343 -0.0911807 0.00068484526
0.057627603 -0.07190223 0.12373985 0.12602302 0.0042846636 0.17141607 0.06704991 0.119812325
0.056108855 -0.09535035 0.093220524 0.20239167 -0.20085482 -0.19121183 -0.12487917 0.45668247
0.09880259 0.19714878 -0.16665584 0.34075862 0.22263053 0.28149965 -0.19357279 -0.094457455

encoder.LSTM.bias_hh_l0 f4 [256]
00000000: 77f8 ffbd 1aea c63e d632 ecbd 9f65 8bbd
00000010: b21c 2c3f 38e9 773e 836f 6e3d c783 f1bd
00000020: 1cad 733d dcf2 af3c 27cc b4bd 6ebc 903d
00000030: 55be 9c3e 8a97 fa3d 0872 29be 4b1a abbd
00000040: da8b c43e e29e 80bd 200e e13d fa28 febc
00000050: 3cdf 7bbd d0d8 cfbd 1ffc 1d3c 5ab5 463e
00000060: 492c 5b3d 7096 c23e bee6 b6bd 1182 b93d
00000070: abf2 47bd d570 1bbd 4989 4a3e 132e d23e
00000080: e763 a13d d7bb 493e 5c96 b83e 6830 a23e
00000090: b07c 06be 7616 983c 17f7 42bd f3e9 c23d
000000a0: dc28 243e a629 f5bd 71fd fd3e 2079 9f3e
000000b0: a9dd 2b3c 79a2 703e 4ae6 89bd fea7 ad3e
000000c0: aebf 893d bd62 febd 6fc6 9a3e 973f bc3e
000000d0: 2882 94be 984a 44be 63e2 74bd 8653 e73e
000000e0: 3334 0a3e 03f6 d23e 4914 c1bd 005f 0c3f
000000f0: 7931 ee3e d27c 043f 8c54 88bd 087e b3bd
00000100: 913b fb3d 2fb8 803b 478b f23d 4424 4c3e
00000110: 0957 183d 3942 953d 4cc3 d0bb e225 e43d
00000120: 5311 a7bd 1772 6e3d ef05 8e3d 86bf 133e
00000130: 9234 4d3d ef16 4c3e 4366 aa3d 62e6 783d
00000140: dabb 51bd 256b f73d fbcc 473d 7eeb 373e
00000150: 49ff 023e 39d6 103e f766 28bd 42ef 1abe
00000160: ecfc 233e fa6c 1cbd 245a 64bd b553 463d
00000170: 608c 343e 5f82 0f3e 4c43 68bd 2a1a 853e
00000180: 7182 2b3e 2363 7d3e 873b 433d 1951 b63d
00000190: 04dd 093d 556c d8bd 6fe1 fc3d 5fd7 19be
000001a0: dac5 133e bb7c 993d f5dd 5fbd b3a3 95bd
000001b0: 5930 163e bece 863e 4706 ad3c c479 a9bd
000001c0: 5589 aa3d de87 4abd 2a1e 03be 442f 333d
000001d0: 9bc9 8d3d dfe3 5b3e e036 fb3d 7174 8dbd
000001e0: 1582 6a3e 3d64 e1bb f04f 753d aa2a 1abd
000001f0: 59b7 06bd b8c6 093d 6bf3 193e 71a5 af3d
00000200: bd85 ecbd 62db c1be 94ff 633d 3ea5 dd3d
00000210: 2e08 013f 9143 a63e 9320 43be df9e 6c3c
00000220: f170 4ebe 7f75 8dbd 7a4d 69bd 67ff e43d
00000230: 11db 69be d5c8 203e 9af3 d1bd 8b3c b83d
00000240: 6c4b b5be 1c33 113c a8fc 8abe 5895 9c3b
00000250: 807c 023e 0138 8e3c e008 933c c1e7 a33e
00000260: f174 a2bb 713a cf3e 6e82 2c3d 43a8 123e
00000270: c733 15bd b315 4d3c 903f 553e 4fc4 bbbe
00000280: 3ca1 69bd 6034 833d c94c 863e 7905 d5be
00000290: f167 443d e76f 43be df85 87bd da42 8d3e
000002a0: 3fdc 4dbe f7a2 083d 6821 f0be 4ae1 bebe
000002b0: e4a4 9f3d a302 a7be c2bc f3bd ef2e bb3e
000002c0: b6ee e0bd 2709 dd3d 3f7c 94be 877f b9be
000002d0: d8d8 46bd b372 5dbc 8514 46bc 2e7d 66be
000002e0: 7d85 91bd 74f8 e43e f390 b13d 9936 063f
000002f0: a65f ea3e 585f f1be 6f66 d4bc cc5d 993d
00000300: 3d5f 5dbe a881 443e 345b 81be f3ca 50be
00000310: 27c6 0d3f a837 2d3e 1e23 12be 3297 92be
00000320: 5033 5c3d 9737 a13d 0d56 363b fd68 213e
00000330: 5eee 6c3e 0a94 843d 8198 6dbe db1c 5fbe
00000340: b2b8 223e 20b8 6bbe bcf5 b03d 5b30 3cbd
00000350: a2e4 93be 8f84 61be f5f5 523d 3046 113e
00000360: 9c77 e1bd 44bb e73d d493 d8bd 6d20 7bbd
00000370: 7d2a 95bd a101 b3bd 21e1 053d 598b ae3e
00000380: d4db 0dbe 3414 64bd 5432 ce3e e97d d23d
00000390: 2a20 46be 8014 693d 85c8 cd3c 19ee c1ba
000003a0: cca2 e4ba f46d a3bd a9be 4d3e 1038 0d3a
000003b0: 82d3 ab3c 64dd 5a3e fb4f 48bd be08 543e
000003c0: 6c0c 94bd c802 3abd 0079 503d 5993 043e
000003d0: 3801 70be 909e 29be 6d95 e2bd ce60 b93e
000003e0: c461 413e 0a7d b63d 0fd0 4ebe 11fc ab3e
000003f0: b659 803e 3094 6f3e 4080 52be 2272 133d
-0.12498563 0.3885048 -0.11533134 -0.06806492 0.67231286 0.2421006 0.058211815 -0.11792713
0.05949126 0.021478109 -0.088280015 0.0706719 0.30613962 0.12235935 -0.16547406 -0.08354624
0.38387948 -0.062803045 0.10989022 -0.031025399 -0.06149219 -0.101487756 0.00964263 0.19405118
0.05350903 0.380054 -0.08930729 0.09058011 -0.04881541 -0.037949402 0.19778933 0.41050777
0.07880383 0.19700561 0.36052215 0.31677556 -0.13133502 0.018565398 -0.047598924 0.095172785
0.16031212 -0.119708344 0.49607423 0.311471 0.01048986 0.23499478 -0.06733377 0.3391723
0.06726013 -0.124211766 0.30229518 0.36767265 -0.2900555 -0.1916908 -0.05978621 0.4518091
0.13496475 0.41203317 -0.09427697 0.5483246 0.4652212 0.5175296 -0.06656751 -0.08764273
0.12267221 0.0039282064 0.11842971 0.19935709 0.03719238 0.072880216 -0.0063709375 0.11140038
-0.08157601 0.058214273 0.069347255 0.14428529 0.050098963 0.19930623 0.08320286 0.060766585
-0.05120454 0.12080983 0.04877947 0.17960927 0.12792696 0.1414422 -0.04111382 -0.15130332
0.16014451 -0.038189866 -0.055750027 0.048419673 0.17631674 0.14014576 -0.056704804 0.25996524
0.16748978 0.24744849 0.04766419 0.08902187 0.033658043 -0.10567538 0.123476855 -0.15023564
0.14430943 0.074944936 -0.054655034 -0.07306614 0.1466688 0.26329607 0.021121157 -0.08275178
0.08326975 -0.04944598 -0.12804475 0.043746248 0.06923219 0.21473645 0.12266326 -0.06906975
0.22901185 -0.0068784044 0.059890687 -0.037638344 -0.032889698 0.03363678 0.15034263 0.08576477
-0.11548946 -0.37862688 0.05566366 0.10822533 0.50403106 0.32473424 -0.19055395 0.014442175
-0.20160271 -0.06907176 -0.056958653 0.11181527 -0.22837473 0.15701611 -0.102515414 0.08995923
-0.35409105 0.008862283 -0.27145886 0.0047785453 0.12742805 0.01736069 0.017948568 0.32012752
-0.004957788 0.40474275 0.042116575 0.14321999 -0.03642633 0.0125173805 0.20825028 -0.3667321
-0.05703853 0.06406474 0.26230457 -0.41605738 0.04795069 -0.19085656 -0.06617331 0.27590066
-0.20103548 0.03335854 -0.46900487 -0.37281257 0.07795122 -0.326192 -0.11901237 0.36559245
-0.109830305 0.10792761 -0.29001042 -0.36230108 -0.048546642 -0.013516116 -0.012089853 -0.2250869
-0.07105539 0.44720805 0.08670225 0.5242706 0.457761 -0.47143054 -0.02592775 0.074885935
-0.21618362 0.19190085 -0.25264895 -0.20389919 0.5538048 0.16915762 -0.14271209 -0.28630978
0.053759873 0.07871931 0.0027822286 0.15762706 0.23137805 0.06473549 -0.23202707 -0.21788351
0.15890768 -0.23019457 0.0864062 -0.045944553 -0.2888537 -0.22023223 0.051504094 0.1418693
-0.11009142 0.11315015 -0.10575071 -0.06131022 -0.072834946 -0.08740545 0.032685403 0.3409069
-0.13853389 -0.05568333 0.40272772 0.10277922 -0.19348207 0.056904316 0.02512003 -0.001479569
-0.0017443537 -0.07979956 0.20092262 0.0005387077 0.020974878 0.21373516 -0.0489044 0.2070646
-0.07228932 -0.04541281 0.050896645 0.12946834 -0.23437965 -0.16564393 -0.11063657 0.3620667
0.18884951 0.08910568 -0.20196556 0.3359075 0.25068444 0.23396373 -0.20556736 0.035997517

decoder.embedding.weight f4 [28, 32]
00000000: c307 d83b ca0f a9bc 9287 fbbc b683 053d
00000010: 9fef 94bc b654 90bd cac2 8f3d 21b8 96bd
00000020: 00c1 1cbd d72b cdba 859f febc 85b2 723d
00000030: 7459 84bd 4f41 91bc 1f1c 253c 83c4 68bd
00000040: dac6 3c3d 3df9 b9bb a95f 29bc 8dd0 533d
00000050: c530 6f3d cdb2 573d 5cac 61bd b233 983d
00000060: 763a bd3c a45c bc3b a6dd 86bd 6c3d dcbc
00000070: ae66 953d 0bd2 a2bd 430d cd3c 5c9b dd3b
00000080: 5234 f6bc 094c 2ebd 0d69 23bd a90d 653d
00000090: 45cc 203d 4459 82bd 0a57 ecb8 2b1f 76bd
000000a0: 5444 84bd 206f 06bd bdd4 673d 3d5a 593d
000000b0: c3c7 9d3b 882d 373d d78f 573c 1fae 033c
000000c0: 8f95 643d 8541 24bc e1cc 743d 0912 a13d
000000d0: 5c2e 463c 7d76 9cbd a01b 78bd 1fca 55bc
000000e0: ca49 6e3d 2867 13bd 29da 6ebb 3d97 58bd
000000f0: 6ff7 09bd 0106 a33d c38e d1bb e1d6 903b
00000100: b7ea 943e b6ea 81bd 76f7 cfbe a195 c03e
00000110: dc6d 93be 0bee 1abd b834 943e f51f 98be
00000120: e6d3 ae3e d12e a2bd 82aa 6bbe 92ea d6be
00000130: a5db bdbe 7024 b8be 380f dbbe 6016 83be
00000140: 96be c13e fcc5 913d 6238 afbe f6b0 9c3e
00000150: 6045 a33e 5b3f 893e 507b bdbe 6796 4d3e
00000160: b569 c3bc 59d6 5fbe 6ff2 d9bb a4ee 9abe
00000170: a9bb c83c e960 d6bd c254 943e fc83 a53e
00000180: a298 833c 133b 9dbd 6348 4fbd 4cf5 38bd
00000190: af92 a13c 67c7 2abd fd4d e3bc 9ca8 1c3c
000001a0: 988b aabc 06bd 273d 3d8c 5ebb 0970 c8bc
000001b0: 5db8 bf3c 60a4 593d 7701 a0b8 305c 4c3d
000001c0: 6183 8cbd 65c2 b7bc 1b0b b93c 40d2 3e3b
000001d0: 11ed 94bd 3d90 c0bc 75a3 453d 38b1 523b
000001e0: 2294 d33a 349d 2ebd aa61 8cbd 1634 993d
000001f0: 7c96 cabd 5ad5 a8bb f752 c138 a28a 21bd
00000200: 0643 31be bf48 c63d 1c31 0a3e 9def 70bc
00000210: 1730 083e 30e3 953d c953 783d 3dd7 ed3d
00000220: 9488 00bc fbff efbd a197 073e 2a1b 01bc
00000230: c51c 193e b2e7 e33d 4637 0a3d b90b 183e
00000240: af4e e6bd 99e4 adbd f7ce 123d 1740 bdbd
00000250: ecd1 b1bd fe90 12be 971f 173e b9c5 37be
00000260: 6d50 ec3c 4c5e 563c 644c f83d fe41 6b3c
00000270: 80da 62bd e8c1 a83d 2010 80bd 0ad2 cabd
00000280: 9e6b 9b3c a422 ac3c 14d4 313d 30a7 01be
00000290: 1de9 a5bd dbef a43d ebf0 d9bd 597a 5aba
000002a0: 0555 8b3d 591b 0a3e 5e28 43bd c272 153e
000002b0: bd3d 4bbd 5af4 3dbc 722c 043d 0f03 69be
000002c0: d9bd 143c 1f3e c9bd ed94 79bd 39fc 133e
000002d0: 4d5e d1ba e9eb 72bc 81c2 983c c0ec 9a3d
000002e0: 839c 083e d579 8bbd 27bb f0bc 1c5f 28bd
000002f0: 6873 64bb e00b e1bb 08d2 71be 94ef c13d
00000300: 1e0b e93d e359 c1be 74f9 b83d 3140 203d
00000310: 8287 2ebe de23 e03c 8884 2e3e 98cf 41bd
00000320: 9f0c 913d 20df 56be 5672 18be 2253 e5bd
00000330: 931e 46bc 0674 e8bb 4545 6dbe e9b9 fbbd
00000340: 008f 9d3d 7265 efbc f06f 86be 1615 d03d
00000350: 4876 babc 7201 44bc 6aae e5bd 3719 5e3d
00000360: 223c 0b3d 8aba 4dbd 2b94 a3bd 614e ae3d
00000370: 3a89 c83d 13ea 533c 452d b63c 5f5d b33d
00000380: 8b1f a13d 8835 22be c8d9 18be 6359 013e
00000390: 6cbe 5dbd fd32 13bd 6d8a dd3d 7bc4 803b
000003a0: 4720 f2bb 491b 1dbd b2cf 7cbd e5fe 69be
000003b0: d884 0ebc 69cf 73bd 0bb9 31be 8684 693d
000003c0: 41cf e03d ba24 dcba 525b dfbd 867b a7bd
000003d0: ffd9 853d 92ce c33c bb69 7cbd 5f71 6fbd
000003e0: ed0c d9bc 5386 ff3d 996a 82bc 14c9 c83d
000003f0: 85b0 823d f381 153d b986 f53d 7b00 4e3d
0.006592722 -0.020637412 -0.030704293 0.032596312 -0.018180666 -0.07047407 0.07019575 -0.073593386
-0.038269997 -0.0015653324 -0.031081924 0.05925228 -0.06462374 -0.017731337 0.010077505 -0.056828033
0.046088077 -0.0056754635 -0.010337749 0.05171256 0.05839612 0.052660752 -0.055096015 0.07431735
0.023099165 0.0057483483 -0.06585245 -0.026884757 0.07294975 -0.07950219 0.025030738 0.006762905
-0.030054245 -0.04255298 -0.039895106 0.05592123 0.039257307 -0.06364682 -0.00011269569 -0.060088318
-0.06458345 -0.03282082 0.056599367 0.053064574 0.004815073 0.044721156 0.013156853 0.008037119
0.055806693 -0.010025387 0.0597657 0.07864768 0.012096014 -0.07639787 -0.06057322 -0.013048678
0.05817584 -0.03598705 -0.0036445952 -0.052878607 -0.033683237 0.079601295 -0.0063951924 0.004420147
0.29085323 -0.06343596 -0.40618485 0.37614158 -0.28794754 -0.03782467 0.2894647 -0.2971188
0.3414604 -0.07919086 -0.23014262 -0.41975838 -0.37081638 -0.359653 -0.42785048 -0.25603008
0.37840718 0.07117841 -0.34222704 0.3060376 0.31888866 0.2680615 -0.37008142 0.20076905
-0.023854116 -0.21859111 -0.006651215 -0.30260193 0.024503546 -0.10467703 0.28970915 0.3232726
0.016063992 -0.07677283 -0.050606143 -0.04515581 0.019723265 -0.04169407 -0.027747149 0.009561684
-0.020818517 0.04095175 -0.00339581 -0.024467485 0.023403341 0.053135276 -7.6296674e-05 0.049892604
-0.06860996 -0.022431562 0.022588303 0.0029117018 -0.07271779 -0.023506278 0.048251588 0.0032149088
0.001614217 -0.04263039 -0.068545654 0.07480638 -0.09891984 -0.0051523866 9.2184106e-05 -0.03943885
-0.17310724 0.09681844 0.13495296 -0.014705566 0.13299595 0.07318723 0.06062678 0.11613319
-0.007845063 -0.11718746 0.13241436 -0.007880012 0.14952381 0.11128177 0.03374412 0.14848222
-0.112454765 -0.08490867 0.03584191 -0.0924074 -0.086826175 -0.14313123 0.14758144 -0.17946519
0.028846944 0.013084006 0.12123945 0.0143589955 -0.05538416 0.0824011 -0.062530756 -0.09903343
0.018972214 0.021012612 0.043415144 -0.12661433 -0.081011035 0.08053561 -0.106416546 -0.0008334271
0.068033256 0.13486995 -0.04764592 0.14594558 -0.049619425 -0.0115939025 0.03226895 -0.22755073
0.009078466 -0.09826302 -0.060933042 0.14451684 -0.0015973538 -0.014826753 0.018647434 0.07564688
0.13340954 -0.06810347 -0.029386116 -0.04110633 -0.0034858827 -0.0068678707 -0.23615277 0.09469524
0.113790736 -0.3776389 0.090319544 0.039123718 -0.1704388 0.027360853 0.17042744 -0.047317117
0.070824854 -0.20983553 -0.14887366 -0.11197497 -0.01209225 -0.007093909 -0.23170955 -0.12291319
0.07693291 -0.029223178 -0.26257277 0.10160272 -0.022761479 -0.011963235 -0.112149075 0.054223265
0.033992894 -0.050226726 -0.07987245 0.08511043 0.09791799 0.012934226 0.022238383 0.087580435
0.078673445 -0.15840733 -0.14926827 0.12631755 -0.05413668 -0.035937298 0.10817418 0.0039296723
-0.0073891017 -0.0383561 -0.06172151 -0.22851141 -0.008698665 -0.059523974 -0.17355745 0.05701115
0.109770305 -0.0016795613 -0.1090609 -0.08177857 0.0653572 0.023902211 -0.06162427 -0.05845773
-0.026495421 0.12476792 -0.01591997 0.098039776 0.06381325 0.036500882 0.11988587 0.050293427

decoder.LSTM.weight_ih_l0 f4 [256, 32]
00000000: 0110 3abd 70cc 0b3e f50d f53c 68a4 fabd
00000010: d6d1 d93d 989f aa3d 5899 3fbe 0110 133e
00000020: 917f 80bd 89fe 62bd 52bd 133e 73c1 bd3d
00000030: 53ae bf3d 7088 adba da2b d53d f36b 1c3e
00000040: ccdb c6bd 8de5 213d e425 bd3d 5bc7 28bd
00000050: b8bf 37bd 05cb bd3c d71d ef3c 8b23 04be
00000060: a48b a2bc d439 ab3d bdb7 2c3d da6b 2c3c
00000070: 73fb c6bc f832 263d ac96 8e3d 2f97 3cbd
00000080: 9787 8fbd 3e9e 503e 9ff7 673d e972 99bd
00000090: ff30 6b3d 64f8 e53c daa4 08be ad6e 163e
000000a0: ef03 2cbe 917f 44bd 486d 683d d583 eb3d
000000b0: 6950 b23d 8bf4 bd3d 6928 de3d ee8f 353e
000000c0: 8c84 f9bc 5be0 13be c941 2a3e 227c 65bc
000000d0: 5ad7 0ebd 110d 0fbe 41c9 5d3e 479a 02bd
000000e0: 40ba 523d 2ed3 1c3d 3489 533d 5c13 e4bc
000000f0: eeb1 39bd 8f83 c23d fcf7 82bb b859 5bbd
00000100: 3db3 38bd 77ad 663e b2da e83c 57cd fbbc
00000110: 60ba c43d bc6b 943d badf f9bd 15d5 b13d
00000120: 7a32 d13c 6a9d 523d e438 a83d f2bc 383e
00000130: 9a50 183e 1256 0e3e 7d69 043e ec6e 093e
00000140: 184c f7bc 0c02 7e3d 8a2c 663e c119 09be
00000150: 48d7 26bd a493 863c 8ea2 e23d 77c2 f0bd
00000160: caf3 21bd 2995 b13c 525b de3d d0bd 3a3d
00000170: 6672 2ebe 9f11 d93c 729e d1bd 30c8 1b3b
00000180: 870b 7bbd c3d0 863e 331c a1bd e8f9 9dbd
00000190: 861d 503e 4cb8 0ebd f80e 2abd 1e83 a53d
000001a0: 6067 a6bd 6609 31be 09ca 2f3e 7f04 723d
000001b0: b581 9e3d c120 80bc cc6e ed3d 9337 623e
000001c0: 67f1 6bbd 04ff 7b3c c61e 483d dc4d 30be
000001d0: 4c99 c5bd b26c 8dbc 846b a93d 2e0e 1abe
000001e0: a26b ee3c 24b5 adbc 4583 893c 8d03 e03c
000001f0: 591a 7bbd c3d7 943d 02c6 e8bb 7f35 1abe
00000200: 5446 493c 561e 93bd 90e6 713d 6870 ecbd
00000210: 7b40 343c ec8e 883d 4769 91be 21b3 0a3e
00000220: eb2d bc3d 9f6c d2bd b794 f43d 5caf aabc
00000230: febd 6a3e 3de7 41bd ba92 273c 2a30 553d
00000240: 37e4 11bc 7ef6 af3d fa9a bd3b a93d 66bd
00000250: 1a4e d2bc a120 52bc 17ea b13d d915 dbbd
00000260: 8b46 d2bd 4e8b 273e 44e1 693e 0fae ab3c
00000270: 6cdb 523d e0dd de3d b472 afbd d6a1 25bd
00000280: c14f 093d 4432 113d fb77 303d c983 50bd
00000290: cdfd d43d e073 803c c11a 723b e02a 28bc
000002a0: 67d4 20be fc79 893b d79c 8f3d 1b2e 153e
000002b0: 80fe 0a3e 1a27 ad3d 33c5 423d 8d5e f83d
000002c0: 94b2 8d3d 53e7 693c 5aee 263e f6d6 dabd
000002d0: f437 853c 131b aebd d293 723c 7631 2ebd
000002e0: 9c63 883d 2138 863d ff65 bb3c e237 ccbc
000002f0: d6d4 7e3d d336 8d3d 08e3 083c 88af 1ebd
00000300: 61a2 19ba 6d05 fd3d af7b 8b3c f065 86bd
00000310: bf8f 593d b121 753e 5acf 363d 7800 b83d
00000320: 5303 8cbd 57d9 49be eab7 fe3d b483 2dbe
00000330: 3218 343e cefb 943d d968 75bd 6c7e 9e3d
00000340: 84e5 7e3d f479 36be 583a 043d eece 17be
00000350: fed5 533d 266d 4b3d 2872 263e 50c7 3fbe
00000360: b235 5a3e 58d2 d93d 4f22 573e ef9a f2bd
00000370: 0e9a 953b 4f16 e13d fab6 333e 3b24 123d
00000380: 62ff 04be c11e 8f3e a976 5c3d b373 20be
00000390: 3191 463e 5799 103e 52fd 06be 03a3 a03d
000003a0: e8fc c8bd 4763 d63d da7c fc3d d162 353e
000003b0: e414 793d 7b75 d63d 8e40 1b3e c87e c03d
000003c0: db46 34bd fed5 3fbc ec41 323e 7669 bfbd
000003d0: c484 5ebd 41a0 0fbd c292 223e cb13 b9bd
000003e0: d470 68bd 50ea 8e3d 9869 ec3d 9857 b03d
000003f0: 00f8 bcbd fd44 be3c 6d49 9bbd 9904 dfbd
-0.04542542 0.13652205 0.029913882 -0.12238389 0.10635726 0.08331221 -0.1871084 0.14361574
-0.06274331 -0.055418525 0.14427689 0.09265413 0.093594216 -0.0013239514 0.10408755 0.15275554
-0.09709892 0.039525557 0.09235743 -0.041205745 -0.04486057 0.023168096 0.029189033 -0.12904184
-0.019841976 0.08360639 0.042167414 0.010523761 -0.024289822 0.04057595 0.06962332 -0.046042617
-0.070082836 0.20372865 0.056632634 -0.074926205 0.057419773 0.028072543 -0.13344136 0.14690657
-0.16798376 -0.04797322 0.056744844 0.11499754 0.08706743 0.092751585 0.108475514 0.17730686
-0.030458711 -0.14441054 0.16626658 -0.014006646 -0.034873344 -0.13969828 0.21658804 -0.03188541
0.051447153 0.038287334 0.05164452 -0.027841263 -0.045335703 0.09497749 -0.003996847 -0.05355236
-0.04509281 0.22527109 0.028424595 -0.030737562 0.09605861 0.07247111 -0.122008756 0.0868322
0.025536764 0.051419653 0.08213976 0.18040827 0.14874497 0.1390002 0.12930866 0.1342122
-0.030187652 0.06201367 0.22477928 -0.1338873 -0.040732652 0.016427822 0.11066161 -0.11755841
-0.039539136 0.02167757 0.10857262 0.045591176 -0.17035827 0.02649766 -0.10235299 0.0023770444
-0.06129029 0.26331148 -0.07866707 -0.077136815 0.20323762 -0.034843728 -0.04151818 0.08081649
-0.08125186 -0.17288741 0.17166914 0.05908632 0.077395834 -0.015640618 0.115933985 0.22091512
-0.057603266 0.015380625 0.048857473 -0.17217201 -0.0964838 -0.017263744 0.0827246 -0.15044472
0.029104058 -0.021204539 0.016786227 0.027345443 -0.061304424 0.07267716 -0.0071036825 -0.1505947
0.012284834 -0.071835205 0.059057772 -0.11544877 0.0110017015 0.06667885 -0.28400633 0.13544895
0.09188446 -0.10274624 0.119424276 -0.020835571 0.22924039 -0.047339667 0.010227853 0.052047886
-0.008904508 0.085919365 0.005786297 -0.056211147 -0.025672007 -0.012825162 0.08687227 -0.106975265
-0.10267361 0.16361734 0.22839838 0.020957021 0.05147879 0.10882163 -0.085668 -0.040437542
0.033523325 0.035448328 0.043083172 -0.05090693 0.10399971 0.015680254 0.0036942216 -0.010264128
-0.15706025 0.00419545 0.07012337 0.14568369 0.13573647 0.08454724 0.047551345 0.12127409
0.06918827 0.014276343 0.16301861 -0.10685532 0.016262032 -0.08501258 0.014805751 -0.04252764
0.06659624 0.065536745 0.022875784 -0.02492899 0.062214695 0.068952225 0.00835491 -0.03874162
-0.0005860683 0.123545505 0.01702675 -0.06562412 0.053115603 0.23938634 0.04463134 0.089844644
-0.068365715 -0.19711815 0.124374226 -0.16944772 0.17587355 0.072745904 -0.059914444 0.07738957
0.062230602 -0.17819959 0.032282203 -0.14825031 0.05171775 0.04966464 0.16254485 -0.18728375
0.21309546 0.10635823 0.21009181 -0.118459575 0.004565484 0.10990583 0.17550269 0.035679083
-0.12988046 0.2795315 0.0538241 -0.15669136 0.19391324 0.14120995 -0.13182572 0.07843592
-0.09813863 0.104681544 0.12328501 0.17713477 0.06081094 0.10471626 0.15161344 0.093991816
-0.044012886 -0.011708735 0.1740796 -0.09346287 -0.054325834 -0.03506494 0.15876296 -0.09036978
-0.056748226 0.06978285 0.11543578 0.08610457 -0.0922699 0.023226256 -0.07582364 -0.10889549

decoder.LSTM.weight_hh_l0 f4 [256, 64]
00000000: 55d9 e2bd 2870 613d fd3c b73d 5765 883d
00000010: cc9f 41be 9128 373d 90af 14bd 98b8 d83d
00000020: 6e56 1abd a827 d93d 5a4d 993d f736 6dbe
00000030: 3c70 8e3d d367 9abe 89a1 28be 2230 563e
00000040: 8005 123e 4319 6bbe e510 e83c df69 16be
00000050: e6df 0c3e f99f 4c3e 862d 9b3d 1b80 1ebd
00000060: 8b26 40be 01cb 16bd 3684 28bd cd85 d43d
00000070: 6117 ed3d 3a2d 33bc b239 2ebd e17d a13e
00000080: b2a0 033e 641d eabe b3aa 03bd 3c2a e2bc
00000090: 9992 fe3d d8d1 96bd 7da9 513e 75e6 d53d
000000a0: 4303 983e 47a4 c0bd e224 99bd 7037 583d
000000b0: 5b06 e9bd 673b af3e 1db0 fa3c f259 273d
000000c0: c74d c5bb f937 093e a1f7 1a3d 138d a33b
000000d0: b67c 83be a2e1 1abe 2727 25be d3af 183d
000000e0: 3511 e73d 46d2 a7bd 10e7 303e e980 e03c
000000f0: 669d a23c 44ae b5bd 1678 13be 4089 3ebc
00000100: b587 0dbe 1d94 963d f9d3 c43d 2b06 fd3d
00000110: 510d df3c 3cc8 ab3d 89d2 843d 4723 253e
00000120: 4e46 243e 267a 0b3e bf41 e03d 1940 6cbe
00000130: b189 f33c 62b4 0bbe eaa5 0dbe 67d2 1e3e
00000140: 2f56 603e 829d dfbd 8106 d1bd e946 debd
00000150: 8c15 ec3d 85fa 693e 9b33 f53b b96e 8cbd
00000160: 4af9 83be 5fc2 c1bd 5964 0fbc 83db db3d
00000170: 6993 e93d 0131 013a 7142 59bd c6a3 8f3e
00000180: f257 6e3e 891b 9bbe 53e2 afbd f2c0 633d
00000190: d5cb 7b3d e160 313d dca4 283e bb03 dfbd
000001a0: 483c 423e e89b 64bd 21a5 ccbd f7df e23d
000001b0: 9b03 b0bd d55c 1b3e 8e4e 8d3d 3d53 a1bc
000001c0: 0bf7 643d d2f9 463d f63e a43c 9ea3 913d
000001d0: f926 04be 7716 0abe 7527 b0bd 9e93 b13b
000001e0: 0193 da3d 8f29 fdbc b829 473e 3cad f63d
000001f0: cab3 b8bb b4f7 1bbd 0b38 88be e458 5b3b
00000200: 78e5 39be 6d4e 43bd 55d8 083e 507e 4b3e
00000210: 241f ecbd 18ba aa3c 038f 533c 6645 023e
00000220: 7e28 c0bd 40f9 103e 88f7 e13d eada adbe
00000230: 8530 d03d ee07 78be bd10 33be 8b3c 473e
00000240: a92c 853e 78ca 09be 9956 89ba 8b34 3cbe
00000250: cd6e e33d c871 473e 5b11 fc3c 1bfc 68bc
00000260: 5221 87be 0c22 ca3c fac1 b23d c567 fe3d
00000270: 3b5a 553e 2ad7 0a3e d4af 1e3d 8ead ad3e
00000280: 58a4 aa3e 6c56 d8be fcda c7bd 67d8 cf3c
00000290: 8e03 9a3d 187a 1fbd 8d7c 8b3e 4991 b13d
000002a0: a05a 4d3e 868b dabd 007d aabd ea65 b23c
000002b0: 7c6f 45be 80d0 9a3e b086 9c3d 0b94 cb3d
000002c0: f23c 6bbc 63a9 ca3d 7ad1 443d 0a1d ab3d
000002d0: 93df a7be fb7f 1dbe 0fa2 25be eb54 183e
000002e0: e621 773e 4fc2 11bd 3285 df3d dd5d ec3c
000002f0: bf97 c23b 7b04 bfbd c057 98be ce7b bfbc
00000300: f39a a3be 0e72 8f3c 807d 7d3e 8f41 a83e
00000310: 2ea6 8abe ad40 dbbc aa87 26be 9026 403e
00000320: 7021 dabd be47 cb3d 2c4b 323e acb5 57be
00000330: 7d8c b03d 2a64 40be 5253 3dbe 732c 543e
00000340: 8d82 863d f7fb 8ebe ee52 23bd 58de 53be
00000350: 269e 4c3e dbab 903e ef6f eb3d 0c4d 163d
00000360: a80e 9abe 020b 9f3d 284d f43d 6f91 283d
00000370: 4119 393e dc49 a43d 81b3 993d 9179 9b3e
00000380: 4b1a 293e 54d9 ebbe d258 06bd c477 f1bd
00000390: bba9 7c3e 86a8 f6bd a8ce 543e dbab 8f3d
000003a0: f081 3c3e 4ba0 803b eddb f4bc e9e3 86bb
000003b0: f8be cebd 89f9 a63e 79eb 64bc 0387 f83d
000003c0: a991 55bd 1407 493e 9cc3 28bd daa4 febc
000003d0: 03a5 53be 70d0 81be 4e0a a9be 7db6 903d
000003e0: ab2a aa3e 1ca2 ecbc b090 893e 7c6a 223e
000003f0: 5740 203e 5ec5 06bc 87fe 99be e0b8 02be
-0.11076609 0.0550386 0.089471795 0.06659954 -0.18908614 0.04471642 -0.036300242 0.105820835
-0.037680082 0.10603267 0.07485457 -0.23165499 0.06955001 -0.30157337 -0.16467871 0.20916799
0.1425991 -0.22958855 0.028328368 -0.14688824 0.13757285 0.199829 0.07577042 -0.03869639
-0.18764703 -0.036814693 -0.04114171 0.10377083 0.11576725 -0.010936076 -0.04253549 0.3154135
0.12854269 -0.45725548 -0.032145213 -0.02760803 0.12430305 -0.07364243 0.20474811 0.10444347
0.29689988 -0.094063334 -0.07477738 0.052787244 -0.11378165 0.34225008 0.030601555 0.040857263
-0.0060212347 0.13400258 0.037833814 0.0049911826 -0.25681084 -0.15125135 -0.16128217 0.037277054
0.11282579 -0.08194403 0.17275643 0.02740522 0.019850444 -0.08871129 -0.14401278 -0.011629403
-0.138213 0.07352469 0.09610743 0.12354692 0.02722803 0.08387801 0.06485469 0.16126738
0.16042444 0.13620815 0.1095004 -0.23071326 0.029728742 -0.1364303 -0.13832822 0.1550995
0.21907876 -0.10918714 -0.10206319 -0.10853369 0.11527547 0.22849472 0.0074829585 -0.06857056
-0.2577613 -0.094609015 -0.008751952 0.10735228 0.114050694 0.00049282616 -0.05304188 0.28054637
0.23275736 -0.30294445 -0.0858809 0.05560393 0.061473686 0.04330528 0.16469139 -0.108893834
0.18968308 -0.055812746 -0.09992433 0.11077874 -0.08594438 0.15172131 0.06899749 -0.019693011
0.05589966 0.04857809 0.020049553 0.071112856 -0.12905492 -0.13485132 -0.08601276 0.0054192087
0.1067257 -0.030903606 0.19449508 0.120447606 -0.005636667 -0.038078025 -0.26605257 0.003346973
-0.18153942 -0.047682215 0.13363774 0.19872403 -0.11529377 0.02084069 0.012912515 0.12721786
-0.09382723 0.14157581 0.11033541 -0.3395608 0.10165504 -0.24221775 -0.17486854 0.19456689
0.26010635 -0.13456142 -0.0010478079 -0.18379419 0.11105118 0.19476998 0.030769994 -0.014220263
-0.2639261 0.024674438 0.08728404 0.12422136 0.20835201 0.13558641 0.0387419 0.33921474
0.3332851 -0.42253435 -0.09758565 0.025371743 0.07520209 -0.038934797 0.27243462 0.08670289
0.20054102 -0.10671143 -0.08324623 0.021777112 -0.19280809 0.30237198 0.07642877 0.09940346
-0.014357792 0.09895589 0.048051335 0.08355148 -0.3278776 -0.15380852 -0.16175102 0.14876144
0.24134025 -0.035585698 0.10914077 0.028853351 0.0059384997 -0.093270265 -0.29754448 -0.023374464
-0.31954154 0.01751044 0.24754906 0.32862517 -0.2707991 -0.026764238 -0.16262689 0.1876471
-0.10650909 0.09925793 0.17411488 -0.21065396 0.08620546 -0.1878821 -0.18488815 0.20720081
0.06567869 -0.2792661 -0.03987401 -0.20690286 0.19982204 0.28256115 0.11495959 0.03669457
-0.30089307 0.077657714 0.11928779 0.04115432 0.1807604 0.080219 0.07504941 0.30366185
0.16513936 -0.46064246 -0.03279955 -0.117904216 0.24674122 -0.12043862 0.20781958 0.07015201
0.18408942 0.0039253584 -0.029890025 -0.0041165245 -0.10095018 0.32612255 -0.013972157 0.121351264
-0.052140865 0.19631606 -0.041202173 -0.031084467 -0.20668416 -0.25354338 -0.33015674 0.07066057
0.33235678 -0.028885894 0.268682 0.15860933 0.15649544 -0.008225767 -0.30077 -0.12765837
