tut1-model.pt (torch_old, 217120 bytes, 12 tensors)

encoder.embedding.weight f4 [28, 32]
00000000: 9a7f d83c 888f 90bd aac2 67bd 9fa3 56bd
00000010: 4f19 6cbd 7d5e d7bc c36f edbc 6310 33bd
00000020: 3837 00bc cef0 8cbd 7a00 68bd c0e0 833d
00000030: 80dd 63bc c0a8 773d b366 12bd c7aa a3bd
00000040: aacf 973d c3b1 84ba c331 3d3c fc99 903d
00000050: 147f 103d 1628 54bd 9add 683c 9a17 78bc
00000060: 1ae2 98bc 3361 17bd 57f6 453d cf66 6fbd
00000070: d79d 593c 82a2 46bd 8734 34bd 5c52 1dbc
00000080: e083 28bd 1a47 6cbc ec72 82bc d7a5 133d
00000090: 857e 2c3c 642b 9ebd 9139 2ebd cffa 303d
000000a0: 5239 bc3c 648d 70bd 1228 723d b45b 0abd
000000b0: fb71 163d 3f2f 86bd 3d8a 713b 3d60 0b3d
000000c0: e0b9 13bd 8d23 6e3d 31ec 523d 8867 aabc
000000d0: 71ee 3a3d d4ec 593d e6fa 96bc ac8d 81bc
000000e0: 5a7e 8e3d d741 733c 663c 713c dc6d 9fbd
000000f0: d696 883d 24f2 4e3d a5ef 9fbd f443 903d
00000100: 207a ba3d 4792 5fbe c51d 04bf f670 4ebe
00000110: 2e07 37bf 6f69 0abf 1f50 f33d 185d 9c3d
00000120: ba94 a1be 1484 68bc ec7d 803e 2816 9dbb
00000130: 3986 ccbe 5212 223f cd3e ae3e b79f 5dbe
00000140: 2ffd 453d 85a4 c7be 5ca4 763f 9d4b 67bd
00000150: ab2d 7c3e d474 f8be ce36 403e 02e4 f7be
00000160: cf3d f7be 4ae3 dabe 5a3b 3e3e 9e9c 8ebe
00000170: 2482 a3bd ce82 07bd 929f 11bf 6255 08be
00000180: 6aea 283f a566 233e 4062 ce3e 813f c33d
00000190: d1e1 3a3e 484b 84be 35af 94be 5ab6 1d3e
000001a0: fd2b 90be b28b fe3e 8f22 503e e36c a3be
000001b0: 6dc8 483b 6ac3 fdbd 4a38 3ebf f386 543e
000001c0: d10e 04bf 06d8 053e 8ec6 673d 72d7 b3be
000001d0: f2b2 813e 3187 713c a3a5 e43e 4be1 393e
000001e0: c8c9 94bc b999 48be 09ac 6b3d 5a90 c63e
000001f0: a0b7 1dbe 5cc8 053f 1b31 ac3d d9a7 c63e
00000200: dd61 91be a5d4 32bd 1504 0cbe 29cb 4bbd
00000210: 7511 b63e 9937 e8be d8ba 1bbe 70ca 153f
00000220: 988d e13d 0b8d 573f 1871 d3bd 18ec b3be
00000230: 4fc5 29be b9cd 70bf 6529 593e 73ed 34be
00000240: 0e50 dabe a1d9 54bd ed98 2ebf b4ed 0dbf
00000250: 01a9 a03e 5ef8 7dbd 5691 603e 2db1 97be
00000260: a9f8 6ebe 1652 413d f721 1a3f 2658 103d
00000270: c764 10bc eea0 413d 85f3 0fbf c19c 9cbe
00000280: de6c febc 98ef 3c3e bade 51be 0b3f 0dbd
00000290: d6bc 91be 72b4 0e3e 48dc 87be 6c29 47ba
000002a0: 3fe7 34be a9c5 53be 0915 0f3f bc6b f6bd
000002b0: 1384 00be 54be c8bc ac7f 1dbe 2143 243f
000002c0: a870 b0bd 78c9 b1be 48ae 28be 4ca1 403d
000002d0: 2fa4 743e f65b 783f 47cd dc3d 5ff5 90be
000002e0: a181 c1be 6721 86be 7d5e 8e3f 795c 613d
000002f0: 61a9 b33e 412c de3e 0353 253e 76dc c5be
00000300: e4d3 f4bb 688d c63d eb2f af3e e0e6 283f
00000310: b7c1 9cbc f18b 81be 94a1 32bf 6816 4b3e
00000320: 172a 85bd 3d34 b6bd 6c02 873d 7f89 debe
00000330: 6fe0 513e 4e61 92bd 7697 84be 4eb8 96be
00000340: 75b0 d9bc 06b6 42be 69cf 923d 7b38 80bd
00000350: f43b fbbe 2a9e 033f 35fc 933c 9945 0bbf
00000360: ac2b 94be 7c95 c3be bbf8 19be 7e4e c03e
00000370: cb10 1e3f 07fa 44be 4a2b 75bd 2922 1abf
00000380: 6a7c 643e 58f4 a13d a589 4abe 540e e73d
00000390: e595 8e3f b31c 94be ddd8 c83e 6f99 08be
000003a0: f4a6 e3bd 9c99 1d3f 5ae9 813e 63ac ecbc
000003b0: a320 323f 78bb edbd 3ced a73e 21be f9be
000003c0: d107 2ebd 4aee c7be 9ebe b03e 3690 b6bb
000003d0: 5c8a 9ebd 4625 853e e266 093f 9dc5 07bf
000003e0: 1158 9dbe 02f3 bcbe f266 023e 8fc6 a53e
000003f0: 2e2c c4be 148f 7c3e 05dc b63e 923f 84be
0.026428033 -0.070586264 -0.05658213 -0.052402135 -0.057641324 -0.026290173 -0.028983956 -0.0437168
-0.007825665 -0.06881867 -0.05664108 0.06439352 -0.01390779 0.060463667 -0.035742473 -0.079915576
0.07412656 -0.0010123778 0.011547509 0.0706062 0.03527744 -0.05179604 0.01421299 -0.015142346
-0.018662501 -0.03695793 0.04833063 -0.058447655 0.013282261 -0.048494823 -0.043995406 -0.009602156
-0.04114139 -0.014421249 -0.01592394 0.03604683 0.0105282115 -0.0772312 -0.04253537 0.04320794
0.022976551 -0.05872859 0.059120245 -0.03377886 0.036729794 -0.0655198 0.0036856078 0.034027327
-0.036065936 0.058139373 0.05149478 -0.02080132 0.04563755 0.053204373 -0.018430185 -0.015814625
0.069576934 0.01484724 0.014723873 -0.07784626 0.06669395 0.050523892 -0.078093804 0.07044211
0.09105325 -0.21833144 -0.51607925 -0.20160279 -0.7149533 -0.5406713 0.11880516 0.07634944
-0.31558782 -0.014191646 0.2509607 -0.004793901 -0.39946154 0.63309205 0.34032288 -0.21642958
0.048337158 -0.38992706 0.9634454 -0.056468595 0.24626796 -0.48526633 0.18770906 -0.48416144
-0.48289344 -0.42751533 0.18577328 -0.27853864 -0.07983807 -0.03308373 -0.5688411 -0.13313821
0.6598269 0.15957125 0.40309334 0.09533597 0.18250205 -0.25838685 -0.29039922 0.15401593
-0.2815856 0.49715954 0.20325683 -0.3191901 0.0030637041 -0.12390788 -0.7430464 0.20754604
-0.5158511 0.13070688 0.05658584 -0.3512531 0.25331837 0.014741705 0.4465762 0.18152349
-0.018162623 -0.1958989 0.057537112 0.38782007 -0.15402079 0.5225885 0.084078036 0.38799933
-0.28394976 -0.043659825 -0.13673432 -0.049754295 0.35560194 -0.45354918 -0.15207994 0.5851202
0.11013335 0.8419959 -0.10324305 -0.35141063 -0.16579174 -0.9406391 0.21207197 -0.17668705
-0.42639202 -0.05196536 -0.68202096 -0.5544083 0.3137894 -0.06200444 0.21930441 -0.29627362
-0.23337044 0.047197424 0.60208076 0.035240315 -0.00881309 0.047272615 -0.56230956 -0.30588344
-0.031057771 0.18450773 -0.2049512 -0.03448395 -0.28464383 0.13936022 -0.2653525 -0.000759742
-0.17666338 -0.2068087 0.5589147 -0.120322675 -0.12550382 -0.024504818 -0.15380734 0.6416493
-0.086152375 -0.3472402 -0.16472733 0.047028825 0.23890756 0.9701532 0.10781341 -0.28312203
-0.37794212 -0.2619736 1.1122586 0.05501983 0.35090163 0.43393138 0.16144948 -0.3864476
-0.0074715484 0.0969494 0.34216246 0.6597729 -0.01913534 -0.2530208 -0.697778 0.19832766
-0.065021686 -0.088966824 0.06592259 -0.43464276 0.20495771 -0.07147466 -0.25896806 -0.29437488
-0.0265734 -0.19014749 0.071684666 -0.06260773 -0.49069178 0.51413214 0.018064598 -0.5440307
-0.2893957 -0.38199985 -0.1503629 0.37559885 0.61744374 -0.19236003 -0.059855737 -0.60208374
0.22313085 0.07907933 -0.1977907 0.1128203 1.1139494 -0.28928146 0.39227954 -0.1333978
-0.11115828 0.61562514 0.25373346 -0.028890794 0.6958105 -0.116080225 0.32798183 -0.4877787
-0.042487923 -0.39048988 0.3452043 -0.0055713905 -0.07741234 0.26005 0.5367261 -0.5303591
-0.30731252 -0.3690415 0.12734583 0.3237805 -0.38314956 0.24663955 0.35714737 -0.2582975

encoder.LSTM.weight_ih_l0 f4 [256, 32]
00000000: 034d c83e 9798 a0bd 3c66 03be fb6b 4cbf
00000010: 311f 02bf 0799 1dbe e80f bcbc a99f 183f
00000020: 4af3 1dbf 89b7 ce3e 7f75 583f 2ec4 393c
00000030: 4d33 6dbf d848 103c d4b3 8bbc 8b32 a53e
00000040: 23ab 16bf d57e f7be 71a8 ac3e 823d b1be
00000050: b161 6dbd a9d3 b2bd bc13 073f a9cb 07bf
00000060: 98a6 19bf bf11 40bd eb9a ce3e 5e51 98bd
00000070: 39f0 7b3e 6a0f e23e 36fb 693e b571 d9be
00000080: 4840 573d 464d 513e 1fd5 ffbe 2850 47be
00000090: 63e1 883d ab18 16bf 061e d0bc a9b2 5abd
000000a0: c720 0cbd 5a67 7a3e 5105 df3d 072f 1bbf
000000b0: 989b e53e 2e89 15bf 619d 863e 422b ee3e
000000c0: 1cd8 1cbe fcd1 2dbe bc0f 8e3d 0f64 2f3e
000000d0: 6a77 aa3d 3c74 8c3e 9b62 463e 7d53 0abe
000000e0: 50a4 02bf e414 c6bd c140 b0be d1da 093f
000000f0: 6bee 643e d742 523d 1a10 423e 85db c03d
00000100: 10e3 7f3e 21ee c53d 7143 45bd 1541 9e3e
00000110: 2c25 233f a0a6 c53d a758 073e 481f 253e
00000120: 9390 febd 9bea be3e c403 d33d 6323 0b3e
00000130: f7b8 543e 894d 423e b74c 91be 66eb 5cbe
00000140: 0b16 e1be 7d77 59be 2ab9 0c3d 30bf a73e
00000150: 41f9 a03e 55df a93e 7c21 09be 02cd 44bf
00000160: 9750 70be cef5 893d a015 ba3e 97e7 cdbd
00000170: 752c 893e a9c6 d73d a1d3 c5be 7e5e dbbe
00000180: 0630 8f3e e310 0fbe 3caa 253e 3f19 f6be
00000190: 2cb0 613e db7e da3e 63e1 a0be b94c ce3e
000001a0: a6e7 cbbe db99 c73e d087 473e 0416 e9bd
000001b0: fffc 293d 70a4 a5bd e59f 76be 2a3b 93bd
000001c0: fc56 77bd 4c85 6abe a127 9abe 3ac5 eabd
000001d0: 42d0 023f 0474 3ebd a406 9bbd 9171 12be
000001e0: b3f3 d6bd 4f7f 933e f74d 663e 6cab f93e
000001f0: 3c42 343e 12dc fabd 4f1b 213c 5c88 0dbe
00000200: 8f23 84bc e7ed 563e fa9e 0dbf e858 3fbe
00000210: 5eed a4bd 706c 84be 7a89 b8be abed 5c3e
00000220: 4104 03bd 3bb3 4abe 5e4d 5d3e cd61 8ebe
00000230: d280 a4bd 95f1 97bd f9c1 f2bd 232e 8d3d
00000240: 55eb 00be 292b 6ebe b381 b53d 2071 a1bd
00000250: e6c8 93be 4fe7 403f 3e94 193d 0088 83be
00000260: 372f b9be 1c64 b2be 6c66 283f 8b38 3fbd
00000270: 192d eb3e 6bdc 56be c968 cabc 8d1e 83be
00000280: 359a c73e 2142 333a eb91 dc3e dbb0 733e
00000290: 3772 82be 332e 94be dfe3 ccbe 15d0 6ebe
000002a0: 498b e0be 8ef0 053d f0fb ef3e 0863 293e
000002b0: 9249 2bbf ede6 cc3e 5c83 8ebe f6a4 72bf
000002c0: d56a 053f a904 37be 30c2 253f cabe d6be
000002d0: d6e2 ef3c c9ea 29bf 168b 2d3f 65c4 8ebe
000002e0: 19df 53bd 64c1 153e 4a53 113f e76a c7bd
000002f0: 653f d53e 4747 b23d 5593 b7bd c8fc f1be
00000300: 6836 3a3f 33b9 41be f856 45be 0976 aebe
00000310: 31d5 a53d 9d63 04bf 136e bbbe 1fa6 163f
00000320: e9ba eabe 8fe0 313f d276 193f ac35 533d
00000330: 331f ffbe 0188 eebd 3a25 53be 7673 76bf
00000340: d61f ea3d aecc cebe 0b59 9abb fc1c 02bf
00000350: 767a 98bd 82be bdbe 2155 9f3e 3623 03bf
00000360: 2971 a9be da5c fd3e 246b 28be d949 5e3d
00000370: 9c50 603f ad18 663d 0070 9fbe 1e2e 73bf
00000380: 9f55 8a3e 73da 30bd 81df af3d a481 2b3d
00000390: e4f9 23bf 649b abbe 004e 25be fa79 613d
000003a0: 51bb 01bf 796b 953d 1241 cf3e fae7 823d
000003b0: a20a 09be 318d 8b3d 7740 06be 95c1 093e
000003c0: 27b4 c33e d4be 2fbe bf40 843e 0e0d 213d
000003d0: 844b 843e 9fb6 863e 1742 983e 75bc bebe
000003e0: b028 19bf 80fd bdbd f6c8 8fbd cfcd 40be
000003f0: 3fd7 633d ab5c b73c 4af3 68be c5a2 83be
0.39121255 -0.07841604 -0.12831968 -0.79852265 -0.50828844 -0.15390407 -0.022956803 0.5961862
-0.61699355 0.403744 0.84554285 0.011338277 -0.92656404 0.00880643 -0.017053522 0.32265124
-0.58854884 -0.48338953 0.3372226 -0.3461724 -0.057954494 -0.08731777 0.5276449 -0.53045136
-0.60019827 -0.046891924 0.40352568 -0.074373946 0.24603356 0.44152385 0.22849736 -0.42469564
0.052551538 0.20439634 -0.49967286 -0.19464171 0.06683614 -0.5863139 -0.025404941 -0.05339304
-0.034210946 0.24453488 0.10889686 -0.60618633 0.4484527 -0.58412445 0.26291946 0.46517378
-0.15316814 -0.16974634 0.06936595 0.17128013 0.08323558 0.2743243 0.19373553 -0.13508411
-0.5103197 -0.09671953 -0.34424403 0.5384951 0.22356574 0.051333275 0.18951455 0.0941687
0.24988961 0.0966456 -0.04816002 0.3090903 0.63728595 0.09650922 0.13217412 0.16125214
-0.12429919 0.37288365 0.103034526 0.13587718 0.20773683 0.1897489 -0.2837884 -0.21574172
-0.4396213 -0.21236987 0.034356274 0.32763052 0.31440166 0.331782 -0.1339168 -0.7687532
-0.23468243 0.06736337 0.36344624 -0.10053938 0.2679173 0.10535938 -0.38638023 -0.4284553
0.27966326 -0.13971286 0.1617822 -0.48066136 0.2203986 0.42674908 -0.31421956 0.4029291
-0.3982517 0.3898457 0.19485402 -0.11381152 0.04150104 -0.080880046 -0.24084432 -0.07189019
-0.06038569 -0.22902411 -0.3010836 -0.11463399 0.51099026 -0.04649736 -0.07569626 -0.14301135
-0.10495701 0.28808066 0.22490679 0.48763597 0.17603391 -0.12249006 0.009833171 -0.13821548
-0.016130237 0.2098919 -0.55320704 -0.18686259 -0.08053087 -0.2586398 -0.36042386 0.21575038
-0.03198648 -0.19794933 0.21611544 -0.2780899 -0.08032383 -0.07419125 -0.118534036 0.068935655
-0.12589772 -0.23258652 0.08862629 -0.07882905 -0.2886421 0.7535295 0.03749489 -0.25689697
-0.36168835 -0.34842002 0.65781283 -0.046684783 0.45932844 -0.2098252 -0.024708169 -0.25609246
0.38984838 0.0006838162 0.43080077 0.23797934 -0.25477764 -0.28941497 -0.40017602 -0.23321564
-0.43856266 0.032700114 0.468719 0.16541684 -0.66909134 0.40019932 -0.27834594 -0.9478296
0.5211614 -0.17872871 0.6474943 -0.41942436 0.029282968 -0.6637388 0.67790353 -0.27884212
-0.051726434 0.14624554 0.56767714 -0.09737187 0.4164993 0.08705001 -0.08963648 -0.4726317
0.7273927 -0.18918304 -0.19271457 -0.3407443 0.08097304 -0.517145 -0.36607417 0.5884723
-0.45845726 0.69483274 0.5994693 0.051564857 -0.4982849 -0.116470344 -0.2061967 -0.9626993
0.114318535 -0.40390533 -0.004710322 -0.50825477 -0.074452326 -0.37059408 0.31119636 -0.512256
-0.33094147 0.49484903 -0.16447121 0.054269645 0.87623 0.056175876 -0.31140137 -0.94992244
0.2701845 -0.04317708 0.08587552 0.04187168 -0.6405318 -0.3351699 -0.16143036 0.055047967
-0.5067645 0.072958894 0.40479332 0.06391902 -0.13382962 0.068140395 -0.13110529 0.13452752
0.38223383 -0.17162639 0.25830647 0.03931909 0.25838864 0.26311204 0.29737923 -0.37253156
-0.5982771 -0.09276867 -0.07020752 -0.1882851 0.055625197 0.022383055 -0.22749057 -0.2571012

encoder.LSTM.weight_hh_l0 f4 [256, 64]
00000000: 8aae 333e 09ae 9c3e bd36 4e3f 509a ae3d
00000010: 811d 30be 5330 30bf 721e cc3d 6a6e 87be
00000020: 677c 103f eb92 b2bd efd1 a93d f092 8a3f
00000030: c7cb 58bd 96c2 5cbe 4586 61bc a61c 73be
00000040: 9dbc 9dbe 50f1 c7bd ca07 673e 7617 34be
00000050: ddc9 673e 8de2 c43e 8222 14be 0185 d3bd
00000060: 7be0 f2bc 8f31 32be 564a 443d 7314 733d
00000070: 5455 943e fc8f 57be 69a7 7bbe 22ef a33d
00000080: c852 a73d 310d 463f 3f9c 10bd 8433 003c
00000090: fd11 8fbd d8f8 b3be 9c06 aebd 4cf9 02bf
000000a0: 49a9 a3bd b14f 6fbd 92cd f0be c98b 22be
000000b0: 0b5b f9bd 4641 1d3e 1c28 f5be 3471 d63e
000000c0: 5cfb 27bd efca d6bc 9a94 80bd 8a81 083e
000000d0: 1c78 2cbf 9ab1 8fbe b244 c5be a372 01bf
000000e0: 8041 9d3d 0090 2c3e cc83 d7be 425b 4bbd
000000f0: 4afa b13d 47b9 81bd e2c7 2c3e cee4 93be
00000100: fa4b 02bd d13d 363d 2b97 ebbd b5de 613e
00000110: 7d39 90be 78a0 1c3d 1628 90be 002c 8c3e
00000120: 15df 0bbf eafd b9bd 1ae4 fe3e cb91 43be
00000130: a6b5 30bc 5e65 1dbc e4fb 90bb 0cff d1bd
00000140: f9c4 873c 9391 85be 72b8 963e b9f8 f2be
00000150: f35d 1a3d 252f 8e3c 50d6 82be 29fa 1f3d
00000160: d668 6a3e f053 abbe f938 f63e 8dab 41be
00000170: a6d3 933e fd21 32bf 9881 15bb b9cc d7be
00000180: 6499 873e e0ea b83d 2672 febe 5d1d acbd
00000190: 845b cbbe a19e f8bc fe16 c1bd fe47 08bf
000001a0: c530 10bd 73e9 87be 10ab a13e 0e67 d8be
000001b0: 1dbc 71be ea8e a43d 5f80 1fbe d1ec e13d
000001c0: ad08 d33d 5bd8 ea3e 9a40 9c3e ff01 563d
000001d0: a41b ca3d 0d82 a4be 7dfe 8a3e 3c77 9cbe
000001e0: 5f09 8bbd 2f63 debb 88c8 f03b 7113 cd3e
000001f0: e938 833e 75b9 973e 35b7 47be 6e60 9a3c
00000200: d96d a4bd add8 343e e4b7 94be cb53 1b3e
00000210: 2a9f 333e b89e 1bbf f0f1 9b3e 7d02 06be
00000220: b569 963d 9018 35be 73b0 c43e 6806 09bd
00000230: 72b9 a0bd a74e 013d 1347 03be 6d18 a0bd
00000240: 4c8e 0c3e db2d 7dbd a0e9 b1be fb65 04be
00000250: 2e69 fa3b f4dd 583f 2d56 3cbe 0f5b 09be
00000260: 9203 3bbd 4711 19be f727 2c3d 8433 273d
00000270: 4007 ed3d 93d2 643e e8ed 27be d641 c1bd
00000280: bf5a 19be 79f9 713e e5b9 b73e 077b ad3d
00000290: 36db 923e 1a29 7bbe eaa8 6ebe 38b0 ea3d
000002a0: bb30 8bbd 0b42 983e 55b3 4fbe cea0 0fbe
000002b0: 4931 653d 640b 203e 1b6c a7be 89d2 a03e
000002c0: 686f 273d 8046 bdbd c013 97be 9283 febd
000002d0: d394 1abd bd7d dd3d d95d a9be 93ad 24bf
000002e0: defd 6fbe 442e 0c3e 42b3 23be aee1 f6bd
000002f0: 25dd 8fbe 5b75 3ebe e2de 833d 1cb7 21bf
00000300: 40af a0bd 82ef 063f 3978 cd3e 491c be3e
00000310: 09e6 053f ee70 9ebe c92c 42be 3079 913e
00000320: 5ce3 a63e 1257 093d 0856 85be 4227 db3d
00000330: 54b6 2f3d 97ac 78bd 056f 69bd 5ec3 403e
00000340: 78b3 40be 5513 86be 04a2 883d 8c51 89bd
00000350: 7987 6c3d fbc3 5dbd aaee 15be 70a4 ef3c
00000360: a914 9f3e 9ba6 59be de0d 5b3d b153 2abd
00000370: 3811 54be d42a 0f3e dfe8 b6bd 1dc8 93bd
00000380: c3ca 073e 22f4 3d3e bfa0 303f f279 4abd
00000390: 7571 8fbe da42 ebbb 8781 45be 9262 65be
000003a0: ba28 eebd 5b0b 31be 6b4f afbd 0931 4cbe
000003b0: aac9 033e 4679 15be 5238 77be 953b 803e
000003c0: 1955 43be b1f4 89bc 4b01 84bd 002e dfbd
000003d0: 4753 ccbe 38a1 ac3e 0104 9dbe 8774 67be
000003e0: 24cb f73e 145d f8bb 7dc2 b8bb f0c4 37be
000003f0: 95f4 e43d 1457 73be 1521 953e 8e74 d8be
0.1754705 0.30601528 0.80552274 0.085255265 -0.17198755 -0.68823737 0.099667445 -0.26451427
0.5643982 -0.08719429 0.08291995 1.0826092 -0.052928712 -0.21558604 -0.0137649225 -0.23741397
-0.30807963 -0.097628236 0.22561565 -0.17587075 0.22635598 0.38454095 -0.14466289 -0.10328103
-0.029648056 -0.17401718 0.047922455 0.059345674 0.2897135 -0.2105102 -0.2457558 0.08004595
0.08170086 0.7736388 -0.035305258 0.007824782 -0.06985853 -0.3515079 -0.084973544 -0.51161647
-0.07991273 -0.05842561 -0.47031838 -0.15873636 -0.12175568 0.15356931 -0.47882164 0.41883242
-0.0410112 -0.026219813 -0.062783435 0.13330665 -0.6737077 -0.28065187 -0.38528973 -0.50565547
0.07678509 0.16851807 -0.4209274 -0.049647577 0.08690317 -0.06334167 0.16873124 -0.28885502
-0.03181074 0.044492546 -0.115034424 0.22057612 -0.2816886 0.038238972 -0.28155583 0.2737732
-0.5463727 -0.090816334 0.49783403 -0.19098584 -0.010785496 -0.009606687 -0.004424559 -0.102537245
0.016573416 -0.26087627 0.29437596 -0.47455385 0.037687253 0.017356465 -0.25554132 0.03905693
0.22891554 -0.33462477 0.48090342 -0.18913098 0.28872412 -0.6958311 -0.002281284 -0.42148378
0.26484215 0.09029174 -0.49696463 -0.08404038 -0.39718258 -0.030349078 -0.094282135 -0.5323485
-0.03520276 -0.26545295 0.31575823 -0.42266124 -0.23606916 0.08035071 -0.15576313 0.11031497
0.10304389 0.4586819 0.30518037 0.052247997 0.09868553 -0.3213047 0.27147284 -0.3055972
-0.06788897 -0.006786726 0.007348124 0.40053895 0.25629357 0.2963368 -0.19503482 0.01884481
-0.08028764 0.1766078 -0.29046547 0.15168683 0.17541185 -0.6078906 0.3045802 -0.13086887
0.07344381 -0.17685151 0.3841587 -0.033453375 -0.07847871 0.03156915 -0.12820081 -0.07817159
0.13726157 -0.06181131 -0.34748554 -0.12929527 0.007641933 0.84713674 -0.18392248 -0.13413642
-0.0456577 -0.14947997 0.0420303 0.040820614 0.115736485 0.22345953 -0.16399348 -0.09436385
-0.14976023 0.23630323 0.35884014 0.08470731 0.2868287 -0.24527398 -0.23306623 0.11459392
-0.06796404 0.29737887 -0.20283253 -0.14026186 0.055955205 0.15629345 -0.32699665 0.31410626
0.04087773 -0.092419624 -0.29507256 -0.12427439 -0.037739586 0.10814998 -0.33079413 -0.64327353
-0.23436686 0.13689524 -0.1598635 -0.12054764 -0.28098407 -0.18599455 0.06438996 -0.6317003
-0.07845926 0.5270921 0.40130785 0.37130955 0.5230413 -0.30945534 -0.18962397 0.2841277
0.32595336 0.033530302 -0.260422 0.10700847 0.04289849 -0.06071147 -0.056990642 0.18824527
-0.18818462 -0.26186624 0.06671527 -0.06705007 0.057746384 -0.05414198 -0.14641824 0.029253215
0.3107045 -0.21254961 0.05348002 -0.04158372 -0.20709693 0.13981181 -0.089311354 -0.07215903
0.13260941 0.1855016 0.6899528 -0.049432702 -0.28016248 -0.0071796 -0.19287692 -0.22400883
-0.11628862 -0.17289488 -0.0856007 -0.1994058 0.12869897 -0.14597043 -0.24142578 0.25045457
-0.19075431 -0.01684031 -0.06445559 -0.10897446 -0.39907286 0.3371675 -0.30667117 -0.22603045
0.48397171 -0.007579455 -0.005638419 -0.1794622 0.11179463 -0.23763686 0.29126802 -0.42276424

encoder.LSTM.bias_ih_l0 f4 [256]
00000000: f57b 9d3e aff1 7e3e 4260 853d 1fdd 18bd
00000010: 1a56 f0bd 165a 1e3d 09e8 9a3d 81f3 d73d
00000020: 16ff 4fbe e548 873d bfc2 b13d 21c3 87be
00000030: 65d6 8f3e 9ad6 973d fe47 0bbe f991 46be
00000040: c847 cb3d 039d f23c 1e9e 863e 7ff0 123e
00000050: 6922 19bb 39d0 41bd 8e40 b23d 3d05 2dbd
00000060: 2e38 6ebe baa1 703e 1ea5 103d e79d ccbd
00000070: 204a 993e 1e17 d9bd fb2a c1bc e27f 203d
00000080: 9374 283e 1773 833e 70e7 863d abd1 1a3b
00000090: 7686 40bc ed0e febd f6e5 8d3e 78e3 18bd
000000a0: 4e61 ca3c 16ad 29ba c522 6f3d ca3e a73e
000000b0: 9f75 073e 537f 803e 967f bd3d 0671 8d3c
000000c0: ff24 973d 5eab 8b3e 8845 28bd 38f1 e23d
000000d0: 2588 afbd aaa3 613e b56f f03d beb8 86be
000000e0: 681a c5be 9290 a4bd f200 bdbd 7c2c f03d
000000f0: 4a63 393e 7e86 373d 1c8f 1c3e a2c5 ca3e
00000100: 80f8 853e ac12 d9bd 88c4 393d 42fb 763e
00000110: 9d9a 843e 6c4c 8cbd 572f 383e c5b4 b53e
00000120: d720 813e 11e7 3c3e dcec b83e 4222 5d3e
00000130: 62e6 633e 0f7d 9c3e 105c 083e 0b6b 8a3e
00000140: b05d 4d3e 6cc6 823e f4ba 9d3d 9450 9d3e
00000150: b4f8 753e 1ab8 04bd 4c3d 673e 2e4b 46be
00000160: cdb6 6a3e 87c5 84bd 91d1 0d3f a449 aa3e
00000170: 1be5 3e3e e1d9 b2bc 9eda a63e b17f 6f3e
00000180: abd7 643e 0fb6 ff3d a789 f43e 9f73 6d3e
00000190: 3e69 703d 9875 99bc 27d7 1d3b 7008 293e
000001a0: 957f 18bc dfa5 24be aa1a 5bbc 8465 07bd
000001b0: 63fc 033f ac5c 943e fbf0 04bd 73a5 c23c
000001c0: 0c2b b83e f846 e5bd f76a a6bd c918 af3e
000001d0: 8824 623e 7783 ec3d 50c7 7ebd 714c 56bd
000001e0: c667 823e 0e24 573e fcd2 fcbd 2d52 c03d
000001f0: 013e eb3e b603 7c3e 3be8 a33d 33cc eabc
00000200: 868c 88bd cda4 823d bd6e 06bd a3d8 1b3d
00000210: 9989 883d 98cc 313c 3302 2e3a 4360 033e
00000220: 193b f3ba f5e2 31bd 67e5 e53c 129f 26bc
00000230: 6c57 ab3d 8dd7 df3c b39b 71bd 3fc7 a13d
00000240: d9d4 e5bc 3658 8e3c 4a98 e33c 1fa5 133e
00000250: 224a 913d f261 9ebd 0338 e83d ce78 f73c
00000260: 3c55 113e 506a 87bc 0c36 4fbd 7627 053e
00000270: 38b4 b03d 0e4a 7cbc 75da 023d c401 493c
00000280: cbd9 89bd 986a bf3c 678b c6bc be9a 99bc
00000290: 5768 34bd 6559 a4bd b5b1 95bd 1c21 4d3c
000002a0: ff42 42bc 0e57 503d c9a5 07bd 00ba f9bb
000002b0: 7356 c4bd 6246 033e b964 e3bd 9fd5 033e
000002c0: ed83 21be 608a c6bc 2a3b 30bd e1a8 ce3b
000002d0: 0d68 313d f239 813d 9ee1 b0bd ffab 87bc
000002e0: ed41 4d3b b825 733b 8303 61bc b67c 4c3b
000002f0: 6439 033e 0110 683d 2641 99be 255e 7b3b
00000300: 7ad7 e53d 49ee d03d 7de3 d73d b045 50bd
00000310: b81b 2bbe 86c0 393e 806c 1fbe e516 85bd
00000320: ea18 81be 011b d93d 391d 3c3e 19a6 1e3e
00000330: 4b4d cf3d 57fc f13d ea51 863d bb11 7b3e
00000340: 61e0 0f3e ec3e 9f3d 0f4c ac3d 4c71 953e
00000350: 7bca efbb 8e30 0cbe 1d66 063d c23e 3d3d
00000360: ebc9 023e c8fd c73e 35cd 3f3d 9705 6dbd
00000370: 472d e53d 9146 923a c8c3 993d c651 8e3d
00000380: ce89 8f3d b4eb 643e a0da b53d 7373 363d
00000390: 0247 b8bd 3bd4 f93d a372 ab3e 6b46 09bd
000003a0: 9899 24bd f067 99ba 1d33 28bc 28be c43d
000003b0: b500 033e 992c 7c3e dbc2 083e 1916 f53d
000003c0: 520a 293e a2a8 d53d fb39 bd3d 53f7 893d
000003d0: da35 c5bd cf9c 9a3d ccf4 003d 67f8 f83d
000003e0: 2dee 293d f982 85bc 42c3 243e 46aa b8bd
000003f0: 6dcb 163e 5e40 eebb ba06 573e 1a1d ef3e
0.30758634 0.24896882 0.065125 -0.037320253 -0.117351726 0.03866013 0.075637884 0.105444916
-0.20312151 0.066057004 0.08679723 -0.2651606 0.28093258 0.07413979 -0.13601682 -0.19391622
0.099258006 0.029615885 0.2629251 0.14349554 -0.0023366457 -0.047317717 0.08703719 -0.042241324
-0.23263618 0.23499194 0.035313718 -0.09991055 0.29939365 -0.106001124 -0.023580065 0.03918446
0.1645072 0.25673744 0.06587112 0.0023623507 -0.011750808 -0.124051906 0.2771451 -0.037326306
0.024704602 -0.000647263 0.05838277 0.32665092 0.13228463 0.2509714 0.09252851 0.017265808
0.07380103 0.2727918 -0.041081935 0.11081165 -0.085708894 0.22035089 0.117400564 -0.26312822
-0.3849671 -0.08035387 -0.09228696 0.11727235 0.18104282 0.044805996 0.15288967 0.39603907
0.26166153 -0.105992645 0.045353442 0.24119285 0.2589921 -0.06850514 0.17986809 0.3548948
0.25220367 0.1844752 0.3611821 0.215951 0.22255853 0.30564162 0.13316369 0.27034792
0.2005527 0.2554201 0.07701674 0.3072554 0.24020654 -0.032402135 0.22581977 -0.19364616
0.22921295 -0.06482988 0.553979 0.33259308 0.18642084 -0.021832408 0.32588667 0.23388554
0.22347896 0.12485897 0.4776127 0.23188637 0.058694117 -0.01873283 0.002408454 0.16507125
-0.009307762 -0.160789 -0.013373056 -0.033055797 0.51556987 0.28976953 -0.03245638 0.023760533
0.35970342 -0.11195177 -0.08125871 0.34198597 0.22084248 0.115485124 -0.062201798 -0.052318994
0.25469798 0.21009848 -0.123449296 0.09390674 0.45945743 0.2461079 0.08003279 -0.028661823
-0.06667428 0.063790895 -0.032820452 0.038048398 0.0666687 0.010852002 0.0006637901 0.1282969
-0.0018557041 -0.043429334 0.02806349 -0.010169761 0.08366284 0.027324462 -0.058986377 0.07899331
-0.028055595 0.017376047 0.027782578 0.14418457 0.07094218 -0.07733525 0.113388084 0.030208971
0.1419267 -0.016530186 -0.050588652 0.13003334 0.08628124 -0.015398515 0.031946618 0.012268487
-0.06730994 0.023366258 -0.024236394 -0.018750545 -0.04404482 -0.08024863 -0.073092856 0.012520101
-0.011856793 0.05086427 -0.03311709 -0.00762105 -0.095868014 0.12819818 -0.11103196 0.12874459
-0.15772982 -0.024235904 -0.043025173 0.006306753 0.04331212 0.0630988 -0.08636783 -0.016561506
0.0031319812 0.003710134 -0.013733747 0.0031202263 0.12814862 0.056655888 -0.29932517 0.0038355675
0.112227395 0.10201699 0.10541437 -0.05084771 -0.16709793 0.18139848 -0.15568733 -0.064985074
-0.2521432 0.10600854 0.18370523 0.15493049 0.10122164 0.11815708 0.065585926 0.24518482
0.14050438 0.07775673 0.084129445 0.29188 -0.0073178387 -0.13690397 0.032812227 0.04620243
0.12772338 0.39060807 0.04682656 -0.05786666 0.111902766 0.0011159946 0.075080454 0.06949191
0.07008706 0.22355539 0.0887959 0.044543695 -0.08997919 0.12198683 0.33485898 -0.03351442
-0.04018554 -0.001170395 -0.010266093 0.09606582 0.12793238 0.24626388 0.13355581 0.119671054
0.16507843 0.10432555 0.092395745 0.067366265 -0.09629412 0.0754944 0.031483456 0.12156754
0.041486908 -0.016297804 0.1609011 -0.09016852 0.14726038 -0.0072708568 0.2099866 0.4670189

encoder.LSTM.bias_hh_l0 f4 [256]
00000000: d641 a73e 00ce 063e 809a aabb a171 bfbc
00000010: 7712 c4bd ff9a 6a3d f95d f23c f002 f33d
00000020: fa68 9cbe bb51 333d 6047 003c 5d9c 15be
00000030: 3601 a73e 3271 c93d 1b59 04be e3a7 4fbe
00000040: b7db dc3c 4849 f13d 872e 8e3e 93f1 4e3e
00000050: 3afc b9bc da38 f0bc 6917 333d b4e2 783c
00000060: 7b3f 9fbe 7b63 5c3e ec3c 093e cafd 04be
00000070: 5ed4 853e d4e3 9bbd 2c5f 15bc c53c e03b
00000080: cd3c a83d c5ac 613e f287 0a3e 50d6 cfbd
00000090: 82c5 913c 98c7 ffbd 3c46 a03e 4c9e 32bd
000000a0: 67cd 873c 24ac 83bd 0898 57bd 8910 ab3e
000000b0: 828b fe3d 54fb b13e 5adc 8c3d 860e abbc
000000c0: 5a8f 093e 4705 663e 4686 293d 7545 ebbc
000000d0: 77ea f7bd 04c0 473e a584 6d3d a40e a0be
000000e0: 6810 97be 6e4c 13be 2382 9dbd 9317 073e
000000f0: cb40 d23d 7eb7 6b3c 13fd 4d3e 82a2 bb3e
00000100: 08d8 c93e 0470 41bc 7c88 963d 7da7 b43e
00000110: 848d 183e a518 b9bd d32e 483e bf6e e23e
00000120: 16e5 ff3d eaeb 2c3e 5074 b93e 1aa7 4b3e
00000130: 2468 633e af03 c83e 68a3 493e f0c7 3f3e
00000140: 23fb 703e 1639 273e 2793 3b3d 98f4 5f3e
00000150: 1a7e 323e 1244 b9bc b7e7 723e 846d 2dbe
00000160: 35e1 f23d 87b8 31be fe5e 133f 7345 bb3e
00000170: 42e3 163e 782a 8abc a33e 923e e6fe 8e3e
00000180: f157 9e3e c6c0 393e b35f e63e 407c 723e
00000190: ed8c 7a3d 4d54 e73c ec98 193d 5145 0e3e
000001a0: 9163 78bd 1176 39be f99c 09bc e9b5 a63d
000001b0: ca5f 1e3f 83f7 863e 4f44 913c 4b2a 4b3d
000001c0: dae7 bd3e 4223 d3bd 902b 983c 69f8 9f3e
000001d0: 6863 863e 5b2a 9c3d 5416 2a3d 2bd9 e8bd
000001e0: f2f3 843e f345 233e 0530 c6bd b423 493e
000001f0: 9da7 c63e c92b 293e bbce 3a3e 0349 24bd
00000200: b0a7 b7bd 24db b63a c60b 0fbd ef89 22bd
00000210: dc4b 4e3c 594b 933d f2c5 513d d085 a33d
00000220: 6433 01be 42bf f1bc 9ba5 60bd 3e2c c53a
00000230: abd1 0b3e 4c5d 4b3d 13dc 1e3d 421f 3abd
00000240: 06cb 383c 9151 8fbd 7495 f73c 9426 923d
00000250: 9ec2 3cbd d322 9cbd 7e1a 203e a5cf a23b
00000260: b2b0 2e3e 0d11 c2bd 3e95 a6bd 0525 193d
00000270: 654e c4bc 69c2 13bd 84e8 1e3d 3bb0 6c3d
00000280: c301 14bd def3 e0bd 6ce9 343d 6ae9 bcbc
00000290: 3fc8 ba3b 0ca7 adbd 452d dabc a646 90bd
000002a0: afa9 b23d a7f6 d53d 24a7 023d 4720 07be
000002b0: 29fb a63c 14f3 383d ec4f 85bd 4b1e 813d
000002c0: c06f febd b9c2 8abc d22c 99bd 7dbf 513d
000002d0: 39b4 73bb 31f1 613c 5302 4bbd 96e1 9cbd
000002e0: e24c 05bc 045a 8dbd 77b5 05bc a981 42bd
000002f0: 2272 d93d ec7c b3bd 9ed0 6ebe 0cf7 4e3d
00000300: e1c3 b53d 67c2 6b3d b7c8 b83d 48df f7bc
00000310: 2aeb 00be 0a97 013e ccee 26bd ced4 e1bd
00000320: 7bd4 82be 44aa b93d b6a7 4a3e b6fa b93d
00000330: 4353 c43c 718b 623d f725 0bbd f839 673e
00000340: a3c2 913d 8d3e e5bb 6a30 ec3d f22a 613e
00000350: d1f9 48bd ffbf 20be 734d 8b3c abe7 86bb
00000360: 5b77 4b3e 29ae b43e 1a44 ee3c 169a bdbc
00000370: f874 f23b baa6 2bbd 7787 933d 78fa 923d
00000380: 33b5 eb3d 58ed 4b3e 2359 723d 7e89 863c
00000390: ebb9 6dbd 9e7b ff3d afc8 c03e 4d84 62bc
000003a0: 9ba7 3d3d d27c 94bc 7a29 04bd 318c d93d
000003b0: 67fa 483d 4aa7 2a3e a88a d83d 679a f63d
000003c0: 826a 583e 7efe 443e 2d63 193d 30f3 c8bb
000003d0: a6ea eebc 03d0 433c 6cd7 de3d e319 3f3c
000003e0: 5ee7 2a3e 311d e6bd d44f b23d cfed 03bd
000003f0: cff7 f53d 559b c93c b535 873e 02ea 063f
0.32667416 0.1316452 -0.005206406 -0.023369612 -0.095738344 0.057276722 0.029585825 0.11865795
-0.3054884 0.043779116 0.007829517 -0.14610429 0.3261811 0.098360434 -0.12924616 -0.20278887
0.026960237 0.117815554 0.27769873 0.20209341 -0.022703279 -0.029323984 0.043723498 0.015190769
-0.3110312 0.21522324 0.13402146 -0.12987438 0.26138586 -0.07611814 -0.009116929 0.006843182
0.08214722 0.22038563 0.13528422 -0.10148299 0.017794374 -0.12489241 0.31303585 -0.043607995
0.016577436 -0.064293176 -0.052635223 0.33411053 0.12428953 0.3476206 0.06877966 -0.020880949
0.1343359 0.2246295 0.04138782 -0.028719643 -0.121052675 0.19506842 0.057987828 -0.3126117
-0.29504704 -0.14384624 -0.07690837 0.13192587 0.102662645 0.01438701 0.20116071 0.3664742
0.3942263 -0.011806492 0.07350251 0.35284033 0.14897734 -0.09037904 0.19549112 0.44225118
0.124948665 0.16886869 0.36221552 0.19887963 0.22207695 0.3906531 0.19691241 0.18728614
0.23533301 0.1633037 0.045794632 0.21870649 0.17430916 -0.022615466 0.23721205 -0.16936308
0.11859361 -0.17355548 0.5756682 0.36576423 0.1473513 -0.016865954 0.28563413 0.27928847
0.3092647 0.18139943 0.44994888 0.2368021 0.061169554 0.02823844 0.037499353 0.1389363
-0.06064183 -0.18111445 -0.008399242 0.08140165 0.6186491 0.2636071 0.017732767 0.04960088
0.3709095 -0.10309459 0.01857546 0.3124421 0.26247716 0.07625266 0.0415252 -0.113695465
0.25967366 0.15944652 -0.09677128 0.19642526 0.38799754 0.16520609 0.18242924 -0.040108692
-0.08967531 0.0013950807 -0.034923337 -0.039682325 0.0125913285 0.07192106 0.051214166 0.07984507
-0.1261726 -0.029510144 -0.054845434 0.0015043092 0.136542 0.04964952 0.038784098 -0.045439966
0.011278873 -0.069979794 0.030222632 0.071362644 -0.04608404 -0.0762383 0.15635106 0.004968601
0.17059591 -0.094759084 -0.081339344 0.03738882 -0.023963163 -0.036074076 0.038795963 0.057785254
-0.036134493 -0.10984014 0.04416792 -0.02306052 0.0057001407 -0.08479127 -0.026632914 -0.07044725
0.08723771 0.10447436 0.03189768 -0.13195907 0.020383434 0.045153692 -0.065093845 0.06304606
-0.12423658 -0.016938554 -0.07479252 0.051208008 -0.0037186278 0.013790415 -0.049562763 -0.076602146
-0.008136006 -0.06901935 -0.00816094 -0.047486935 0.10617472 -0.08764061 -0.23321769 0.05052857
0.088752516 0.057558443 0.09022658 -0.030257836 -0.12589708 0.12655273 -0.04075508 -0.110269174
-0.25552735 0.09065679 0.19790539 0.090810224 0.023965484 0.055308763 -0.033971753 0.22580707
0.07117202 -0.006995982 0.11532672 0.21989039 -0.04906637 -0.1569824 0.017004704 -0.0041169724
0.19869749 0.35289124 0.029085208 -0.023144763 0.0073991977 -0.04190705 0.07203572 0.071766794
0.115091704 0.19914758 0.05916704 0.016422983 -0.058038633 0.1247475 0.3765311 -0.013825488
0.04630242 -0.018125925 -0.032266118 0.106224425 0.049066927 0.16665378 0.105733216 0.12041169
0.2113438 0.19237706 0.037448097 -0.006132506 -0.029164623 0.011951449 0.10880932 0.011663887
0.16689822 -0.112360366 0.08706632 -0.032209214 0.12010156 0.0246102 0.26408163 0.5270082

decoder.embedding.weight f4 [28, 32]
00000000: 5cb1 9e3b 29fc d7bb 94ec f43c 4097 23bd
00000010: 8a38 cd3c c63e 34bd ea46 79bd 520d 18bc
00000020: 0a76 703c c191 84bd 5caf 3e3d 1c93 243d
00000030: 0cb1 47bd 8f8f 8d3c 9a25 b5bb ec34 d73c
00000040: 1f22 d03c 9c4c 223d 0dbe 2b3d c677 963d
00000050: c050 41bd 3d1e b23b fab3 a2bd 2160 6f3d
00000060: 246e ddbc a642 8f3d 8882 8f3d 5909 60bd
00000070: 8856 2a3d ec48 6c3d 61a8 2bbc a47c 2dbc
00000080: f601 0d3c c851 633d a492 ed3c 00c5 14bc
00000090: c08f 99bd fd62 7ebd 026a 30bd a8d5 6dbd
000000a0: 56a4 8d3d 5ff0 7d3d 8f02 143b f1b0 363d
000000b0: 7960 7fbd f770 7bbd 833f 8dbd 7fb3 1fbd
000000c0: cb3b 9ebd 6690 2cbd 372b 69bd 5964 79bd
000000d0: c5d3 9c3d a698 913d 29dd e0bc cf34 a3bd
000000e0: c089 c3bc 29b2 6e3d f6b9 3bbc d2bd 7d3d
000000f0: aeb5 55bc b3cd 71bc f123 a83c 29eb b03c
00000100: 7133 05be 1ebe 63bd 51bb ac3e e9b3 17be
00000110: b6e5 9bbe 21e7 af3e a480 f5bb 5348 9d3e
00000120: 9dcb 33bf 2345 8b3e 7605 67be bc91 54bd
00000130: 15ea 20be e9b4 86bd 3d64 893e ff3a 023e
00000140: 8c42 563e a44a 94be cd96 1e3d af90 0cbf
00000150: 5fb9 213e 878f 4b3e 6f44 e7be 64b7 87bd
00000160: 9627 ae3e 7e6d 0fbe 2f48 8fbd 5ab8 f43d
00000170: 78c7 8c3d ff87 3dbd 849e 05be 8ca7 fb3d
00000180: ad2d 863d ae91 a0bb 58c1 963d 9602 59bd
00000190: 8325 d5bc fb62 7c3d 7dfb 5b3d d238 4e3d
000001a0: 23e4 11bd dcc6 82bc b1ab ebbc 350e 78bd
000001b0: a17f 3b3d ae14 093c 4a76 c1bc 6ca9 b43c
000001c0: 6313 16bd 48a1 873a 0551 8b3c 2922 7e3c
000001d0: e6c8 7fbd 83e9 8e3d 9fdc 0d3d 85fa 713c
000001e0: 83f5 c0bc d6d7 70bd 203e 5dbd 8568 e13c
000001f0: 4395 e1bc 69ed 453d 7629 dabc 1f5c 593c
00000200: 1aba d73e d63f 0f3f d047 003f d0b7 e43e
00000210: bd5a 76be b7f2 2d3e ed8f 58be 596e 30bf
00000220: 054f 12be 252e b73d ee22 9fbe 669f 933e
00000230: 3311 10be 2c0b 0fbf f894 5dbe ba4f a93e
00000240: a5d8 ef3b 876b fc3e 06a6 b93e 48d9 b5be
00000250: 5680 913f 45d3 4bbe c856 9c3e 3a2a 2ebf
00000260: fde8 373d f333 f73d 3ee1 36bb 952d 203e
00000270: 96ed 83bf 4bd8 44bf 1d4d 293c 617a e6be
00000280: 75be ac3e 28f6 59bf d61c d3be 2e29 d73e
00000290: e4e2 f9be eaf4 65bf c9e1 7fbe 4e39 793e
000002a0: 6110 dc3d fdb5 00bf eb23 163f 0012 4a3e
000002b0: 055b 92be 320f a5bf 34f8 2b3f 48ff 713e
000002c0: a32c abbc cd06 53be b2c9 e5be 555f b6be
000002d0: 0fac 00be e697 a0bc eba3 ebbe bdf0 e3be
000002e0: c155 e23e 2f9c 003d dd37 ab3d a9b1 85bf
000002f0: d04d adbe 176f 863e ee9a 00bf 5da9 88bf
00000300: 1d3b 02bf 22b3 c43e b393 bc3e d688 1bbe
00000310: f215 d9be 245f 9f3d 45ce 11be ab48 adbd
00000320: b393 873e 26be 48bf bb45 acbd e8a3 2ebf
00000330: 2dcd 213f f560 c63d 55d0 6b3f ee2c a93e
00000340: cac9 e83d 5732 5b3e 4255 00bf f99f e7be
00000350: edd0 053f 0d8a 10be d460 683e 9d38 573e
00000360: 201c d33d 8cd3 b4be c79d 793e 95db b4be
00000370: be74 9c3e 2cf6 c03e 4f07 f43e 51d5 383f
00000380: ae72 353e eb18 89be 264c ab3e 1c30 72be
00000390: 1b5d c7be 338b 2abf a90b 1f3f 219d 863e
000003a0: 6f2d 8e3e 102e f5be f0cf d23e c02f cebc
000003b0: 5e2e 703f 6bf9 e9be 559f 04bc 8bf9 a53e
000003c0: 6115 a33f 5a70 2a3e f215 60be 3661 05bf
000003d0: 541c bb3d f09d 55bb c6b8 233f 4ad6 6f3e
000003e0: e1ee c23e 52d0 28be 2742 bebe 8eae bf3e
000003f0: 7075 b73e 00d9 08bf e45a 59be 8770 26bf
0.00484292 -0.006591339 0.029897965 -0.039939165 0.025051374 -0.044005178 -0.060858645 -0.00928052
0.01467658 -0.06473113 0.046553954 0.040179357 -0.04875283 0.017280368 -0.005528164 0.026270352
0.025406895 0.03962384 0.041929293 0.07347064 -0.04719615 0.0054357336 -0.07944484 0.058441285
-0.027030058 0.06995134 0.07007319 -0.054696415 0.04158643 0.05768673 -0.010477156 -0.010588799
0.008606425 0.055497915 0.029000588 -0.009080172 -0.07498121 -0.06210612 -0.043069847 -0.058065087
0.0691611 0.061996814 0.0022584533 0.04460234 -0.062347863 -0.06138703 -0.068968795 -0.03898954
-0.07726248 -0.042129897 -0.05692598 -0.060886715 0.07657579 0.071091935 -0.027449207 -0.07969057
-0.023869395 0.058275376 -0.011457911 0.061948605 -0.013043804 -0.014758515 0.02052495 0.021596508
-0.13007905 -0.05560123 0.3373666 -0.14814724 -0.30448693 0.34356025 -0.007492142 0.30719241
-0.70232564 0.27201185 -0.22560677 -0.051896796 -0.15714295 -0.065774746 0.26834288 0.12717818
0.20923823 -0.28963196 0.038718034 -0.5490827 0.1579337 0.1987897 -0.45169398 -0.06626776
0.34014577 -0.14006612 -0.0699619 0.11949225 0.06873983 -0.046272274 -0.1304875 0.122878164
0.06551681 -0.004900179 0.07361096 -0.05298098 -0.026018864 0.061617833 0.053706635 0.050347157
-0.03561796 -0.015963964 -0.028768392 -0.060560424 0.045776013 0.008366747 -0.023615975 0.022053443
-0.036639582 0.0010347748 0.017006407 0.015511074 -0.06244745 0.069781326 0.03463423 0.014769201
-0.02355457 -0.058799587 -0.054014325 0.02751566 -0.027536994 0.048322115 -0.026631098 0.013266592
0.42134172 0.5595678 0.5010958 0.44671488 -0.24058051 0.1698712 -0.21148653 -0.6891838
-0.14287956 0.08944348 -0.31081337 0.2883255 -0.14069061 -0.5587642 -0.21638858 0.3306864
0.007319527 0.49300787 0.36259478 -0.35517335 1.136729 -0.19904812 0.3053496 -0.6803318
0.04489993 0.120704554 -0.002790525 0.15642388 -1.030688 -0.76892537 0.010333327 -0.45015243
0.33739057 -0.8514123 -0.41232938 0.42023605 -0.48805916 -0.89826834 -0.24988474 0.24338266
0.107453115 -0.5027769 0.58648556 0.19733429 -0.28585067 -1.2895262 0.671756 0.23632538
-0.020895308 -0.20608063 -0.44880444 -0.35619608 -0.12565635 -0.01960368 -0.46023497 -0.44519606
0.4420605 0.03139895 0.083602645 -1.0444843 -0.3384843 0.2625663 -0.50236404 -1.0676686
-0.5087145 0.38417917 0.36831436 -0.15188918 -0.42399555 0.077818185 -0.14238842 -0.08461126
0.26479873 -0.78415143 -0.084117375 -0.6821885 0.632037 0.09686462 0.92114764 0.3304209
0.11366613 0.21405922 -0.50130093 -0.45239237 0.5227192 -0.14115162 0.22693187 0.2101769
0.10308099 -0.35317647 0.24376594 -0.35323778 0.30557817 0.37687814 0.47661826 0.72200495
0.17719528 -0.26776823 0.33456534 -0.23651165 -0.3893822 -0.6661865 0.62127167 0.26291755
0.27769038 -0.47886705 0.4117427 -0.025169253 0.9382075 -0.45698103 -0.008094628 0.3241695
1.2740899 0.16644421 -0.21883371 -0.5210146 0.091362625 -0.0032595359 0.63953817 0.23421589
0.38072875 -0.16485718 -0.37159845 0.37437862 0.35831785 -0.53456116 -0.21226078 -0.65015453

decoder.LSTM.weight_ih_l0 f4 [256, 32]
00000000: 14bb 1dbd 6ec4 143b 81e4 143e 4002 063e
00000010: 9c96 43bd 4037 603e e73d 77be ba4e e9be
00000020: 8c94 723e c752 b93e 02de e93d 0e7e 12be
00000030: bb67 2dbe 93af 5dbe 59d8 6e3e 5344 f83d
00000040: e94e 92bd 33ff 323e c4a6 a43e 0b66 67be
00000050: ae4d e03e 46d6 52be ece8 503e bae6 e9be
00000060: 3e26 0a3f 60e2 f7bd 0e19 fbbd ef63 e73d
00000070: 4280 dabe 055b a4bc eba8 b8be 4f84 033e
00000080: c686 f23d 0986 87be e1d0 4f3f f5ea dc3b
00000090: 3cc0 5cbe 9e4f 9a3e 3448 2d3f f925 b83e
000000a0: 5d2a c23e 826f 89bb 9688 ddbe a630 a2be
000000b0: 8cbd 8dbd 5748 34be 4fb7 c53e 1ad6 4d3f
000000c0: 28f6 3bbe 4fde ae3e 5ce3 923e c021 28bf
000000d0: 991c ec3d b40e 9abb cb24 0d3d 99b0 69bd
000000e0: 7798 ea3e 8284 11bd f7f8 9a3e b4f7 8fbd
000000f0: 50c5 c6bd b2fe 4e3e 6005 aabe f81a b5be
00000100: e1bf 713e a234 b73d af60 cbbe d57c 59be
00000110: 158c 023f 095e abbd 05d0 9e3e 7826 ef3e
00000120: dbe4 0f3f 0a96 05bf a3e1 263e 917f 173e
00000130: e903 2abe d710 1cbe 86d2 aabe 2824 56be
00000140: f694 583c f50e e0be 4f5a 21be 5720 f53d
00000150: 0483 113c 6647 6abe 3c08 e4be 9237 2dbe
00000160: d438 7dbe a6ad 09be 8a4b 07be 7d05 cfbe
00000170: 5e29 a6be 3ce0 06bf de89 d03e 8f5c 33be
00000180: 5d31 f13d 29f0 40be acd2 b1bd 0e74 4dbe
00000190: 9e7a 18be c59b 7b3e 2de0 b2be d13a eabd
000001a0: a024 3abe 68ad 873e 9fcb 063e f960 e7bd
000001b0: 1de9 1b3e 76e8 74bc a9ce 3c3e 4ae1 5cbe
000001c0: b62f 8c3e 4add 553e bc5b 90bd ddff 013e
000001d0: 13f2 113e 1538 1a3e 067b 2abe f6c9 993e
000001e0: e245 a23d 0788 32be 4d06 f3bc 2296 313e
000001f0: 335a b53e 2d81 6abe f5d5 c73d 5c65 8ebe
00000200: f93d 05be 671f 203e e854 2ebe f516 6c3e
00000210: 1af2 a23e 2ff7 aabe 961d 713e 6501 243c
00000220: c7a7 f33e d7d3 233e 6b97 91be 3763 a03c
00000230: 2aba 1f3f f5b1 efbc 0f26 76bd 4810 4e3d
00000240: 6e9a 653e fb7d 653e 8761 583d 3690 133e
00000250: a2e4 f93d 6b53 ca3d b635 623e d355 c53d
00000260: 8034 49be e042 233e 7384 2abd fa07 0e3e
00000270: 1666 3d3e 423e 03bf 141c a53e 33aa f2be
00000280: daec e43e 1138 33be e867 4d3d b511 06be
00000290: de2c 8cbe 5344 68be c65d bfbe 8b11 4cbd
000002a0: f9aa 87be aa0c babd ab8c b8be dff0 953e
000002b0: 48c3 523e 4d19 a33e fca8 ac3e 80d1 a53e
000002c0: d27b 103f d3e6 f83e f705 30bf 4c79 00bf
000002d0: def4 92be b5ed da3e d859 933d 1cb8 953e
000002e0: 63bb 813e 1938 85be 0927 b0be 98fd e63c
000002f0: 2315 7cbe dd95 3fbd 112e 5b3e 1c16 ef3d
00000300: 26a0 07bf 639d fc3d 2b05 2b3f 60a2 953e
00000310: c1c7 2cbf 3822 623e 2fc7 d93e 6217 babc
00000320: 96a8 ef3e a105 cdbd 0ba3 3ebf 279a ad3e
00000330: 8f60 e3bd 2392 f5be 636b fd3e 83e5 1e3f
00000340: 7e72 20be 4a6a cd3e 427a 6b3e cf4b e6bd
00000350: b6da 00bc 0087 873e 0a68 7d3e 6a03 89be
00000360: 3d49 eb3e e8df 69be 145f cfbe 00fa af3e
00000370: c099 e63d 2c7d e5bd 21d1 5fbe a6dd b6be
00000380: c796 0abf 0f22 053f 0784 b43d a14c ee3e
00000390: d2b1 f73d f458 c3be cedf 403e c9dc a4be
000003a0: c796 2e3d 8231 203e c62c 3abf ed8f 653e
000003b0: 32ee a63d 424a 0bbb 1748 7dbe a183 2b3e
000003c0: 3b21 ae3e 9549 05be 2779 b13e 0d17 023f
000003d0: 5219 333d 4f9f 9bbe 9171 ca3e b107 36bf
000003e0: 912d fa3c f101 003f 5610 00be 2202 47bd
000003f0: 4dcc 633d 8c37 81be a514 88bc e2d2 99be
-0.03850849 0.002270009 0.14540292 0.13086796 -0.047751054 0.21896076 -0.24144708 -0.45567876
0.23689479 0.36195967 0.11419298 -0.14305899 -0.16934101 -0.21649007 0.23324718 0.12122407
-0.07143957 0.17480163 0.32158482 -0.2259752 0.43809265 -0.20589551 0.20401353 -0.45683843
0.539646 -0.121037245 -0.12260638 0.11298358 -0.42675978 -0.020062933 -0.36066374 0.1284344
0.11842112 -0.26469448 0.811781 0.0067418762 -0.21557707 0.30138868 0.676883 0.3596647
0.37922946 -0.004194201 -0.4326827 -0.3167774 -0.06920919 -0.1760572 0.38616416 0.8040482
-0.1835562 0.34153983 0.28689086 -0.656765 0.11528892 -0.00470146 0.034458917 -0.057053182
0.45819446 -0.03552676 0.3026807 -0.070296675 -0.09705603 0.20214346 -0.33207226 -0.35372138
0.23608352 0.08945586 -0.397222 -0.21239026 0.50995 -0.08367545 0.3101808 0.46709037
0.5620858 -0.52182066 0.16297011 0.14794756 -0.16603054 -0.15240799 -0.33363742 -0.2091223
0.013219109 -0.4376141 -0.15757106 0.11969059 0.008881334 -0.22878799 -0.44537532 -0.1691573
-0.2472871 -0.13445148 -0.1321241 -0.40433875 -0.32453436 -0.52685905 0.40730184 -0.17515777
0.117769934 -0.18841614 -0.086827606 -0.20063803 -0.14890525 0.2457114 -0.34936658 -0.114369996
-0.18178034 0.26499486 0.13163613 -0.11297793 0.15225644 -0.014948001 0.1843821 -0.21570316
0.2738015 0.20885196 -0.07048747 0.1269526 0.142525 0.15060456 -0.16648492 0.30036896
0.07923485 -0.17434703 -0.02966609 0.17342427 0.3542038 -0.22900839 0.09757606 -0.27811706
-0.13011922 0.15636979 -0.17024577 0.23055632 0.31825334 -0.3339171 0.23546442 0.010010098
0.4758894 0.15998779 -0.28435835 0.01957856 0.6239344 -0.029259661 -0.06009489 0.050308496
0.22422192 0.22411339 0.052827384 0.14410481 0.122018114 0.09879192 0.22090802 0.0963551
-0.19648933 0.1594348 -0.04163022 0.1387023 0.18495974 -0.5126687 0.32247984 -0.47395477
0.44711953 -0.17501856 0.05014792 -0.13092692 -0.2737798 -0.22682314 -0.3737623 -0.049821418
-0.2649763 -0.09084447 -0.3604482 0.29285333 0.20582306 0.3185524 0.33722675 0.32386398
0.56438935 0.48613605 -0.687591 -0.50185084 -0.28702444 0.4275948 0.07194871 0.29242027
0.25338277 -0.26019362 -0.3440478 0.028197095 -0.24617438 -0.04677378 0.21404292 0.11674139
-0.5297874 0.12334707 0.6680476 0.29225445 -0.674923 0.22083366 0.42534778 -0.022716228
0.46808308 -0.10010839 -0.74467534 0.3390667 -0.111024015 -0.47963056 0.49495992 0.6206896
-0.15668675 0.40120155 0.22995856 -0.11244928 -0.007864645 0.26470184 0.24746719 -0.26760417
0.45954314 -0.2283932 -0.40502226 0.34370422 0.11259794 -0.11205515 -0.2185712 -0.3571598
-0.5413632 0.52005094 0.08814245 0.46542838 0.120944634 -0.38153803 0.18835375 -0.32199696
0.04262426 0.15643886 -0.7272457 0.22418185 0.08150901 -0.0021253978 -0.24734531 0.16749431
0.34009728 -0.1301635 0.34662744 0.5081642 0.04372532 -0.3039498 0.3953977 -0.71105486
0.030539306 0.5000296 -0.12506232 -0.04858602 0.05561476 -0.2523769 -0.016611407 -0.30043703

decoder.LSTM.weight_hh_l0 f4 [256, 64]
00000000: 8435 e7bb c967 ff3d 682c bb3c 6741 ee3d
00000010: cfd1 32be cbab 103e f23a 24bf 122b cc3e
00000020: 4ba9 da3d 9ae0 bdbd 6a9d c9be 36c1 ecbc
00000030: 4fcd fa3d 5b5a aebe ab29 41bf 4243 08bd
00000040: e716 943c dd8b 88be 6190 853c 6c3d cb3d
00000050: 88a1 b2bd 6b96 86be 8a29 743e ba2b cc3d
00000060: dc9f cc3b 4c7b c7bd 7350 163d b512 c8be
00000070: 00a2 12be a68c 333e 5657 32bd ba3b dfbd
00000080: 69d6 9bbb e248 f4bd 9d6c 833e ca70 2ebd
00000090: 7260 153d cee6 1e3e 50a2 db3e b422 babe
000000a0: 49f3 a83d 1227 93be a4a3 4d3e b77b 46bd
000000b0: fca1 8dbe be61 7a3d 5f8b a63e def5 eabe
000000c0: 8b8d cf3d f117 153f 9c8b 2f3d 209a 9b3e
000000d0: bffc a23e 2f80 e73e 3a57 51bd 0e9e 10bd
000000e0: 217b 74be 8422 4d3b 0644 cf3e 09e5 8c3e
000000f0: fd58 91bd 0caa 513e 6851 d23a 26aa a9bd
00000100: be29 ce3e bb7b c4be 21fb bebe 42db d1bd
00000110: a982 a63d ecab bc3d 5eab ddbe df07 23be
00000120: 317d fc3e cb57 303d 0f38 d4be 8f02 e23e
00000130: c32c 4f3e cdb6 38bf 6dad 343f 8a0a e33e
00000140: f637 ceba ea11 983e 32bb 583f 0f47 a83d
00000150: 5ccb 0abf 0f53 2abe e12e f1be a541 e63d
00000160: b7f6 703b 7bb6 cbbe 79fe 73bf 37bc a9bd
00000170: 588d f03e 6c94 62bd bfd7 dc3e a2bd 1ebe
00000180: 7575 1ebf 724b 2dbd 5749 03bd 7c07 fcbe
00000190: 6792 33be b80c dd3e 4506 3d3f 0495 a33e
000001a0: 9d7f fe3e 2013 dcba 8a51 cc3d 2a7a 563e
000001b0: ee0e c43e d81e 2a3c 260f f83d 6c6c d23e
000001c0: 6350 073f d2c9 4b3c 8980 febe 4e77 a0be
000001d0: 5574 5c3f 0583 0dbf d0f0 413d 628a 8fbe
000001e0: 8e5b 203d b76f b4be 2354 90be c6e9 6bbe
000001f0: 4bfb a5bd 38fc ba3e 1ff6 d1be 882f 5bbf
00000200: 17e8 ebbd 2814 1c3e 80d7 33be 6eb4 dabd
00000210: db88 c7bc 3d3d 6fbe bc96 5f3c 4149 d3bc
00000220: 0016 8ebe 03fe 213e e988 53bd 86a5 8abe
00000230: e55e 4f3d e6bf 9bbe 2b87 94be 782d 7d3e
00000240: 71b5 87be d6fc 73be 792a 0dbf daf4 17be
00000250: be47 42bf cccf 85be 2e13 1c3d 2a8a 6abe
00000260: e92a f33e 4a17 b9bd 57c8 983e 47c3 8bbe
00000270: ea0f 3e3e 8145 2f3e af96 11be 90be ccbe
00000280: fb69 01bc f384 b93e 7349 e03d 8ec6 5f3f
00000290: 1568 d9be cf2b 46bc 573d 643e ca20 b3bc
000002a0: 2cc0 ccbd a279 89be 0ada 0bbd 2b3b f0be
000002b0: 21b7 8e3e 5978 693d 29ed 603e 3f3d 8cbe
000002c0: 0eed 813e 55c2 b03e bf0b c7be da71 993e
000002d0: e8ab e9be 06df c03e fe43 33be 875d 96be
000002e0: 3c06 83be dfef 463d d228 02bd bc03 133f
000002f0: 4296 d2bd 04e2 bc3d 7dfa 07be 3280 b43e
00000300: 5968 7ebd 6196 0abe b193 243e 48dc 3f3f
00000310: 2edc b53d 1390 b83e 4b62 bc3d e66d ae3f
00000320: 54af 1bbf edae 903e 0c0e 47be f23f 90be
00000330: 8e1e f039 0702 ba3e 7d1d 613e d84b 16be
00000340: 525a 88be f225 88be 5185 c33e 34bc 8a3e
00000350: 1f40 e43d 9072 11be f845 ff3d 0c2e 7f3e
00000360: 1696 22be 1bdb 48be 01ae 19be da63 45be
00000370: 8b2b eebe 30f2 4d3e a58e 5ebd 0796 763f
00000380: 8922 f93d 9b0a c1be 800f e93e 4d69 a6be
00000390: bf48 e63d cef6 8c3e 1c07 0c3e 7e3f 0bbd
000003a0: 36f7 603e 11e2 04bd b581 843e 3135 143f
000003b0: ef89 adbe a65c 7cbe c5dc 6dbe 9862 8fbd
000003c0: 65c9 213e 4071 ad3e 51f6 81be 3c2a 27bf
000003d0: 7cf4 b23e 41e6 7fbe 80b0 c73e ccfe 9c3d
000003e0: 98cf 1a3d f2c0 8c3d 2bd4 4f3e e286 7abe
000003f0: 3f2a ff3d 7f72 ecbd 1dfc 67be a394 a43d
-0.00705594 0.12470967 0.022848323 0.11633568 -0.17462848 0.14128034 -0.64152443 0.3987661
0.10676821 -0.09271355 -0.3937791 -0.028900724 0.12246191 -0.3405331 -0.75454205 -0.033267267
0.018077327 -0.26669207 0.016304197 0.09923825 -0.08722216 -0.26286635 0.23843971 0.09969278
0.0062446427 -0.09740314 0.036697816 -0.39076772 -0.1431961 0.17534122 -0.04354032 -0.10900064
-0.0047557843 -0.11927964 0.25668803 -0.042588033 0.03646893 0.15517733 0.42897272 -0.363546
0.08249528 -0.28740746 0.20081955 -0.048457827 -0.27662647 0.06112837 0.32528207 -0.45890707
0.10134419 0.58239657 0.04285775 0.30391026 0.31833455 0.45214984 -0.051108576 -0.035306983
-0.23875095 0.003130109 0.40481585 0.2751849 -0.07097051 0.20475024 0.001604599 -0.08284406
0.40266222 -0.3837565 -0.3730097 -0.10246898 0.0813039 0.09212479 -0.43294805 -0.15920971
0.49314263 0.043052476 -0.4144902 0.44142577 0.20231919 -0.7215393 0.70577127 0.44343978
-0.001573323 0.29701167 0.8466064 0.08216678 -0.5421655 -0.16633247 -0.47106078 0.112429895
0.0036768147 -0.3978766 -0.9531017 -0.08287852 0.46982837 -0.055317327 0.4313335 -0.15502027
-0.61897975 -0.04230828 -0.032052364 -0.4922446 -0.17536317 0.43173766 0.7383769 0.31949627
0.49706736 -0.0016790368 0.0997649 0.2094504 0.3829264 0.01038333 0.12112264 0.41098344
0.52857035 0.012438254 -0.4970744 -0.31341022 0.8611501 -0.55278045 0.047348797 -0.28035265
0.039149813 -0.35241482 -0.2818919 -0.23038396 -0.08104571 0.36520553 -0.41008088 -0.856194
-0.11518877 0.15242064 -0.17562675 -0.106789455 -0.02435725 -0.23363204 0.013646778 -0.025791766
-0.2775116 0.15819554 -0.05164424 -0.2707941 0.050627608 -0.30419844 -0.29009375 0.24724376
-0.26505616 -0.23826918 -0.55142933 -0.14839497 -0.7589072 -0.261351 0.03810423 -0.22904268
0.47493675 -0.09037645 0.29840347 -0.27297422 0.18560758 0.17116357 -0.14217637 -0.39989138
-0.007898803 0.36234245 0.10951509 0.87412345 -0.4246222 -0.012095406 0.22289024 -0.021866221
-0.099975914 -0.2685061 -0.034143485 -0.46920142 0.2787409 0.056999538 0.2196547 -0.27390477
0.2537617 0.34523264 -0.3887615 0.29969674 -0.45638967 0.37670153 -0.17506406 -0.2936823
-0.25590694 0.048568603 -0.03177721 0.57427573 -0.10282566 0.092227966 -0.13279147 0.35254055
-0.062111232 -0.13533928 0.16071965 0.749455 0.088798866 0.3604742 0.091984354 1.3627288
-0.60814404 0.28258458 -0.19438952 -0.28173786 0.00045799132 0.36329672 0.21983905 -0.1467737
-0.2663141 -0.2659145 0.3818765 0.27096713 0.11145043 -0.14203858 0.12464517 0.24919909
-0.15877566 -0.19614832 -0.15007783 -0.19276372 -0.46517596 0.20111918 -0.054335255 0.96322674
0.1216479 -0.37703404 0.45519638 -0.32502213 0.11244344 0.27532047 0.13674587 -0.033996098
0.21969303 -0.032442156 0.2588021 0.57893664 -0.33894297 -0.24644718 -0.23228748 -0.07001227
0.15799482 0.33875465 -0.25383237 -0.6529882 0.34952152 -0.24990179 0.39001846 0.07665786
0.037795633 0.06872739 0.2029578 -0.24465516 0.1245923 -0.11545276 -0.22654767 0.08036163
