tut1-model.pt (torch_old, 250433 bytes, 14 tensors)

encoder.embedding.weight f4 [28, 32]
-0.025439711 -0.07410442 -0.028111333 -0.0586063 -0.03893925 -0.0169198 -0.01055242 0.013089418
0.008229227 -0.031480614 -0.058611277 0.032087766 0.03153837 -0.011780739 0.0793253 0.04940604
-0.025296016 0.0726868 -0.07905116 0.036175605 -0.0128985215 -0.022882996 0.07790218 -0.028757615
0.019211397 -0.021549525 0.0166502 -0.008525763 0.072444506 -0.040790945 0.044973515 -0.0067630913
-0.069853865 -0.0066607045 -0.026772343 -0.025212737 0.060550794 0.011574736 0.07777709 0.004936333
-0.045769677 0.04413387 0.07706799 -0.003558383 -0.071402274 0.0514645 -0.05898744 -0.009717836
-0.0090683745 -0.07283246 -0.07367836 -0.030859504 0.043157198 -0.052634582 -0.026578106 0.06132923
-0.06017469 -0.042212628 -0.05868359 -0.040914185 -0.0011125421 0.022709398 -0.047977034 -0.031348404
0.17139752 0.43995553 0.0038332362 0.06452539 -0.068609536 -0.027598511 0.16030733 -0.20595638
-0.054689232 0.048909914 0.16734007 -0.08258389 -0.19738854 0.38060218 0.26109055 0.09155548
0.040219083 -0.37003672 0.3677305 0.025093863 0.26310202 -0.04551677 0.26117167 -0.17084004
0.08402625 -0.21189128 0.4123451 -0.24013084 -0.17613788 -0.1643842 0.35534352 -0.29436952
0.30319202 -0.15194309 0.3782613 -0.080776386 -0.14236824 0.004431813 -0.26001322 0.020757452
-0.018828122 0.22822073 0.1971392 -0.111114785 0.19177788 -0.0304782 -0.09520661 -0.22642802
0.232857 -0.32781228 0.28209776 0.13578545 0.1179594 -0.06746904 -0.101901576 -0.30035126
-0.043613046 0.16793309 -0.21231009 -0.1274984 0.014189583 -0.15139018 0.11595994 -0.06507011
-0.08248846 0.118853234 -0.015350993 -0.18142422 0.36450788 0.21975082 0.30808294 0.37308055
-0.22561395 0.10150963 -0.085036375 -0.0003133177 -0.6526958 0.3236302 -0.18221825 -0.103911735
0.38943085 -0.081243075 -0.70824146 0.44194666 -0.64517415 -0.40381593 0.07011025 -0.12815598
0.6573059 -0.34265244 -0.57012504 -0.026858695 -0.6340591 0.34000987 0.20933062 0.15538208
0.25503373 0.17191234 0.12506935 0.114372455 -0.34376258 -0.117289886 -0.26795074 -0.28367618
0.33917686 -0.12526536 -0.089749806 -0.24400769 0.3994344 -0.4567657 0.31010526 -0.36435473
0.25986686 0.13782002 0.13050702 -0.15168232 0.16787168 -0.0831306 -0.32827532 -0.23567644
0.037895087 -0.105587095 0.03559221 -0.08145098 -0.026986348 -0.120380804 0.124618866 -0.26866338
0.3148122 0.3904933 0.4043565 -0.06749442 -0.2562054 -0.527356 -0.45083743 -0.28345546
1.0083002 -0.509905 -0.16370898 0.25902107 0.3992087 -0.19584626 0.04276406 -0.31959027
0.56440973 -0.20890243 0.28579706 0.05611804 0.19792801 -0.43849403 -0.2111267 0.20813996
-0.47266248 -0.086961515 -0.017761812 0.43104824 -0.31666923 -0.21734415 0.75166154 -0.9724318
-0.5062164 0.3086126 0.2267162 0.07174266 0.1062911 -0.21585168 -0.37025377 -0.124023676
-0.43893173 0.28220212 -0.5667772 0.015807472 0.04254505 -0.24876118 -0.10288558 -0.68516815
0.23344386 0.42301914 -0.5989015 0.38392195 0.08627499 0.03337197 0.48236504 0.04632726
-0.003774705 0.4663449 -0.073508896 0.07087362 -0.2730252 0.51308507 0.16839917 0.30312967
00000000: f166 d0bc 0fc4 97bd bd49 e6bc 290d 70bd
00000010: c37e 1fbd 649b 8abc 0fe4 2cbc 0075 563c
00000020: e1d3 063c d1f1 00bd 6112 70bd 766e 033d
00000030: 612e 013d 0004 41bc 4e75 a23d fd5d 4a3d
00000040: 9739 cfbc d1dc 943d 93e5 a1bd df2c 143d
00000050: 5254 53bc 1f75 bbbc 2e8b 9f3d 1795 ebbc
00000060: 3861 9d3c a188 b0bc 0066 883c a4af 0bbc
00000070: c95d 943d 6814 27bd 2636 383d ec9c ddbb
00000080: 8b0f 8fbd 0a42 dabb ac51 dbbc f18a cebc
00000090: 1c04 783d f6a3 3d3c 9849 9f3d f6c0 a13b
000000a0: fc78 3bbd b8c5 343d d3d5 9d3d c333 69bb
000000b0: 5b3b 92bd 71cc 523d d09c 71bd 8f37 1fbc
000000c0: 8593 14bc 2f29 95bd aee4 96bd 12cd fcbc
000000d0: 9ac5 303d 5c97 57bd 54ba d9bc 5c34 7b3d
000000e0: bc79 76bd 26e7 2cbd 345e 70bd a295 27bd
000000f0: b8d2 91ba 0f09 ba3c 9183 44bd 2f67 00bd
00000100: d582 2f3e da41 e13e 0837 7b3b e325 843d
00000110: 2883 8cbd 4616 e2bc 9b27 243e 3be6 52be
00000120: d101 60bd c355 483d 325b 2b3e be21 a9bd
00000130: 3920 4abe 4ade c23e a9ad 853e 7181 bb3d
00000140: c4bc 243d 7475 bdbe 2c47 bc3e a591 cd3c
00000150: 4fb5 863e cb6f 3abd 4bb8 853e b1f0 2ebe
00000160: f415 ac3d 07fa 58be e61e d33e dce4 75be
00000170: 7d5d 34be 5554 28be 96ef b53e 9ab7 96be
00000180: fc3b 9b3e f896 1bbe 77ab c13e 176e a5bd
00000190: fbc8 11be be38 913b 7420 85be 880b aa3c
000001a0: 6f3d 9abc b2b2 693e dcde 493e 2690 e3bd
000001b0: 6c61 443e 6bad f9bc affb c2bd bfdc 67be
000001c0: 1172 6e3e 03d7 a7be 1e6f 903e 570b 0b3e
000001d0: b394 f13d 352d 8abd c6b1 d0bd a4c7 99be
000001e0: 98a3 32bd a7f6 2b3e d167 59be f18e 02be
000001f0: 6d7b 683c 0706 1bbe 687c ed3d 7a43 85bd
00000200: b6ef a8bd 5369 f33d bb82 7bbc 45c7 39be
00000210: c7a0 ba3e 5c06 613e 0cbd 9d3e 6a04 bf3e
00000220: 5807 67be 48e4 cf3d 8d27 aebd ca44 a4b9
00000230: 1217 27bf dcb2 a53e 6c97 3abe adcf d4bd
00000240: 7b63 c73e c562 a6bd 504f 35bf d546 e23e
00000250: 222a 25bf f6c0 cebe f695 8f3d 523b 03be
00000260: 3345 283f 2470 afbe b7f3 11bf c406 dcbc
00000270: b251 22bf c615 ae3e c45a 563e 7b1c 1f3e
00000280: c893 823e ca09 303e 2e12 003e 1b3c ea3d
00000290: a601 b0be ae35 f0bd d730 89be 013e 91be
000002a0: 97a8 ad3e 9045 00be bfce b7bd 27dd 79be
000002b0: aa82 cc3e 32dd e9be 1ec6 9e3e b48c babe
000002c0: 450d 853e b120 0d3e a2a3 053e 9c52 1bbe
000002d0: 8ee6 2b3e 6040 aabd b413 a8be 2a55 71be
000002e0: e137 1b3d 0c3e d8bd 23c9 113d c5cf a6bd
000002f0: 7912 ddbc 368a f6bd 2d38 ff3d 3f8e 89be
00000300: 112f a13e bdee c73e d107 cf3e 843a 8abd
00000310: 5b2d 83be ce00 07bf 2ad4 e6be 1321 91be
00000320: fb0f 813f 2289 02bf 54a3 27be 699e 843e
00000330: 1565 cc3e ec8b 48be 5e29 2f3d 56a1 a3be
00000340: 287d 103f 85ea 55be fe53 923e 08dc 653d
00000350: a4ad 4a3e 4a82 e0be 9931 58be a422 553e
00000360: d100 f2be e118 b2bd 3881 91bc 5bb2 dc3e
00000370: 7822 a2be 778f 5ebe e46c 403f 4af1 78bf
00000380: 6697 01bf 7902 9e3e 4b28 683e d1ed 923d
00000390: 26af d93d 3908 5dbe e791 bdbe 2000 febd
000003a0: a9bb e0be cc7c 903e 5018 11bf ac7e 813c
000003b0: b843 2e3d 40bb 7ebe adb5 d2bd 2e67 2fbf
000003c0: e80b 6f3e f795 d83e 9c51 19bf 6b91 c43e
000003d0: f1b0 b03d 0cb1 083d 8df8 f63e a7c1 3d3d
000003e0: 0b61 77bb c2c4 ee3e d58b 96bd 3026 913d
000003f0: f6c9 8bbe 8b59 033f d570 2c3e d033 9b3e

encoder.LSTM.weight_ih_l0 f4 [256, 32]
0.06991347 0.27162006 0.52677244 0.024481604 0.04680621 0.30594793 0.45696175 0.08851295
-0.076933965 0.3670054 -0.27873057 0.075688474 0.13586485 0.22200859 -0.18283075 -0.28430983
0.7502623 0.07598678 -0.1865554 0.03957915 0.18220745 -0.17719921 0.2425412 -0.26646695
0.43801922 0.16562346 -0.2972766 0.23973632 -0.102191985 0.11797867 0.3682118 -0.44680184
-0.03489168 -0.12801552 0.029871209 0.19537818 -0.14061064 0.3050453 -0.1408141 -0.06742209
0.3778587 -0.26791483 0.1355697 0.24025115 0.1089777 -0.0032502487 -0.08194583 0.2606466
-0.13928166 -0.11105782 0.20779595 0.022821985 0.16491151 0.08775355 0.013624132 0.12306622
-0.19031516 0.11400307 0.11360937 0.14261723 0.35820085 -0.070458844 0.3304317 -0.24731916
0.29157022 0.108526014 -0.6628802 -0.036138553 0.12387791 -0.4391694 0.4150294 -0.1779847
-0.36308706 0.038912088 0.2064278 -0.014674653 -0.051785022 -0.22548884 0.19492626 0.010407213
-0.44066906 0.15861514 -0.24517632 -0.027397318 0.031035833 0.11411822 -0.2764091 0.06399822
-0.15517735 -0.37380263 0.3741437 0.30403462 -0.11475142 -0.20387031 -0.26063263 0.8211622
0.031712703 0.4370447 0.16758935 -0.28322414 0.12306949 0.35031056 -0.44114584 0.15544654
-0.10154155 0.33066145 0.5601279 -0.11156138 -0.09433023 0.6144347 0.45114067 0.40233037
0.54050195 -0.6752424 0.18641464 0.13156606 -0.524815 -0.47525564 0.25448307 -0.38765168
0.5161515 -0.114968725 -0.33776018 -0.23926127 -1.1006653 -0.17064048 0.40475428 -0.1124751
-0.057161376 0.9209646 -0.27322298 -0.5955167 0.20673257 0.37969148 0.4748602 0.07313798
-0.36882845 0.01878891 0.12735912 0.27425745 -0.22414958 0.5371998 0.06880085 0.2563845
0.3414057 -0.47079736 -0.13041495 -0.039814044 -0.5249086 -0.45767462 -0.42445 -0.1196064
0.6871585 -0.5193826 -0.23083434 0.0846389 -0.4845536 -0.4137761 -0.08518616 0.3236322
-0.44309217 0.81595397 -0.34783617 -0.20480044 0.19833745 0.092013724 0.49196663 0.4332577
-0.2672918 0.18176502 -0.66187435 0.07717265 -0.6337715 0.11249069 -0.09392459 -0.38441855
0.11987319 -0.055234358 -0.32786384 0.40048537 -0.75493056 0.03884327 0.41838092 0.471895
0.4065874 -0.47400823 -0.086449295 -0.3046362 -1.0968039 0.19767822 0.10312276 0.39961013
-0.5603301 0.35287803 -0.24686506 0.39293024 0.06850684 0.9202328 0.18998577 0.26532862
-0.49289513 -0.118918836 0.04205479 -0.06776619 -0.35416391 -0.26041976 0.19455528 0.17295296
0.20322229 0.03151688 -0.4864043 0.21457753 0.0046507833 0.5196536 0.13017662 -0.2385976
0.33380508 -0.10203095 0.04919728 0.18457858 -0.79964244 0.04937128 -0.2607712 0.25615394
-0.38078842 0.22482057 -0.397201 0.11083034 -0.29766095 -0.20496704 0.03153473 0.29254574
-0.14809096 -0.3452433 -0.53819644 0.6096026 -0.3270501 0.26239213 -0.16734162 -0.23861124
-0.39904112 0.014312336 0.015994228 0.44834197 -0.16508733 -0.28356203 -0.13179544 0.5517945
-0.083413556 -0.18710819 -0.07857359 -0.5043129 -0.1545692 0.2598708 0.4749401 0.8537278
00000000: cb2e 8f3d c911 8b3e 8fda 063f a58d c83c
00000010: deb7 3f3d 35a5 9c3e e4f6 e93e 4746 b53d
00000020: 8e8f 9dbd 22e8 bb3e c6b5 8ebe 8f02 9b3d
00000030: 2820 0b3e 3856 633e fc37 3bbe 0f91 91be
00000040: 3111 403f f59e 9b3d 6108 3fbe bf1d 223d
00000050: 9794 3a3e b673 35be b85c 783e 5b6e 88be
00000060: 0e44 e03e 3299 293e a334 98be 707d 753e
00000070: 084a d1bd cd9e f13d 4286 bc3e 36c3 e4be
00000080: 94ea 0ebd 8016 03be 77b4 f43c 3811 483e
00000090: 3cfc 0fbe e62e 9c3e 9231 10be 9814 8abd
000000a0: b276 c13e 222c 89be c9d2 0a3e 6604 763e
000000b0: b32f df3d 2002 55bb 37d3 a7bd 7973 853e
000000c0: da9f 0ebe 4872 e3bd 76c8 543e 2cf5 ba3c
000000d0: 90de 283e 22b8 b33d c037 5f3c 240a fc3d
000000e0: fae1 42be 717a e93d 08ac e83d 400a 123e
000000f0: 1a66 b73e ba4c 90bd 582e a93e 3c41 7dbe
00000100: b148 953e e342 de3d 84b2 29bf 0506 14bd
00000110: b4b3 fd3d d0da e0be bc7e d43e 9f41 36be
00000120: 8ce6 b9be 4862 1f3d cf61 533e f56d 70bc
00000130: 881c 54bd 8ce6 66be c09a 473e 0483 2a3c
00000140: 609f e1be 026c 223e 800f 7bbe 5770 e0bc
00000150: dc3e fe3c d0b6 e93d 7e85 8dbe 8011 833d
00000160: d0e6 1ebe 0f63 bfbe c38f bf3e 6daa 9b3e
00000170: cb02 ebbd 61c3 50be a471 85be b037 523f
00000180: 2ee5 013d 53c4 df3e 8b9c 2b3e c102 91be
00000190: db0b fc3d e85b b33e dedd e1be 612d 1f3e
000001a0: 04f5 cfbd 754c a93e 8b64 0f3f 4b7a e4bd
000001b0: 3530 c1bd 984b 1d3f e9fb e63e 3ffe cd3e
000001c0: 565e 0a3f b0dc 2cbf 7be3 3e3e 41b9 063e
000001d0: 475a 06bf b554 f3be 9b4b 823e 487a c6be
000001e0: 8122 043f b974 ebbd e7ee acbe e800 75be
000001f0: 9ae2 8cbf 61bc 2ebe f43b cf3e 5859 e6bd
00000200: 0c22 6abd 56c4 6b3f e2e3 8bbe c873 18bf
00000210: b4b1 533e ec66 c23e e020 f33e 5ec9 953d
00000220: 15d7 bcbe 33eb 993c 6e6a 023e 796b 8c3e
00000230: 7887 65be ed85 093f 76e7 8c3d d444 833e
00000240: bacc ae3e 5a0c f1be 7f8b 05be 0d14 23bd
00000250: 6960 06bf 5454 eabe 8351 d9be 33f4 f4bd
00000260: 9fe9 2f3f 42f6 04bf d65f 6cbe 2957 ad3d
00000270: 6917 f8be 76da d3be 1576 aebd 1fb3 a53e
00000280: fadc e2be 5ce2 503f 9517 b2be 35b7 51be
00000290: f918 4b3e b171 bc3d 0de3 fb3e f4d3 dd3e
000002a0: 79da 88be 9c20 3a3e 9970 29bf b20c 9e3d
000002b0: d93e 22bf 8561 e63d 895b c0bd 82d2 c4be
000002c0: 1380 f53d 6c3d 62bd c5dd a7be 6b0c cd3e
000002d0: 2143 41bf 1f1a 1f3d 0636 d63e 399c f13e
000002e0: 392c d03e 35b1 f2be 540c b1bd 47f9 9bbe
000002f0: 1264 8cbf 296c 4a3e 0732 d33d b399 cc3e
00000300: cb71 0fbf 6eac b43e 32ca 7cbe 272e c93e
00000310: 504d 8c3d 6094 6b3f a18b 423e 27d9 873e
00000320: c05c fcbe b88b f3bd a541 2c3d 00c9 8abd
00000330: f954 b5be bd55 85be 8039 473e 951a 313e
00000340: 8119 503e d817 013d fc09 f9be 36ba 5b3e
00000350: 9965 983b 0508 053f 054d 053e ee52 74be
00000360: 80e8 aa3e 9af5 d0bd 1683 493d 2b02 3d3e
00000370: 5eb5 4cbf 8a39 4a3d cd83 85be 9c26 833e
00000380: b3f6 c2be 5d37 663e ee5d cbbe 04fb e23d
00000390: 0467 98be e1e2 51be 902a 013d 8ec8 953e
000003a0: 28a5 17be bbc3 b0be 3ec7 09bf ea0e 1c3f
000003b0: 1c73 a7be 4358 863e 9a5b 2bbe 8156 74be
000003c0: 1e4f ccbe 4a7e 6a3c 5406 833c 148d e53e
000003d0: a70c 29be 0b2f 91be 62f5 06be 6842 0d3f
000003e0: bad4 aabd 4a99 3fbe 31eb a0bd a61a 01bf
000003f0: 6347 1ebe c90d 853e 592b f33e e88d 5a3f

encoder.LSTM.weight_hh_l0 f4 [256, 64]
-0.0991423 -0.17228623 0.0945449 -0.6301677 0.027701974 0.0062645935 0.0132904975 -0.06578738
0.27901056 0.46431667 0.01810443 -0.24587016 0.07051303 -0.49486813 -0.36375648 -0.16404833
0.029438406 -0.27142394 -0.030272901 0.16003469 0.0439693 -0.14912955 -0.11065377 -0.006494309
-0.112357765 0.08857983 -0.057795625 0.07418092 -0.046316616 0.23931189 -0.057437792 0.037111364
0.033565897 -0.029146794 0.04214452 -0.18377537 0.36006808 0.04629544 -0.037570503 -0.1395395
-0.0072687264 0.023171073 -0.026035836 -0.055065837 -0.10152088 0.17827487 0.021921188 0.16376333
0.2778124 0.14003123 0.16276713 0.17884994 -0.105510086 -0.036246393 0.16392341 0.2653752
-0.2115704 0.08983865 0.09050855 0.06705905 0.25666243 -0.04048253 0.116648644 -0.07390498
0.5405499 0.08015815 -0.08015877 0.0070916507 0.028766127 -0.0039733653 -0.07945809 -0.13122466
-0.28705385 0.3432928 -0.09933764 0.19683965 -0.07011045 -0.101416774 0.19436575 0.124550015
0.2564731 0.10271203 -0.099449985 -0.09200186 -0.05175188 0.14406273 -0.108504504 0.021586852
-0.035307724 -0.093791015 0.0940151 -0.053553313 -0.03445556 -0.21935324 -0.21174 0.011234158
-0.12172056 0.22918533 0.07023855 0.011915673 -0.477015 -0.173255 0.04405888 0.14279759
0.23350328 0.070337676 0.019815048 0.11520703 0.2892283 0.004413715 0.45020607 -0.09345608
0.37421668 -0.12601586 0.0067573045 0.26727512 0.100334026 0.13524055 0.49697784 -0.34107554
0.2332563 -0.1260774 -0.29281354 0.17605992 -0.31176576 -0.019115532 0.18481828 -0.041703384
-0.13363543 -0.29398412 -0.23780492 -0.4433926 -0.1532675 -0.026189672 -0.5308103 -0.0042259553
-0.043543804 0.1625585 -1.2822697 -0.13838579 0.06957446 0.44130808 -0.23153907 0.27564487
-0.12010218 -0.29672238 0.24986738 0.06845122 1.2790016 0.12723272 -0.5396476 0.044955708
-0.12222606 0.20979878 -0.13361582 -0.21305235 0.5201914 0.21055213 0.089102864 0.25274703
-0.13370456 -0.069078736 0.083713844 -0.19510686 0.22052594 -0.19020095 -0.09741844 -0.052858084
-0.062301483 0.21145375 0.05762289 -0.32579246 -0.014797101 0.37281904 -0.30412632 0.1467257
-0.08188923 -0.10884123 -0.021966869 0.26427418 -0.11789628 0.52509505 0.07132561 0.17606384
-0.31957108 -0.3633216 -0.3500226 0.592889 -0.23239392 -0.24272448 -0.016776893 0.28860775
-0.1237645 0.16235375 0.28631985 0.17058982 -0.06130515 -0.020337913 -0.13314068 -0.11263782
0.20511107 -0.35472712 0.23030725 -0.057860557 0.037076417 0.1932924 0.56436753 0.035476394
-0.09587205 0.020502422 0.05966376 0.20094168 -0.066457644 0.30495924 0.14419717 0.16964564
-0.0860432 0.12091659 -0.4333418 -0.25043514 0.0847479 0.3644048 0.014539259 -0.09841227
-0.052481294 -0.07032274 -0.13150236 -0.17902583 0.21558362 -0.017178958 -0.098128326 0.021651693
-0.26032108 -0.032664776 -0.024395904 -0.046922166 -0.19921242 -0.046875365 -0.023465652 0.017364658
-0.30865803 -0.079610825 0.18674488 -0.020186849 0.12925339 0.023569899 -0.054461855 -0.062387615
-0.053949215 0.06413378 -0.38948703 -0.05948764 0.286139 -0.004893687 -0.20321405 -0.03734045
00000000: 1e0b cbbd cd6b 30be c2a0 c13d ac52 21bf
00000010: 40ef e23c 3847 cd3b 63c0 593c 89bb 86bd
00000020: 79da 8e3e eaba ed3e be4f 943c 63c5 7bbe
00000030: 2369 903d 5b5f fdbe 4a3e babe 49fc 27be
00000040: d028 f13c 14f8 8abe e0fe f7bc 22e0 233e
00000050: 2719 343d 6bb5 18be 729e e2bd 36ce d4bb
00000060: d41b e6bd 5869 b53d 1bbb 6cbd 2bec 973d
00000070: 7eb6 3dbd 2d0e 753e e443 6bbd 1602 183d
00000080: 657c 093d 42c5 eebc bb9f 2c3d 9c2f 3cbe
00000090: d85a b83e 4aa0 3d3d 87e3 19bd 71e3 0ebe
000000a0: 7f2e eebb 43d1 bd3c 1b49 d5bc b78c 61bd
000000b0: 2eea cfbd b08d 363e 1094 b33c 93b1 273e
000000c0: 6d3d 8e3e 5964 0f3e 6dac 263e 7024 373e
000000d0: ac15 d8bd 1977 14bd 8adb 273e 42df 873e
000000e0: e9a5 58be 53fd b73d 8c5c b93d 4156 893d
000000f0: 4269 833e 02d1 25bd 7ce5 ee3d 7f5b 97bd
00000100: 7a61 0a3f f529 a43d 482a a4bd 1461 e83b
00000110: f1a6 eb3c 0133 82bb ecba a2bd c25f 06be
00000120: b9f8 92be 13c4 af3e 8871 cbbd 5590 493e
00000130: 1196 8fbd 99b3 cfbd d107 473e 1414 ff3d
00000140: 7150 833e af5a d23d 6fac cbbd 796b bcbd
00000150: c8f9 53bd 2e85 133e 9c37 debd e9d6 b03c
00000160: d59e 10bd 8115 c0bd fd8a c03d b85a 5bbd
00000170: 4621 0dbd 239e 60be 5fd2 58be 790f 383c
00000180: a148 f9bd 8faf 6a3e 3bd9 8f3d f439 433c
00000190: 4f3b f4be c269 31be 1677 343d 8839 123e
000001a0: 7c1b 6f3e 330d 903d 2b53 a23c aaf1 eb3d
000001b0: bb15 943e eda0 903b 6981 e63e e765 bfbd
000001c0: 5499 bf3e 4d0a 01be 616c dd3b 49d8 883e
000001d0: ed7b cd3d 807c 0a3e e173 fe3e 74a1 aebe
000001e0: bdda 6e3e 6f1a 01be a8eb 95be 0d49 343e
000001f0: c39f 9fbe 2d98 9cbc 0141 3d3e 2bd1 2abd
00000200: bad7 08be 1685 96be 2283 73be 5b04 e3be
00000210: 28f2 1cbe b98b d6bc 2fe3 07bf e279 8abb
00000220: fd5a 32bd bc75 263e 6a21 a4bf 01b5 0dbe
00000230: 0e7d 8e3d 22f3 e13e 9418 6dbe 5321 8d3e
00000240: 22f8 f5bd ffeb 97be 3cdd 7f3e 2730 8c3d
00000250: 53b6 a33f 4b49 023e 5826 0abf 7a23 383d
00000260: a851 fabd 7ed5 563e 96d2 08be 652a 5abe
00000270: 432b 053f fa9a 573e 907b b63d 0f68 813e
00000280: d9e9 08be 2779 8dbd 2a72 ab3d 18ca 47be
00000290: 8dd1 613e 0ac4 42be 5283 c7bd b881 58bd
000002a0: d72f 7fbd 5587 583e fb05 6c3d 45ce a6be
000002b0: 8a6f 72bc 23e2 be3e 72b6 9bbe 433f 163e
000002c0: 8ab5 a7bd 27e8 debd ddf3 b3bc f24e 873e
000002d0: 9b73 f1bd a16c 063f 2913 923d 144a 343e
000002e0: d29e a3be 4a05 babe 2a36 b3be 93c7 173f
000002f0: acf8 6dbe c48c 78be b26f 89bc 65c4 933e
00000300: 3e78 fdbd 1040 263e 8498 923e 19af 2e3e
00000310: 1c1b 7bbd b29b a6bc 0856 08be a8ae e6bd
00000320: a308 523e cb9e b5be aad5 6b3e 31ff 6cbd
00000330: 71dd 173d 71ee 453e 647a 103f b24f 113d
00000340: 9158 c4bd b2f4 a73c fd61 743d a8c3 4d3e
00000350: f21a 88bd 9e23 9c3e 6ca8 133e 96b7 2d3e
00000360: 6b37 b0bd 1ea3 f73d fade ddbe 0939 80be
00000370: 4f90 ad3d 4493 ba3e 1236 6e3c 5f8c c9bd
00000380: a0f6 56bd 5e05 90bd 8ea8 06be 8c52 37be
00000390: f4c1 5c3e e3ba 8cbc 81f7 c8bd e45e b13c
000003a0: ce48 85be 80cb 05bd ebd9 c7bc 7531 40bd
000003b0: 57fe 4bbe 6200 40bd 0a3b c0bc 5440 8e3c
000003c0: 6d08 9ebe 000b a3bd 0d3a 3f3e e45e a5bc
000003d0: 005b 043e a915 c13c 6513 5fbd 288a 7fbd
000003e0: daf9 5cbd 9258 833d d86a c7be 50a9 73bd
000003f0: d080 923e 395b a0bb 5817 50be 4df2 18bd

encoder.LSTM.bias_ih_l0 f4 [256]
-0.21622103 -0.027840685 -0.0008412235 -0.19106935 0.12468475 0.7462615 0.25343862 0.6043825
0.41751894 0.08813279 0.49666008 0.030084485 0.016723443 0.04445841 0.04302847 0.120930105
0.28110644 -0.018989038 0.5711993 0.24593978 0.38239607 0.08301872 0.05715012 0.4176296
0.0004469043 0.73354286 0.35680687 0.28537786 0.06273801 0.11587154 0.13792796 0.40794405
-0.28155717 0.0022531694 0.2844967 0.050267823 0.1597003 0.05596914 0.6976838 -0.0060600075
0.04546217 0.484967 0.3878982 0.17712384 0.39798835 -0.004506633 0.15042098 0.045875117
-0.2691192 -0.05092801 0.22130165 0.07321346 0.1166252 0.2925275 -0.2070457 0.08678258
0.11393856 0.0022127246 0.271314 0.13470067 0.6533119 0.3242909 -0.042257287 0.039539557
0.078143 -0.12879765 0.12973252 -0.007289817 0.11319797 0.23185584 0.22286282 0.5456885
0.45390922 -0.14040399 0.32987505 0.23678708 0.070227556 0.023434011 0.14818394 0.04291317
0.4063571 -0.04941655 0.09030905 0.486046 0.21845195 -0.011296146 0.20150666 0.17633267
0.24920271 0.89950526 0.25984964 -0.13807924 0.18556494 -0.0708664 0.14275686 0.35640946
-0.13191715 0.1534878 0.38698962 0.044381045 0.051438354 0.08967106 0.52303404 0.17547418
-0.10321051 0.6999733 0.19258738 0.1544182 -0.116949596 -0.3996277 -0.19091776 0.17188005
-0.16245095 0.13500641 0.25041154 -0.012133 0.29613185 0.52642757 0.21179487 -0.26968402
0.044566665 0.01822745 0.38404167 0.17125583 0.04254626 -0.11019522 -0.03796405 -0.10431992
-0.07980374 -0.08465946 -0.12023113 -0.06810701 0.092151 -0.08335234 0.0063668895 0.1839479
0.33820307 -0.054818884 -0.13821322 0.11176925 -0.105982944 -0.056349378 -0.1241281 -0.06653158
-0.16745852 -0.081140414 0.16540667 -0.09928931 -0.10984434 0.013159071 0.09639444 -0.20111564
-0.011539414 -0.018186852 0.23813903 0.12044928 0.13238955 -0.14383389 -0.05221071 -0.102129795
0.013076841 0.04800479 -0.21961619 0.12894522 -0.052383147 -0.039160065 0.05972957 0.018757887
0.10109789 -0.07166423 0.13991691 -0.1801909 0.0028287994 0.014080449 -0.06647503 -0.022789763
0.08432227 0.06821098 -0.1951871 0.14402221 -0.2511167 0.03898551 0.041130446 -0.11980746
0.15286486 0.0970369 0.014022493 -0.13213116 -0.10100219 0.068427965 -0.027661 0.012084079
0.179469 -0.06040279 -0.03687999 0.22690277 -0.029533746 0.5330793 0.45128733 0.15169157
0.14386453 0.0026004703 0.4657274 -0.09767504 0.0056390394 0.09382784 0.046446126 0.11207284
0.03675247 0.14515673 0.39399853 0.41500095 0.3510973 0.15120916 0.24582644 0.070877664
0.039735477 0.6431052 0.09173413 0.011575743 0.0037959826 -0.008102776 -0.0015011706 0.3557892
0.03469974 0.30363742 0.15504503 0.049134966 0.085183434 0.06536722 0.56727505 0.014338715
-0.02117608 0.45513383 0.17113689 0.27216136 0.37459335 0.102510005 0.17402585 -0.014056374
0.14416818 -0.088289306 0.3099116 0.33405107 0.07964039 0.3351089 0.1168077 0.09160121
-0.11978777 0.0055820993 0.11606123 0.0445601 0.15813915 0.037763342 0.18481053 -0.04764379
00000000: 0c69 5dbe 2612 e4bc 8e85 5cba afa7 43be
00000010: b85a ff3d fe0a 3f3f b5c2 813e d0b8 1a3f
00000020: 0bc5 d53e f77e b43d 3b4a fe3e bd73 f63c
00000030: 9aff 883c 061a 363d 9f3e 303d 34aa f73d
00000040: 2fed 8f3e e68e 9bbc 1e3a 123f a3d7 7b3e
00000050: 6bc9 c33e b805 aa3d 3f16 6a3d 8cd3 d53e
00000060: 7b4e ea39 77c9 3b3f 64af b63e 0c1d 923e
00000070: c97c 803d 0f4e ed3d fd3c 0d3e 0bde d03e
00000080: 4328 90be e9a9 133b 8da9 913e a2e5 4d3d
00000090: 7a88 233e e63f 653d 689b 323f 0793 c6bb
000000a0: 8a36 3a3d 984d f83e 989a c63e f45f 353e
000000b0: 21c5 cb3e 61ac 93bb f507 1a3e 8ce7 3b3d
000000c0: fec9 89be e499 50bd e69c 623e f0f0 953d
000000d0: 31d9 ee3d 2ac6 953e ca03 54be 11bb b13d
000000e0: 9f58 e93d 5c03 113b abe9 8a3e f9ee 093e
000000f0: 733f 273f 7509 a63e fa15 2dbd 3bf4 213d
00000100: 7009 a03d 88e3 03be 9ad8 043e 6bdf eebb
00000110: 56d4 e73d 9e6b 6d3e 2736 643e 3eb2 0b3f
00000120: ca66 e83e 10c6 0fbe 62e5 a83e 5078 723e
00000130: 77d3 8f3d aff8 bf3c 88bd 173e b8c5 2f3d
00000140: 0a0e d03e 0269 4abd f4f3 b83d 05db f83e
00000150: deb1 5f3e 7813 39bc c357 4e3e 8d90 343e
00000160: ff2e 7f3e fa45 663f 030b 853e a564 0dbe
00000170: bc04 3e3e 6722 91bd db2e 123e 4d7b b63e
00000180: 4a15 07be e82b 1d3e 8123 c63e e6c8 353d
00000190: 06b1 523d 76a5 b73d 8fe5 053f 81af 333e
000001a0: 0860 d3bd 7331 333f a035 453e ce1f 1e3e
000001b0: 4583 efbd 009c ccbe f27f 43be 5301 303e
000001c0: 8b59 26be 1f3f 0a3e f135 803e 7ec9 46bc
000001d0: 989e 973e f5c3 063f c1e0 583e 0614 8abe
000001e0: 898b 363d bc51 953c 1ca1 c43e b05d 2f3e
000001f0: fd44 2e3d 08ae e1bd 3180 1bbd afa5 d5bd
00000200: 2570 a3bd f061 adbd bd3b f6bd b07b 8bbd
00000210: aab9 bc3d a2b4 aabd 57a1 d03b d75c 3c3e
00000220: f428 ad3e c489 60bd c487 0dbe 47e7 e43d
00000230: 960d d9bd 9bce 66bd e036 febd b641 88bd
00000240: 3f7a 2bbe f22c a6bd 5e60 293e 3258 cbbd
00000250: 12f6 e0bd 2599 573c 736a c53d 42f1 4dbe
00000260: cf0f 3dbc 98fc 94bc b8da 733e 1dae f63d
00000270: 2091 073e 3149 13be e6da 55bd 6d29 d1bd
00000280: 3f40 563c aca0 443d 11e3 60be 370a 043e
00000290: b68f 56bd 4e66 20bd fea6 743d 24aa 993c
000002a0: 690c cf3d b2c4 92bd 6146 0f3e f783 38be
000002b0: 6163 393b afb1 663c 0f24 88bd 99b1 babc
000002c0: 27b1 ac3d 33b2 8b3d 21df 47be 8f7a 133e
000002d0: 5e92 80be 45af 1f3d 6678 283d 9d5d f5bd
000002e0: 9b88 1c3e 48bb c63d 99be 653c 644d 07be
000002f0: 3cda cebd f623 8c3d 5299 e2bc 4dfc 453c
00000300: b9c6 373e ea68 77bd 790f 17bd 3359 683e
00000310: c1f0 f1bc e377 083f 220f e73e 0955 1b3e
00000320: 3951 133e a76c 2a3b d273 ee3e da09 c8bd
00000330: b1c7 b83b d028 c03d 4b3e 3e3d 7286 e53d
00000340: c289 163d f7a3 143e 2dba c93e 017b d43e
00000350: 06c3 b33e 93d6 1a3e edb9 7b3e 4f28 913d
00000360: abc1 223d 8ba2 243f 1bdf bb3d 2fa8 3d3c
00000370: 05c6 783b 81c1 04bc edc2 c4ba 012a b63e
00000380: 5121 0e3d 5d76 9b3e 20c4 1e3e bf41 493d
00000390: a774 ae3d 40df 853d f038 113f eeec 6a3c
000003a0: 7579 adbc 4d07 e93e 823e 2f3e bc58 8b3e
000003b0: b3ca bf3e c4f0 d13d d533 323e b54c 66bc
000003c0: d3a0 133e 06d1 b4bd bcac 9e3e be08 ab3e
000003d0: 801a a33d 6593 ab3e e038 ef3d 6a99 bb3d
000003e0: 4a53 f5bd 0bea b63b 83b1 ed3d a784 363d
000003f0: 3bef 213e bcad 1a3d f93e 3d3e 2226 43bd

encoder.LSTM.bias_hh_l0 f4 [256]
-0.22346929 0.054042608 -0.062966846 -0.12594552 0.18751682 0.73074937 0.20764399 0.6482488
0.4768621 -0.021325426 0.43309078 -0.021785079 0.05349116 -0.027990466 0.025231972 0.032828756
0.37156573 0.06489235 0.46976674 0.3003411 0.31172448 0.030837528 0.13133152 0.34123382
-0.009683286 0.76318604 0.43985176 0.24697018 0.1265523 0.18473355 0.15757008 0.3659735
-0.24295971 -0.014932372 0.19089447 0.0642252 0.22348873 0.050937258 0.7018003 0.10277858
-0.0015792797 0.4901983 0.26042846 0.3197257 0.4950651 -0.0021541147 0.15944201 0.10119228
-0.15367003 0.07947018 0.26838052 0.080326684 0.09836084 0.2714319 -0.22946852 0.067109436
0.054463744 0.11640266 0.13627923 0.17977303 0.6763276 0.26925385 0.05663751 0.023051353
0.13818923 -0.06445022 0.06106936 -0.063967414 0.12685111 0.11908809 0.29369035 0.59089166
0.45856756 -0.20858794 0.431051 0.16966507 0.08336918 0.0010918305 0.11409319 0.17298876
0.34746367 -0.1092978 -0.06215973 0.5096838 0.24090031 -0.0074652573 0.25668454 0.23772606
0.15913863 0.7552828 0.24177897 -0.059850674 0.15257488 -0.078070275 0.16069451 0.27121353
-0.03617518 0.16381814 0.3738871 0.05671161 0.16175006 0.14505419 0.5634812 0.16049236
-0.06855332 0.7387419 0.079808936 0.19994295 -0.0046730796 -0.37706918 -0.19191352 0.15801018
-0.17180216 0.1669449 0.27976337 0.009181057 0.1650641 0.60659784 0.19604616 -0.20486169
0.16602647 -0.050851278 0.43819255 0.10006989 0.16161095 -0.11737094 -0.06169585 -0.13410598
-0.15144776 0.001392423 -0.0010596609 -0.05874855 0.15935881 -0.013885363 0.015078197 0.2484492
0.40838534 -0.041622028 -0.016099539 0.15043649 -0.14845143 -0.10596011 -0.20225818 0.039598852
-0.29829228 0.016741825 0.12692302 -0.0628961 -0.004143285 -0.07339166 0.030489786 -0.06399427
0.12802216 -0.09944908 0.34430528 0.2070061 0.1787927 -0.17822354 -0.1061844 -0.0032870683
-0.08243753 0.069967024 -0.18308304 0.05887806 0.0047478983 -0.056518935 0.09370769 0.008292002
0.14728794 -0.10158912 0.2070425 -0.03263364 -0.0026811587 -0.008891985 -0.02604519 -0.04807718
-0.06432424 0.122951746 -0.20732626 0.11712382 -0.1818909 0.026777534 0.16346075 -0.10569014
0.17813359 0.13235423 0.13408506 -0.047641825 -0.14313975 0.027323684 -0.047681853 -0.016630046
0.17895092 0.06546584 0.020961342 0.1684281 -0.16513725 0.6311388 0.49149558 0.092759244
0.09262123 -0.07774759 0.5214651 0.026367955 0.030174177 0.13154708 0.17254308 0.006921396
0.15657356 0.20866095 0.31357747 0.54289216 0.2155966 0.025655337 0.13237205 0.14906356
0.07879019 0.6961314 0.10831533 0.10793977 0.069759294 0.05679189 0.005422278 0.43261364
-0.10022841 0.29875013 0.24963903 0.08642807 0.1178694 0.033512406 0.5295294 0.13993084
0.02189188 0.3584391 0.29820308 0.35536596 0.34541163 0.07079811 0.22020799 0.08911108
0.044588733 0.039325368 0.22730827 0.35727543 0.1154107 0.29259187 -0.03159687 0.10742262
-0.008332564 0.020158608 0.17078948 -0.022265008 0.11039905 0.19402175 0.31415215 0.037533488
00000000: 22d5 64be c85b 5d3d c3f4 80bd ddf7 00be
00000010: 6904 403e 6412 3b3f a0a0 543e a2f3 253f
00000020: 4527 f43e a9b2 aebc 13be dd3e 9f76 b2bc
00000030: 8c19 5b3d 434c e5bc 48b3 ce3c 7277 063d
00000040: dd3d be3e 48e6 843d 4485 f03e 4fc6 993e
00000050: 5a9a 9f3e fc9e fc3c c57b 063e 33b6 ae3e
00000060: a5a6 1ebc 2960 433f 4034 e13e c0e5 7c3e
00000070: ed96 013e cb2a 3d3e 0d5a 213e e160 bb3e
00000080: 6eca 78be e8a6 74bc d779 433e 8088 833d
00000090: 3bda 643e 96a3 503d 2fa9 333f 937d d23d
000000a0: d5ff ceba 46fb fa3e e156 853e 16b3 a33e
000000b0: 2c79 fd3e 0c2c 0dbb c444 233e e63d cf3d
000000c0: ad5b 1dbe 43c1 a23d 2c69 893e 5182 a43d
000000d0: 6871 c93d 1ff9 8a3e ccf9 6abe ac70 893d
000000e0: 6015 5f3d 8564 ee3d c88c 0b3e 6c16 383e
000000f0: ce23 2d3f a4db 893e bcfc 673d 31d6 bc3c
00000100: 7a81 0d3e 7afe 83bd dd23 7a3d 5901 83bd
00000110: 42e5 013e 75e4 f33d 955e 963e ad44 173f
00000120: 5ec9 ea3e 1498 55be b7b2 dc3e aebc 2d3e
00000130: 76bd aa3d c11b 8f3a b1a9 e93d f723 313e
00000140: c2e6 b13e 86d7 dfbd 339b 7ebd a37a 023f
00000150: 92ae 763e 1e9f f4bb 286c 833e 766e 733e
00000160: 3df5 223e 375a 413f e894 773e fb25 75bd
00000170: 973c 1c3e 4fe3 9fbd 1a8d 243e 80dc 8a3e
00000180: 6d2c 14bd f1bf 273e 216e bf3e 6f4a 683d
00000190: cfa1 253e 1689 143e 4e40 103f 1c58 243e
000001a0: af65 8cbd 301e 3d3f de72 a33d d8bd 4c3e
000001b0: a220 99bb 360f c1be fa84 44be 6ccd 213e
000001c0: e8ec 2fbe 9bf3 2a3e 253d 8f3e 256c 163c
000001d0: 9006 293e ff49 1b3f 53c0 483e 43c7 51be
000001e0: d802 2a3e 6e49 50bd c65a e03e 71f1 cc3d
000001f0: 577d 253e 2d60 f0bd cab4 7cbd 1453 09be
00000200: 1f15 1bbe f681 b63a 52e4 8aba 52a2 70bd
00000210: f52e 233e 6f7f 63bc 8b0a 773c 7869 7e3e
00000220: e217 d13e dc7b 2abd 2ee3 83bc 060c 1a3e
00000230: a703 18be 9d01 d9bd c51c 4fbe 6832 223d
00000240: c4b9 98be 2726 893c 1cf8 013e accf 80bd
00000250: 65c4 87bb 5e4e 96bd b7c5 f93c 6e0f 83bd
00000260: 3e18 033e f6ab cbbd c848 b03e 68f9 533e
00000270: 6f15 373e 3b80 36be 3577 d9bd db6b 57bb
00000280: 02d5 a8bd df4a 8f3d 1f7a 3bbe 1f2a 713d
00000290: 4294 9b3b 6680 67bd d1e9 bf3d 2ddb 073c
000002a0: a6d2 163e f50d d0bd f302 543e daaa 05bd
000002b0: 61b6 2fbb b0af 11bc b95c d5bc 94ec 44bd
000002c0: 6dbc 83bd 20ce fb3d 564d 54be 9dde ef3d
000002d0: 9c41 3abe 8f5c db3c 4162 273e 1274 d8bd
000002e0: a768 363e de87 073e 984d 093e 1324 43bd
000002f0: 3a93 12be ebd5 df3c 0c4e 43bd bc3b 88bc
00000300: e93e 373e f412 863d 1fb7 ab3c 6a78 2c3e
00000310: bd19 29be 5092 213f 4fa5 fb3e 8ff8 bd3d
00000320: 33b0 bd3d 213a 9fbd bd7e 053f 9c01 d83c
00000330: d62f f73c 47b4 063e 22af 303e e1cc e23b
00000340: d254 203e 37ab 553e 3a8d a03e fbfa 0a3f
00000350: 5bc5 5c3e 242b d23c 8a8c 073e 1ea4 183e
00000360: c05c a13d ab35 323f 6ed4 dd3d 870f dd3d
00000370: f6dd 8e3d 9d9e 683d 5dad b13b 897f dd3e
00000380: 8d44 cdbd c7f5 983e 60a1 7f3e 3301 b13d
00000390: 8365 f13d 4e44 093d 3d8f 073f 084a 0f3e
000003a0: 9a56 b33c 5485 b73e 13ae 983e 87f2 b53e
000003b0: cbd9 b03e 99fe 903d 347e 613e df7f b63d
000003c0: ada2 363d a313 213d 80c3 683e ceec b63e
000003d0: 725c ec3d 9ace 953e b86b 01bd 6400 dc3d
000003e0: 4e85 08bc aa23 a53c 70e3 2e3e 1b65 b6bc
000003f0: e618 e23d a3ad 463e 8dd8 a03e b7bc 193d

decoder.embedding.weight f4 [28, 32]
-0.036563955 0.03481552 0.05450409 -0.019800773 -0.032799 -0.052678686 -0.017294941 -0.032098528
-0.017114334 0.008080454 -0.047972962 0.05975011 0.072918415 0.0074360278 0.032685097 0.014486189
-0.073599085 0.0133238025 0.027522527 0.03601799 -0.028264856 -0.043388918 -0.066565566 0.05984106
0.07485891 0.06847017 0.07035369 -0.064567156 0.055536766 0.022921534 -0.01787918 -0.040992845
-0.012205549 0.025157442 0.0017924786 0.03276062 -0.056083374 0.013204575 0.05139489 -0.00914115
-0.055293 0.00027926444 -0.01982206 0.023351774 0.05457432 0.0071144104 -0.00087734225 0.052736264
-0.038481444 0.049259692 0.011186256 0.07858535 0.030082168 0.018843232 0.054037668 -0.06481704
0.07837198 0.04437421 -0.034779094 0.06886284 -0.04820665 0.046818916 -0.040501293 0.07365261
0.33890414 -0.32652023 -1.2316767 0.92814666 0.062321745 0.22728463 0.14562503 -0.04447465
0.0007411703 -0.0662993 0.13532649 -0.03540654 0.07085217 0.11509299 0.059508625 -0.022942066
0.19652852 -0.45868045 -0.18038233 0.3999181 0.19890752 0.33814564 0.6698142 -0.049564037
0.07915418 0.015558594 0.13959195 0.21936567 -0.028360873 0.16188 0.22099076 0.26181296
-0.0088936 -0.016898718 0.008208742 0.06638451 -0.06778539 -0.009591937 0.013058977 0.027040157
-0.043981228 -0.027970247 0.058936108 0.017792378 0.0039388277 0.060249854 0.036975738 0.07678303
-0.06397351 -0.022601414 -0.02953495 -0.030183401 0.0061041545 -0.041629992 0.06437295 -0.029256511
0.067578994 0.07563551 -0.058842756 -0.013428731 0.0733156 -0.041183196 0.008710232 -0.03358597
0.16405585 0.6132924 -0.16951805 0.6461034 -0.51723343 -0.026007913 0.26973876 -0.33112973
-0.06484918 0.20935614 0.54530865 0.094644696 -0.67502433 0.61030644 -0.021487493 -0.045778316
-0.19602777 -0.06288214 -0.38826358 -0.35120282 -1.0948943 0.1664679 0.3474707 0.18819538
0.19499439 -0.2421133 0.30359718 0.33414492 0.3809478 0.06828545 -0.23402226 0.27782983
0.4956614 -0.31337616 0.5627607 0.43665144 -0.28067914 0.34725034 0.18830131 0.02975
1.2791364 -0.37593424 0.26370442 -0.14257073 0.29079786 -1.8217316 0.512126 -0.29264292
0.28160673 -0.74995375 0.5350673 0.94307446 -0.9099726 0.97286165 0.09068783 0.4828799
0.35895947 0.0006797266 -0.62681067 0.4357569 0.4518038 0.028532088 -0.4609213 -0.06264256
-0.27789316 -0.121789165 -0.5001631 0.14335981 -0.74260855 -0.81489635 -0.009965207 -0.42535955
-0.009175366 0.5841955 -0.83953434 0.40157112 -0.5205248 0.42396277 0.25822344 1.004836
0.10440354 0.32643238 -0.45900416 0.9233068 0.3849352 -1.0613526 0.69176865 -0.39419496
-0.46670488 -0.5453696 0.5977958 0.42460012 0.09395498 -0.6111972 0.6084773 0.87365806
-0.7352788 0.2788972 -0.40139 0.5001119 -0.6516792 0.28241187 0.04486738 0.14820941
0.3658054 -0.22851108 0.32705948 0.21428147 -0.14543664 -0.19496977 0.078012146 -0.8468743
0.48043448 0.31851158 0.24002539 -0.22973974 0.23887832 0.33546567 -0.08883855 -0.10423596
-0.06441872 1.0365695 0.12101022 0.055044744 0.37561238 -0.3190819 0.2732124 -0.048658576
00000000: 16c4 15bd b89a 0e3d ae3f 5f3d 3b35 a2bc
00000010: 3f58 06bd 9bc5 57bd 1fae 8dbc bf79 03bd
00000020: 5c33 8cbc e163 043c 4c7f 44bd 88bc 743d
00000030: 4056 953d eca9 f33b cfe0 053d 7b57 6d3c
00000040: 1ebb 96bd 144c 5a3c ec76 e13c 9a87 133d
00000050: b38b e7bc 94b8 31bd 8753 88bd e61b 753d
00000060: a14f 993d 173a 8c3d 9815 903d c93b 84bd
00000070: 857a 633d f1c5 bb3c 5c77 92bc 1de8 27bd
00000080: c8f9 47bc fb16 ce3c 9af1 ea3a 0030 063d
00000090: aeb7 65bd 0058 583c 7383 523d c3c4 15bc
000000a0: ea7a 62bd 3d6a 9239 df61 a2bc 384c bf3c
000000b0: 5289 5f3d 0020 e93b 71fd 65ba fb01 583d
000000c0: b89e 1dbd 88c4 493d 8f46 373c 5bf1 a03d
000000d0: e16e f63c 1f5d 9a3c 9a56 5d3d ccbe 84bd
000000e0: 7d81 a03d bbc1 353d 8674 0ebd f607 8d3d
000000f0: 5674 45bd 31c5 3f3d afe4 25bd 2ed7 963d
00000100: d884 ad3e a92d a7be 95a7 9dbf 059b 6d3f
00000110: 1645 7f3d 4dbd 683e ba1e 153e 0d2b 36bd
00000120: 194b 423a edc7 87bd 0793 0a3e 7306 11bd
00000130: f11a 913d e0b5 eb3d 51bf 733d 00f1 bbbc
00000140: c63e 493e 2ad8 eabe 25b6 38be 11c2 cc3e
00000150: 6aae 4b3e 6d21 ad3e f278 2b3f a903 4bbd
00000160: 961b a23d 79e9 7e3c 31f1 0e3e 65a1 603e
00000170: 1055 e8bc dfc3 253e 674b 623e 590c 863e
00000180: 76b6 11bc 2e6f 8abc f67d 063c 9af4 873d
00000190: 11d3 8abd 8027 1dbc 52f5 553c 5283 dd3c
000001a0: a925 34bd dc21 e5bc fd66 713d 52c1 913c
000001b0: 4811 813b 8dc8 763d df73 173d 6c40 9d3d
000001c0: 8b04 83bd 9a26 b9bc 48f3 f1bc 2e43 f7bc
000001d0: 5c05 c83b 3684 2abd f7d5 833d 5aab efbc
000001e0: db66 8a3d cae6 9a3d 1a05 71bd 2e04 5cbc
000001f0: 7d26 963d b6af 28bd 5cb5 0e3c 7191 09bd
00000200: 42fe 273e bb00 1d3f 2496 2dbe 0867 253f
00000210: 6969 04bf 8c0e d5bc 331b 8a3e d689 a9be
00000220: a6cf 84bd 7561 563e 5999 0b3f 14d5 c13d
00000230: 65ce 2cbf 0b3d 1c3f 8a06 b0bc 0b82 3bbd
00000240: 81bb 48be 5ac8 80bd 7cca c6be dbd0 b3be
00000250: 7f25 8cbf 9076 2a3e aee7 b13e 4ab6 403e
00000260: 9cac 473e 8dec 77be 1771 9b3e 0b15 ab3e
00000270: 970b c33e 3ed9 8b3d 88a3 6fbe b63f 8e3e
00000280: 55c7 fd3e d772 a0be 1611 103f c790 df3e
00000290: 2db5 8fbe ccca b13e 0fd2 403e 46b6 f33c
000002a0: beba a33f 747a c0be 4404 873e 10fe 11be
000002b0: 75e3 943e 802e e9bf b11a 033f 4bd5 95be
000002c0: c22e 903e f8fc 3fbf 2cfa 083f 546d 713f
000002d0: f7f3 68bf 760d 793f 8aba b93d 093c f73e
000002e0: 89c9 b73e ae2f 323a aa76 20bf 871b df3e
000002f0: d452 e73e 20bc e93c e0fd ebbe be4a 80bd
00000300: 0348 8ebe 996c f9bd b00a 00bf eacc 123e
00000310: 981b 3ebf 0c9d 50bf 1c45 23bc bac8 d9be
00000320: 4654 16bc d68d 153f b9eb 56bf bb9a cd3e
00000330: 1d41 05bf a611 d93e dd35 843e 779e 803f
00000340: 86d1 d53d 2522 a73e 9802 ebbe d65d 6c3f
00000350: 3a16 c53e 67da 87bf c017 313f ecd3 c9be
00000360: f1f3 eebe 589d 0bbf 2509 193f 3065 d93e
00000370: 786b c03d 6b77 1cbf 2bc5 1b3f 0ea8 5f3f
00000380: 3b3b 3cbf 9dcb 8e3e fd82 cdbe 5507 003f
00000390: 73d4 26bf 4a98 903e dcc6 373d 35c4 173e
000003a0: d84a bb3e cffe 69be 5774 a73e 9a6c 5b3e
000003b0: 58ed 14be 28a6 47be d5c4 9f3d c1cc 58bf
000003c0: 82fb f53e f313 a33e 37c9 753e e540 6bbe
000003d0: 859c 743e 28c2 ab3e fcf0 b5bd aa79 d5bd
000003e0: f6ed 83bd 4fae 843f 35d4 f73d 9976 613d
000003f0: 4450 c03e b45e a3be 7fe2 8b3e 374e 47bd

decoder.LSTM.weight_ih_l0 f4 [256, 32]
0.06383473 0.016586462 -0.123791784 -0.025479298 -0.24059843 -0.1305661 -0.20349501 -0.29452515
-0.13677894 -0.1602007 0.05881787 -0.082438976 -0.17688808 -0.05916995 0.08942598 -0.41923636
0.2882617 0.10027959 -0.040662847 0.3239574 0.01170285 -0.13123895 -0.10541787 -0.3270365
-0.23083067 -0.14992093 -0.03248097 -0.09319064 -0.22915302 -0.24673252 -0.099585645 0.25521168
0.07062042 -0.1841765 -0.14920337 0.06901328 -0.24116512 0.051815968 0.2724399 0.33927137
0.3341823 0.13119268 0.10385955 -0.08218212 0.024548994 -0.23900846 -0.12024774 0.022621637
-0.02731544 -0.2590292 -0.040308308 0.10447896 0.1397259 0.038421072 0.06537535 0.13535959
-0.15464993 0.28533748 0.13702616 0.15275192 -0.13726845 -0.022562873 -0.122030444 -0.022566479
0.3761931 -0.92427135 -0.012902614 0.32560807 0.0830857 0.12716365 -0.3926181 0.26908457
-0.3199796 -0.059114024 -0.1540157 0.37347528 0.28162938 -0.045266718 0.4775582 0.23922244
0.31684762 -0.8125035 -0.11149934 0.50047326 -0.07198961 0.4915112 -0.32899475 -0.043449588
0.26027825 -0.6573212 -0.21920872 -0.28186804 -0.07127258 0.47414654 -0.23876818 0.8269724
0.06462364 -0.4240436 -0.28167462 -0.17929034 -0.2316125 0.26281428 0.065674424 0.06526157
0.2626861 -0.057621695 -0.35515365 -0.472126 0.39984107 -0.37317774 -0.65014505 -0.09256101
-0.3812847 -0.9691838 0.12006312 0.027807195 0.7889583 -0.8000253 0.22582185 -0.07890043
-0.2477965 0.2862017 0.066091746 0.05187096 -0.5533765 -0.35362503 -0.15719116 -0.319927
0.16927059 -0.1403213 -0.005987562 0.26020184 0.11147257 0.057475332 -0.072622925 -0.047974955
-0.25913495 -0.13108101 0.00014220331 0.14474475 -0.21779211 0.19326335 0.22515135 -0.09146899
-0.071969695 -0.026918082 0.09240838 0.430254 -0.00038322603 -0.022582341 -0.0044648745 -0.11402426
-0.0020769797 -0.15620144 -0.18149394 -0.17612728 -0.12470866 0.07591401 0.15476546 0.27045873
0.097053796 -0.3199859 -0.14872405 0.12685663 -0.44802058 -0.31626692 -0.10900564 -0.24234988
0.54222095 0.058908895 -0.050625537 -0.009843723 -0.07426505 0.08111121 0.2487731 0.472491
0.14206715 -0.19318417 -0.13711053 0.22391678 -0.22166291 -0.26837283 0.15038069 0.2864519
-0.20654304 -0.32391375 0.08443474 0.1800138 0.21419956 -0.34179547 0.37692916 0.07871155
0.17467548 0.10620221 -0.0391069 0.37879983 -0.33174002 0.30160668 0.6398172 0.28372294
0.38284087 0.12641627 -0.010906922 0.027798934 -0.050505 -0.5687102 -0.19547936 0.20221807
0.13184914 -0.5007888 -0.07517302 0.38464028 -0.051691864 0.50323594 0.23802784 -0.35000136
0.22132987 0.576166 0.3044484 0.4589356 -0.32603943 -0.09397066 0.06671174 -0.22066511
0.17828472 -0.0003548076 -0.6547567 0.36576927 -0.35585243 -0.6152939 0.40896904 -0.3766492
0.10207956 0.3111861 0.053337328 -0.36771157 -0.06823002 0.13288575 0.50269485 0.20819592
-0.29584053 -0.28015354 -0.45347318 0.41451192 -0.30482396 -0.057735063 0.70396423 -0.36156926
-0.04110584 0.2533087 0.35054147 0.48384914 0.64644974 -0.3964114 0.2195547 0.78946483
00000000: c8bb 823d 55e0 873c 8c86 fdbd f6b9 d0bc
00000010: 6f5f 76be 1fb3 05be ff60 50be 00cc 96be
00000020: c70f 0cbe a70b 24be 02eb 703d c4d5 a8bd
00000030: 2622 35be 315c 72bd f824 b73d 26a6 d6be
00000040: 0a97 933e 635f cd3d 168e 26bd bfdd a53e
00000050: 50bd 3f3c 8163 06be 53e5 d7bd 5471 a7be
00000060: e05e 6cbe df84 19be c40a 05bd bcda bebd
00000070: 17a7 6abe 73a7 7cbe 8ff3 cbbd 1bab 823e
00000080: 70a1 903d c498 3cbe c5c8 18be d656 8d3d
00000090: fdf3 76be fb3c 543d 3e7d 8b3e fab4 ad3e
000000a0: f119 ab3e 6057 063e 51b4 d43d 194f a8bd
000000b0: f91a c93c a2be 74be 7244 f6bd 0351 b93c
000000c0: a1c4 dfbc 7a9f 84be 531a 25bd 11f9 d53d
000000d0: 4e14 0f3e 6a5f 1d3d 83e3 853d b49b 0a3e
000000e0: 8d5c 1ebe c117 923e 9650 0c3e 006b 1c3e
000000f0: 1a90 0cbe c6d5 b8bc 19eb f9bd 56dd b8bc
00000100: 629c c03e 0c9d 6cbf 7c65 53bc 1ab6 a63e
00000110: d628 aa3d 3037 023e 3d05 c9be 74c5 893e
00000120: 5ed4 a3be 8c21 72bd 4bb6 1dbe 2738 bf3e
00000130: ba31 903e 9869 39bd 8282 f43e baf6 743e
00000140: da39 a23e 3b00 50bf c459 e4bd 041f 003f
00000150: 4a6f 93bd 5ba7 fb3e 0072 a8be 32f8 31bd
00000160: 3143 853e 3446 28bf 4078 60be 0251 90be
00000170: 5cf7 91bd 56c3 f23e a57f 74be 77b4 533f
00000180: 6659 843d 3e1c d9be a837 90be e397 37be
00000190: d42b 6dbe 988f 863e 5080 863d dca7 853d
000001a0: cb7e 863e ba04 6cbd b3d6 b5be 80ba f1be
000001b0: f8b7 cc3e 2711 bfbe e86f 26bf a090 bdbd
000001c0: c037 c3be 6e1c 78bf a7e3 f53d eacb e33c
000001d0: 2cf9 493f 75ce 4cbf d83d 673e 8c96 a1bd
000001e0: 5ebe 7dbe 0789 923e 1c5b 873d a576 543d
000001f0: 15aa 0dbf 570e b5be b8f6 20be 79cd a3be
00000200: 4555 2d3e 63b0 0fbe 4f33 c4bb 2d39 853e
00000210: bb4b e43d 416b 6b3d 54bb 94bd 6381 44bd
00000220: 56ad 84be 1a3a 06be 691c 1539 f837 143e
00000230: e504 5fbe d4e6 453e 138e 663e 1854 bbbd
00000240: d964 93bd 4f83 dcbc 9b40 bd3d 414a dc3e
00000250: baeb c8b9 9afe b8bc 154e 92bb 8d85 e9bd
00000260: f01d 08bb 45f3 1fbe 8cd9 39be b65a 34be
00000270: 4167 ffbd ce78 9b3d d67a 1e3e 9179 8a3e
00000280: 24c4 c63d 31d5 a3be 1e4b 18be b4e6 013e
00000290: f462 e5be bded a1be 593e dfbd 912a 78be
000002a0: fece 0a3f 744a 713d b95c 4fbd 9147 21bc
000002b0: 4618 98bd a21d a63d 60be 7e3e 57ea f13e
000002c0: 0d7a 113e 12d2 45be b466 0cbe 714a 653e
000002d0: 9afb 62be 2a68 89be 65fd 193e d3a9 923e
000002e0: 0580 53be 06d8 a5be 1fec ac3d 8a55 383e
000002f0: 2157 5b3e d1ff aebe dcfc c03e 8533 a13d
00000300: 21de 323e 8b80 d93d 8f2e 20bd 0df2 c13e
00000310: d4d9 a9be 316c 9a3e 0fcb 233f 2244 913e
00000320: b803 c43e 4473 013e f2b2 32bc 97ba e33c
00000330: 55de 4ebd fe96 11bf be2b 48be 4112 4f3e
00000340: 7603 073e b233 00bf 50f4 99bd 92ef c43e
00000350: d9ba 53bd 12d4 003f 92bd 733e 6133 b3be
00000360: 4ca4 623e 9d7f 133f a9e0 9b3e 9bf9 ea3e
00000370: a4ee a6be b073 c0bd 2aa0 883d 09f6 61be
00000380: 4590 363e 7805 bab9 239e 27bf 1c46 bb3e
00000390: 4a32 b6be e783 1dbf 6464 d13e 2ad8 c0be
000003a0: 170f d13d c953 9f3e 3e78 5a3d b144 bcbe
000003b0: 2ebc 8bbd 3413 083e 9cb0 003f 5031 553e
000003c0: 6978 97be 4970 8fbe a32d e8be e83a d43e
000003d0: e311 9cbe 9a7b 6cbd 0037 343f 9b1f b9be
000003e0: 995e 28bd aeb1 813e 2c7a b33e 13bb f73e
000003f0: bb7d 253f 6ff6 cabe f3d2 603e 5e1a 4a3f

decoder.LSTM.weight_hh_l0 f4 [256, 64]
-0.46987292 -0.25698426 0.14479505 -0.1448909 0.0043820287 -0.115053385 -0.05038462 -0.03107245
-0.108685195 0.23763639 0.24115273 -0.38699543 -0.07228589 -0.1860267 -0.05412385 0.14395289
0.17356874 -0.16247495 -0.26940858 0.31521526 0.4110729 0.12798037 -0.2543455 -0.24672376
-0.46104383 0.117657356 -0.038584203 0.24165745 0.40831134 -0.10198426 -0.030924357 0.02261625
-0.25820264 -0.10830715 -0.07702845 -0.34893042 -0.18176022 -0.08392422 -0.12441356 -0.3803004
0.075181395 0.12661491 -0.043316163 0.016457211 0.24329275 0.4232104 0.15991545 0.19485657
0.23379362 -0.13661055 -0.1782228 -0.33304772 -0.057721693 -0.12935933 0.0773266 -0.28489816
-0.16190813 -0.1529206 0.11722547 0.18295723 0.12558085 -0.04700323 0.010185124 -0.028253203
0.8952858 -0.109595194 -0.06448325 -0.053145 0.41448772 -0.40678793 0.033110186 -0.1021497
0.18797387 0.4089419 -0.9986633 0.26224938 0.32509604 0.21812673 -0.09024684 -0.07283974
0.016651798 0.118308045 -0.113742426 0.511386 -0.3603129 -0.040550042 0.584156 0.064938754
0.16627602 0.30573982 0.26863268 -0.2624974 -0.22484085 -0.1924016 -0.009214268 0.07078091
-0.24543388 0.1484118 0.2289543 0.051771812 0.23829152 0.11896605 0.56720597 0.50243545
0.57055736 1.0036938 0.19271295 0.28635982 -0.2458193 -0.16076544 -0.09856575 -0.20715147
-0.24815106 0.09752798 -0.2473077 0.124135144 -0.2372558 0.2070081 0.35289177 0.005307842
0.067909926 0.20728102 0.24186769 0.38991457 0.1424923 0.4103131 0.18658167 0.0032111101
-0.12391636 0.17974088 0.257514 0.7656039 -0.0342653 -0.1490129 -0.1041614 -0.30483472
0.08672152 0.19332102 -0.23640223 -0.018525979 -0.1645581 0.12168933 -0.3583794 -0.18721202
-0.79053193 -0.053458933 -0.032484718 -0.022935783 -0.25789025 -0.016825246 -0.479314 -0.01165224
-0.09752997 -0.26084355 0.034743212 -0.07290396 -0.009721422 -0.31194004 -0.6289932 -0.21428019
0.32360592 0.13479863 -0.4392325 0.55240226 0.046518683 0.27526516 0.37874165 -0.21570691
0.2616572 0.016423823 0.077885665 -0.11736303 -0.028004024 0.08410145 0.15010256 -0.78487825
-0.24233492 -0.0705032 -0.45395327 -0.10517421 -0.40273806 -0.10191569 -0.16137636 0.4489463
-0.23977163 0.21241671 0.21766108 0.12974511 -0.017080165 0.088806026 0.059519697 0.5622329
0.47437048 0.11803274 0.0225996 0.11287093 -0.11568178 -0.3942072 0.35190648 0.32697788
0.40895036 0.04112198 -0.3709642 -0.04550225 0.008214511 0.14323954 -0.9411398 0.058031972
-0.25051346 0.14203116 -0.053490948 0.23045543 0.3870949 0.357977 0.08102059 -0.11887181
-0.59379935 -0.0066735367 0.048846904 0.028791571 0.19671315 -0.6105327 -0.22198796 0.80615526
0.31220683 0.22794032 0.7307735 0.15405023 0.07946444 0.7387596 -0.412824 0.24372765
-0.65571296 0.23736766 -0.0027467422 -0.47509107 -0.32195443 -0.6645301 0.2778719 -0.37380219
-0.85954005 -0.12384757 -0.49783263 0.21764359 0.07973612 0.07045759 -0.4306488 0.25901958
-0.05640256 0.11528479 0.2263132 -0.27439615 -0.20442714 0.05157529 0.009007931 0.29248163
00000000: 2f93 f0be 7193 83be 2745 143e 485e 14be
00000010: 1f97 8f3b 1ca1 ebbd 1a60 4ebd a78b febc
00000020: 5896 debd f456 733e bef0 763e 4424 c6be
00000030: a00a 94bd c97d 3ebe f8b0 5dbd 6368 133e
00000040: 01bc 313e d55f 26be ecef 89be e563 a13e
00000050: 2678 d23e 490d 033e 9339 82be 27a5 7cbe
00000060: f00d ecbe 57f6 f03d 780a 1ebd 0d75 773e
00000070: 2f0e d13e 20dd d0bd 1455 fdbc b745 b93c
00000080: 2333 84be 24d0 ddbd 18c1 9dbd 02a7 b2be
00000090: 5a1f 3abe 76e0 abbd 89cc febd bcb6 c2be
000000a0: b4f8 993d 57a7 013e 4a6c 31bd 46d1 863c
000000b0: bc21 793e 09af d83e e0c0 233e 7b88 473e
000000c0: 9867 6f3e a3e3 0bbe 0a80 36be 3b85 aabe
000000d0: 956d 6cbd c676 04be 695d 9e3d 2cde 91be
000000e0: 3fcb 25be 3897 1cbe e813 f03d 2459 3b3e
000000f0: 4498 003e 7586 40bd 82df 263c 4373 e7bc
00000100: 7331 653f 7273 e0bd cb0f 84bd 92ae 59bd
00000110: bc37 d43e 8246 d0be 8c9e 073d dd33 d1bd
00000120: 397c 403e d560 d13e 66a8 7fbf 8d45 863e
00000130: fd72 a63e 9d5c 5f3e 56d3 b8bd 002d 95bd
00000140: 5a69 883c 7d4b f23d caf1 e8bd 31ea 023f
00000150: ef7a b8be cd17 26bd 3f8b 153f 9cfe 843d
00000160: 4344 2a3e ee89 9c3e 398a 893e 0f66 86be
00000170: ae3c 66be ed04 45be 71f7 16bc 95f5 903d
00000180: 0553 7bbe 43f9 173e ff72 6a3e ae0e 543d
00000190: b102 743e 79a4 f33d 6934 113f 9c9f 003f
000001a0: 0c10 123f 0a79 803f 8b56 453e c19d 923e
000001b0: 0eb8 7bbe b29f 24be d7dc c9bd 841f 54be
000001c0: 501b 7ebe c0bc c73d 3b3e 7dbe 913a fe3d
000001d0: 2ff3 72be eef9 533e 3bae b43e 68ed ad3b
000001e0: 5c14 8b3d 7a41 543e 2aac 773e e2a2 c73e
000001f0: 80e9 113e 8f14 d23e 440f 3f3e 7d71 523b
00000200: dcc7 fdbd fe0d 383e e0d8 833e 9efe 433f
00000210: c559 0cbd d696 18be 9252 d5bd 4c13 9cbe
00000220: 0d9b b13d f2f5 453e 6d13 72be cbc3 97bc
00000230: eb81 28be 4138 f93d 817d b7be 82b4 3fbe
00000240: 4d60 4abf c1f7 5abd b20e 05bd d3e3 bbbc
00000250: 310a 84be 19d5 89bc a568 f5be 09e9 3ebc
00000260: cbbd c7bd 498d 85be e64e 0e3d ac4e 95bd
00000270: 9946 1fbc 9bb6 9fbe b305 21bf 446c 5bbe
00000280: adaf a53e a708 0a3e 15e3 e0be 3c6a 0d3f
00000290: 608a 3e3d 8eef 8c3e 6dea c13e 46e2 5cbe
000002a0: eff7 853e 418b 863c 8582 9f3d 075c f0bd
000002b0: b268 e5bc 623d ac3d 7cb4 193e c8ed 48bf
000002c0: a526 78be fb63 90bd 906c e8be 9465 d7bd
000002d0: af33 cebe 2cb9 d0bd d83f 25be 4adc e53e
000002e0: b286 75be c483 593e 8ce2 5e3e e7db 043e
000002f0: b4eb 8bbc efdf b53d edca 733d 7fee 0f3f
00000300: b0e0 f23e 26bb f13d cc22 b93c e028 e73d
00000310: 92ea ecbd 87d5 c9be 162d b43e a569 a73e
00000320: f161 d13e 856f 283d 05ef bdbe 9160 3abd
00000330: 2896 063c 63ad 123e 8aee 70bf efb2 6d3d
00000340: 4d43 80be 9e70 113e 5319 5bbd 82fc 6b3e
00000350: 4d31 c63e c348 b73e 20ee a53d 1073 f3bd
00000360: 3c03 18bf afad dabb b113 483d 4ddc eb3c
00000370: 2c6f 493e df4b 1cbf d050 63be 3160 4e3f
00000380: 93d9 9f3e 3069 693e f913 3b3f 58bf 1d3e
00000390: 41be a23d 591f 3d3f ab5d d3be be93 793e
000003a0: cedc 27bf 8210 733e b002 34bb 233f f3be
000003b0: 36d7 a4be a51e 2abf 3a45 8e3e 0063 bfbe
000003c0: d10a 5cbf cba3 fdbd ebe3 febe f6dd 5e3e
000003d0: b14c a33d 124c 903d 007e dcbe 379e 843e
000003e0: 5f06 67bd 6f1a ec3d a6be 673e a77d 8cbe
000003f0: 5955 51be 9c40 533d 0096 133c 27c0 953e
