tut1-model.pt (torch_old, 250433 bytes, 14 tensors)

encoder.embedding.weight f4 [28, 32]
00000000: 7674 dc3c 7ca0 5dbd 617e 6d3d 61a3 8cbc
00000010: 8aef 463d ee49 88bc 5f25 4f3d f371 013d
00000020: d15a 873d 9237 703d c329 bb3b d6b5 873d
00000030: 081c 2d3d 43fe cc3c c62f 18bd 6c1b e0bc
00000040: ca98 123d 5cf1 39bc 4f62 85bd b3f8 0abd
00000050: 8c0d 873d 31a6 6cbd 8422 9c3d b111 0f3d
00000060: 3bcf 8c3d 6164 2dbc f6ba c2bb e96e 1bbd
00000070: a389 73bd 732b febc c0ba 573d 1f23 813d
00000080: 666c c03b ac77 6c3d 5cf8 363d 8d81 0b3d
00000090: cd42 fcbb 97fc 22bd 1cff 4e3d d702 95bd
000000a0: e62a 9abc 4354 9fbd 66ef 063d 37c5 88bd
000000b0: 1151 a13d 1a5f 7a3d a188 90bd 8fb0 c13c
000000c0: 71f1 9a3b 7883 85bc 1c2b 25bd 4a20 b2bc
000000d0: f002 9cbd 2ee8 00bc 24f5 193d 0a2a 4d3d
000000e0: 9a3c 8dbd 5cd8 9b3d cd82 8cbb 76a0 fabc
000000f0: ae8d 6e3d 8f06 d63b 7178 1e3c fbc9 9ebd
00000100: 08aa f83e f7ce bdbd cdc4 97bd 98c4 bc3e
00000110: c08d 733e d47b 873f ce4c 1bbf 5e9a d03e
00000120: 6e82 e73e a2c4 84be 4d20 ae3e 3b90 4f3e
00000130: b98d 1dbf 1dc1 5cbd 0a4f 8e3e d332 9ebd
00000140: 02b3 0bbe 0f7f 013f 8df9 bebe 646f 913e
00000150: afc0 103f 80fe e93e 9958 ffbe 89a9 f13d
00000160: 048f a43e 2abe 0ebf 92f4 253e 66a3 133f
00000170: 0c65 233f badb 08bf d2be 983e fab9 2cbe
00000180: ef79 01bf 08c5 f43e ffe2 d23d 6d4f 8e3e
00000190: 87c7 893e 8e13 d5be 5941 8bbc 6bd9 33be
000001a0: 0aa7 91be dfbd 183e 15d5 1fbd 2c5a 003f
000001b0: 128b 663d 79a0 6bbe 47af c8bc 3812 503e
000001c0: 1af3 89bf a18c c53e 617e 9d3d ad09 83bd
000001d0: b23d 43be ea2a aabe f85a bebe 2e64 cebe
000001e0: 8347 ebbe b0a2 e53e b674 c43d fc94 873d
000001f0: d56d fb3d ebf1 f23c 51c8 89be b0ca 033f
00000200: 978a e93e 8ca5 13be c42f 68be 1f52 1e3e
00000210: 78bb 81bd 02e4 4a3f 2a48 9cbe 990b 173e
00000220: bc8d 653f 4ce5 a2bd 001a b5be c814 2e3c
00000230: ccd1 25be c597 ba3d b5de 6d3e 6753 2fbf
00000240: 3a16 5b3e a468 a93d 8136 613e 1e02 3abd
00000250: 6c7b bdbd 7e80 8d3f bb57 45bf 12c3 a13f
00000260: ad8a f83d 2309 acbe 996c 3fbe 5b91 2c3e
00000270: 42e3 81be 1494 8dbd 2b34 03be 83a7 b43c
00000280: 2ef2 213e a95d dabe c61e c8be f38a 8d3e
00000290: e76b 213e 0522 27be bdac ea3e cb33 8cbf
000002a0: a82a 1bbd 31a5 103f 0f3b 0ebf 7777 60bf
000002b0: 9fe5 d03e e5f5 f13e e854 443e bb7e a6be
000002c0: a841 1b3f 43dd 16bf 1183 9e3e ac88 acbe
000002d0: af18 dabe 9f05 fcbd 6161 b7be aa2e 863e
000002e0: ea8c a63d fa7b 933e d858 b1be 43be 01bf
000002f0: 9cca bbbe 1b98 a0bc f3ff c33e a91e 923e
00000300: 3d6e c33e e967 5f3d dfdf 9fbd 3d6d afbe
00000310: 28aa 7bbc 8096 b73e 54eb 7fbe efe2 363f
00000320: f548 d53d d16d 12bf 8bb2 d5bd 25ea 193f
00000330: 162b b7be c218 c4be 7467 89bd b59c 03be
00000340: 4912 28bf 13ce 3f3f dfa5 3bbe cc7a 913d
00000350: 3881 a03b 8d4d 873f c503 7fbe b59e 003f
00000360: be83 6c3e 5b0d ebbe 347c b33e 249f c23e
00000370: e36f 433e 3e4c 88be dce0 c0be 396a 9ebe
00000380: f25e ed3e e051 dc3e f7d2 debe 2eb8 3cbf
00000390: ed9e 5cbe 2af8 bd3d 8c1f 4cbe 709a c6bd
000003a0: 4b12 b83e 0763 fd3d f005 e3be 37de bc3e
000003b0: 1eed a63d ce0d 283f 1a43 11be 039a 41bf
000003c0: e54e f5be bb22 7bbc a8b6 ec3e 88a5 e33e
000003d0: 5a3a 81be b16d 3c3e b2a6 0b3b 37d3 183e
000003e0: 76ad c23d cb43 87be 7dca 2fbf b29a 193d
000003f0: f817 19be 58c3 2e3d ee7f cfbe 1456 163f
0.026911002 -0.054108128 0.057981852 -0.017167749 0.048568286 -0.016636815 0.05057275 0.03160281
0.06609119 0.058646746 0.0057117655 0.06626479 0.04226306 0.025023585 -0.037154935 -0.027356826
0.035790242 -0.011349048 -0.065128915 -0.033928584 0.06594381 -0.05777568 0.07623771 0.03492898
0.068754636 -0.010583014 -0.0059426976 -0.03794757 -0.059457432 -0.031026578 0.052668333 0.06305527
0.005872297 0.057731315 0.044670448 0.034059096 -0.007698393 -0.03979167 0.05053626 -0.07275932
-0.018819284 -0.077797435 0.032943152 -0.06678241 0.0787679 0.061125852 -0.0705731 0.02364376
0.004728489 -0.01629804 -0.040324315 -0.021743912 -0.07617748 -0.007867856 0.0375873 0.05008892
-0.068963245 0.07609627 -0.0042880536 -0.030594092 0.058240585 0.0065315436 0.00967227 -0.077533685
0.48567224 -0.09267991 -0.07410584 0.3686874 0.23784542 1.0584664 -0.6066407 0.40742773
0.45216697 -0.2593127 0.3400902 0.20269863 -0.61544377 -0.053895105 0.27794677 -0.07724538
-0.13642505 0.505845 -0.37299767 0.28405297 0.5654401 0.4570198 -0.49872282 0.117999144
0.32140362 -0.5575892 0.16206577 0.576712 0.6382606 -0.53460276 0.29833084 -0.1686782
-0.5057668 0.47806573 0.10297202 0.27794972 0.2691004 -0.41616482 -0.016998934 -0.17563407
-0.28447753 0.1491618 -0.03902157 0.5013759 0.05628497 -0.23010434 -0.024497641 0.2031945
-1.0777314 0.38583854 0.076901205 -0.0639833 -0.19066504 -0.33235866 -0.3717878 -0.40310806
-0.45952997 0.44850683 0.09592573 0.066202134 0.12276808 0.029656371 -0.26910642 0.5148115
0.45613548 -0.1441862 -0.22674471 0.15461014 -0.06334585 0.7925416 -0.30523807 0.14750518
0.89669394 -0.07953891 -0.353714 0.010625072 -0.16193312 0.09110979 0.23229487 -0.68486637
0.21395198 0.08271912 0.21993448 -0.045412175 -0.092520565 1.1054838 -0.7708699 1.2637656
0.12135825 -0.3360072 -0.1869377 0.16852324 -0.25368696 -0.06913009 -0.12812869 0.022052532
0.1581504 -0.42649582 -0.39085978 0.27645072 0.15763818 -0.16321571 0.45834914 -1.0953306
-0.037882477 0.5650206 -0.55558866 -0.8768229 0.40800187 0.47257915 0.19173014 -0.32518563
0.6064706 -0.5893137 0.3095937 -0.33698022 -0.42596957 -0.1230576 -0.35816482 0.26207477
0.08132346 0.28805524 -0.34638095 -0.5068094 -0.36678016 -0.01960378 0.3828121 0.28539017
0.38170043 0.054542456 -0.07806372 -0.3426303 -0.015360393 0.3585701 -0.24992114 0.71440023
0.10414306 -0.57198817 -0.10434445 0.601229 -0.3577506 -0.3830014 -0.06709185 -0.12852748
-0.656529 0.7492382 -0.18324994 0.071035 0.0048982166 1.0570542 -0.24903782 0.5024217
0.2309713 -0.45908627 0.35055697 0.3801204 0.1908565 -0.26620668 -0.37671554 -0.30940416
0.463615 0.43031216 -0.43520328 -0.73718536 -0.21545 0.09275849 -0.19933909 -0.09697425
0.35951456 0.123724036 -0.44340467 0.36888286 0.08150695 0.65646064 -0.14185753 -0.7562563
-0.47911754 -0.015328105 0.46233106 0.44462228 -0.2523983 0.18401219 0.0021309075 0.14924322
0.09505741 -0.2641891 -0.6866835 0.037501045 -0.1495055 0.042666763 -0.4052729 0.58725095

encoder.LSTM.weight_ih_l0 f4 [256, 32]
00000000: 9a45 0bbd ee64 6cbf 5b4d 91be 51b2 023f
00000010: 3129 fabe 0f0f 3f3f 9f6f a0bf c1cc fdba
00000020: dafc 2ebf 59ef 07bf cfa4 993f c214 b23e
00000030: 3f02 22bf 17a4 6ebe 2e19 8b3f 021e 233f
00000040: edb5 87be aa3e 023e 9c99 b93e 3793 e13e
00000050: a849 edbe c69f dbbd 8ed6 1cbf 56f5 7f3e
00000060: b95a 7bbf 4c15 3e3f cb48 3fbe 5c75 7b3f
00000070: 5a9f 4e3f 8509 76bf 34c9 24bf 7483 c53e
00000080: d4c3 bbbe 63b4 bdbe 722e d23e 7168 023f
00000090: 4e65 91be 088e ed3d 40e6 bd3d 6485 473e
000000a0: 5acf 2ebc 9388 74be 7095 b9be c31f 25be
000000b0: 090f eebd 7770 afbe d285 afbd e114 1cbd
000000c0: b409 4cbe a2ce fd3e ba13 7bbe 4473 80be
000000d0: ba09 193e 17d1 a53e 8cee 65be 9473 6f3e
000000e0: 69d8 50bc 3804 093f f4bc 083f 2a33 273e
000000f0: 4455 2d3d 30f9 7f3d 7eda 29be 19a1 a7be
00000100: 8ad5 833e 877a 003e 2a12 66be 9dcd fabd
00000110: 080f c0be 1420 90be 7d58 043d c496 0cbe
00000120: 2896 263e 90fb e2bd f8db 92bd 080b 94bd
00000130: dbe1 3a3e d895 933e 4f26 79be 427f 99bd
00000140: 22a3 ba3c a1b5 a4bc 7d3d a23e b159 de3c
00000150: 2734 76bd eb8c 17be 5102 2e3e ae22 8ebc
00000160: e25c bc3d 7396 303e 7b07 c6be 22f4 373d
00000170: e98e 4a3d 7c86 37be a730 97be 862c d03d
00000180: 9224 0fbe 840e 56be 72a6 133e f9be db3e
00000190: f664 cabd 5e36 413d 260d 283e d58b 20bd
000001a0: 4045 133e 4004 c63d 2d23 123c 929c 80be
000001b0: 6444 b13d de6a b3bd 2b8a 39be 56ec 363c
000001c0: b684 c03d a335 4dbd 488f 2ebd 4515 04be
000001d0: 3b89 a33e 5ab0 cfbe 04fb 523c 1b40 a8be
000001e0: dc55 363e 1772 bf3e 45f3 e7bd d861 46be
000001f0: 064c 5a3e 3172 de39 60c9 5d3e 63f9 c73c
00000200: ae9e 573f bdb8 e5ba fbab 98bd 7f15 ba3c
00000210: ca23 d6be 966e df3e 9660 9dbe 4804 0a3f
00000220: 30fa 6a3f 91d3 17bf 114c afbe ae37 e63d
00000230: b04a bbbe 842e 0d3e 4f34 2ebe 59a4 0bbf
00000240: 2e88 8ebd 121f 743e 941d 8c3e 9759 e53e
00000250: 655e b83d 3e0e 3b3f 81a0 01bf 03ed 5b3f
00000260: 3a21 bc3e 5b95 e4be 1f07 7dbf 37b7 553f
00000270: 1de9 923e 24b0 05bf e07a f9be f012 9d3e
00000280: d2ac 123e a13b 103e a22a 753c b9bf df3e
00000290: 092e c7be 91a9 1cbd d3de 23be 5e41 573e
000002a0: c95d 303e 2360 6fbe a7c4 2b3c 9057 0d3f
000002b0: 9749 fabd 23d0 edbe 8405 f6be cac0 673d
000002c0: 79b3 42bf dfe1 183f d96b e9bc 7e45 873e
000002d0: b79c 043f ae7f 1c3e 0ac1 e4bd da7a a13e
000002e0: 0f6f 983e 2836 fb3e f7a1 98bd c908 1d3f
000002f0: 92b9 a53e 54f9 0cbf 4caf ebbe f4af 543e
00000300: 8ac1 d93e 832d b0be 392b 84be 85f2 3d3e
00000310: 269e 1dbf ff12 c13e 60fd 20be 3f53 d03e
00000320: df22 243f 0d3f 05bf 6051 56be 7942 863e
00000330: e5bd 5bbf 590c 0dbe 721c 39bd 5532 87be
00000340: dc5f 69be c58d b63e 7929 603e bbf3 523f
00000350: bced df3d cc67 b83e 7701 14bf 3cf7 f33e
00000360: 3d9a 553f 8719 d93e e5a3 85be 3a97 4a3f
00000370: 28bf 423f 61d7 91bf 8da9 27bf 5751 f03d
00000380: 40e7 e93e f10e 843c 42b6 17bf d5bd 03bf
00000390: be4f 97be 423c 62be 040c 0fbe 9175 9abe
000003a0: 2d57 5ebe e8a0 e73e 906f 813d 0bef a23e
000003b0: 5aad 1a3f 4c8c 793e a555 04bd 454a da3c
000003c0: c730 8fbe 6763 b1be 6e2c 1f3f e5a8 6ebe
000003d0: 8ee5 12bf a66f 853e 2747 ff3e 9436 0c3e
000003e0: 5f1c b63c 7f21 e73c 404a bfbe db02 5ebe
000003f0: d097 b7be 4d86 3ebc 62b6 e3bd 26e3 063f
-0.034001924 -0.92341506 -0.2837933 0.5105334 -0.48859552 0.7463235 -1.2534064 -0.001936339
-0.6835457 -0.5309959 1.200342 0.34781462 -0.6328468 -0.23304783 1.0867059 0.63717663
-0.26505986 0.12719217 0.36250007 0.4405763 -0.46345258 -0.10723834 -0.61264884 0.24995932
-0.98185307 0.74251246 -0.18680112 0.9822595 0.807119 -0.96108276 -0.6436951 0.38576853
-0.36672843 -0.37051687 0.4105106 0.50940615 -0.28397602 0.11599356 0.09272432 0.19484478
-0.010669554 -0.23880224 -0.36246824 -0.16125397 -0.116239615 -0.3426549 -0.08570446 -0.03810585
-0.19925576 0.4957171 -0.24519244 -0.2508794 0.14945117 0.32386085 -0.2245428 0.23383933
-0.012746909 0.5352206 0.5341332 0.16328111 0.042317644 0.062493503 -0.16587254 -0.32740095
0.25748855 0.1254674 -0.22467867 -0.12246249 -0.37511468 -0.28149474 0.03231095 -0.13729388
0.16268218 -0.11083138 -0.07170862 -0.072286665 0.1825022 0.2882526 -0.2433102 -0.074949756
0.022782866 -0.020106139 0.31687537 0.027142378 -0.06010833 -0.1479985 0.16993071 -0.017350521
0.091974035 0.17244892 -0.38677582 0.044910558 0.049452696 -0.17922395 -0.29529306 0.10164742
-0.13978794 -0.20903975 0.14418963 0.42919138 -0.09882538 0.04717099 0.16411266 -0.039195854
0.14381886 0.096687794 0.008919519 -0.25119454 0.086556226 -0.08760618 -0.18119113 0.011164745
0.094003126 -0.05009998 -0.042617112 -0.12898739 0.31940636 -0.40564233 0.01287723 -0.3286141
0.1780619 0.3739173 -0.11325697 -0.19373262 0.21318063 0.0004242822 0.2165885 0.024410909
0.842265 -0.001752637 -0.07454678 0.022715328 -0.4182418 0.43639058 -0.30737752 0.5391278
0.91788006 -0.593072 -0.34237722 0.11241089 -0.3658042 0.13787276 -0.17012142 -0.5454765
-0.06959568 0.23839977 0.27366316 0.44794914 0.09002379 0.73068607 -0.50635535 0.85908526
0.367441 -0.446452 -0.9883899 0.8348269 0.28693476 -0.52221894 -0.4872656 0.3067851
0.14323738 0.14085247 0.014963778 0.4370096 -0.3890231 -0.03824765 -0.1600297 0.2102103
0.17223276 -0.23376517 0.010483897 0.55211735 -0.122210674 -0.46447858 -0.48051083 0.056580342
-0.76055104 0.5971965 -0.028493809 0.26420206 0.5180163 0.15283081 -0.11169632 0.3153904
0.2977223 0.49064755 -0.07452767 0.6134153 0.3236814 -0.55067945 -0.46032178 0.20770246
0.4253047 -0.34409723 -0.25814226 0.18549545 -0.6156944 0.37709805 -0.15721655 0.40688512
0.6411571 -0.5204933 -0.2092948 0.2622259 -0.8583663 -0.13774242 -0.045193143 -0.26405588
-0.22790474 0.35655037 0.2189082 0.82403153 0.10934016 0.3601669 -0.57814735 0.47649562
0.83438474 0.42402288 -0.26101604 0.79137003 0.7607293 -1.1393853 -0.6549309 0.11734264
0.45684242 0.016120406 -0.5926248 -0.51461536 -0.29553026 -0.22093299 -0.13969427 -0.3016782
-0.21712942 0.4523995 0.06320107 0.31823 0.60420763 0.24369925 -0.03230824 0.026646743
-0.27966902 -0.3464615 0.6217717 -0.23306616 -0.5738152 0.26061743 0.49858972 0.13692695
0.022230325 0.028214214 -0.37361336 -0.21680777 -0.3585801 -0.0116286995 -0.11118771 0.5269035

encoder.LSTM.weight_hh_l0 f4 [256, 64]
00000000: bccf 883f bb68 1b3e 77a1 ca3d ad26 d53d
00000010: e041 98be 1ff9 933f e181 f5bd 913e 28bf
00000020: d929 48bf bf3b 2ebe aa84 df3e 4964 673e
00000030: a93a b73d 8773 40be 2df7 acbe 6ae2 1b3f
00000040: 85c2 893e 874b a83e b3c4 3c3c d823 c2bd
00000050: 9a50 8d3e 9940 d5bd ea4a 2c3f 956f 203e
00000060: 2457 8b3d d6cf 71be 512f 91be aa43 883e
00000070: 9924 8fbd 8268 88bc eaee 2abf c286 4cbf
00000080: 9cb9 c7bd c1e3 673f e1d9 aebd 9440 b03e
00000090: 010f 80bd 0ae1 e33e 3449 7f3f 27fb 973e
000000a0: 7942 bcbd 7e42 61be da7a c9bd f235 a7bd
000000b0: dff9 99be 4efa 563e 64cb 4cbe 43bb e73e
000000c0: 676e 153e 692e ec3e 018f 25bf ce74 cdbc
000000d0: d393 d7be 337d 1bbe ea10 c8bd a61d a93d
000000e0: 45a0 78bd 7887 53bd 80bb 713f 3391 88bd
000000f0: 19ef 38bd 77ab c5be 39d8 7b3e aa87 253f
00000100: 10e4 2d3d f3d9 593f 1d6f d83e 20c3 c4be
00000110: 31a8 71bd db77 0a3e 3ce0 a4be 7a64 82bd
00000120: d465 f1bd 1b9f 853e 2c8d e9be e5d4 dd3e
00000130: f2ad 133e 4311 e6be 2e2f d43c 31b8 8e3e
00000140: a5da a53c fe40 493e e2a2 adbe accb 8bbe
00000150: b4a9 09bf 7e77 ff3d 1645 37bc 83cf a1bc
00000160: 9c34 593e 073b 62be 4036 123f 90df 0cbe
00000170: 0d72 b1be 14ce c3be 978f 593b 762c 31be
00000180: 3c2b 6bbd 4485 bb3e 86d5 303f 3fe7 fcbd
00000190: dfc1 d63e c07d 06be 46d6 6e3d 544e 433e
000001a0: 365f 8cbe 7f70 413e 5060 3c3f ce7b 0c3d
000001b0: f779 41be c2f4 d63e 355c c33e 22e5 033e
000001c0: bac6 873c eb9a 2bbf 9387 02be 6e19 e83e
000001d0: cd93 843c b772 30be 199b cbbd 2313 4e3e
000001e0: 43ef 73bc 91a5 3cbe b3dc c6bc 35f1 10be
000001f0: 45e4 00be a0a5 5bbd 87bd 90bf a9dd 26bd
00000200: 875a 4f3e ac31 c5be cd2d 4d3e c9db 16bf
00000210: c0ab 67be d833 2c3c b173 c7be 7f29 6f3e
00000220: 14a5 843c 7a29 913d 0f31 cbbe cb66 0f3e
00000230: ba52 13bb a389 0dbf 125d 07bd f2c6 843e
00000240: 61f1 53be f356 863d d36b a3be 22c6 8bbe
00000250: 24fa 13bf a9f2 1b3f 27a3 b73e 838d b83d
00000260: 1128 7d3e 385b d3be 974e 9d3e efd8 aabe
00000270: cb28 bdbc 9ae0 5cbe 3e96 853e 3d9f a1bd
00000280: d724 a4bd d3a0 023e 865f 5c3e d43a 80bd
00000290: c06a ce3e 1590 ad3c 119e 463e 3169 6a3e
000002a0: cbe0 91bf 33a4 463e 859d b23f 1e5c 363f
000002b0: b0e6 c4be 9788 b33e 3dd1 923e d43b 8abd
000002c0: 94a6 923e 9dd5 24bf d330 75be 307b 023e
000002d0: bbd0 743e 2f71 67be d4cc 89be ac60 58bb
000002e0: 644c 3cbd c08f bcbe 7c0f b4bd adb0 8d3c
000002f0: 0c30 183d 47dc c9be 46e9 893d 1d7c 37bd
00000300: 5708 073e 2bc6 81bd 0538 333d 823b dabe
00000310: 8495 54be c4ea 76be 7f3b 113d 23f0 173e
00000320: 379a 5c3b 2d98 713e 7922 f7bc ebe3 1c3d
00000330: 5de9 a83e d00d 77bd e423 babe f874 6ebc
00000340: cb5e 12bc 23a9 2dbe f91d a4bb e376 d73c
00000350: b49b 57bf 8835 153e 7b94 bdbd 04ff 623e
00000360: 0ded 16be acc3 213e 98a5 ebbe 96a8 8bbe
00000370: 4b7f bc3e 5ce4 173e 627b 673e 9421 103e
00000380: 29fe c0bd 7705 6f3e 9d56 f1be b2d2 823d
00000390: 1990 c03d 3a94 12bf bfa0 eebe bce2 bb3d
000003a0: 11d3 7a3e 21a3 02be 0a6d 823e cb42 f1bd
000003b0: feb6 1cbe c7e5 91be a4cc 3e3e 6652 bebe
000003c0: c182 553d adcb 083d 7503 45be 4de5 233f
000003d0: 182c a93e 7594 833e 35f5 0a3f 90a9 533e
000003e0: a5c9 66be e72f 9fbe 5fc2 99be 124c 983e
000003f0: 2fa9 03be 1945 b83d 4526 673e 8da7 8c3d
1.0688396 0.1517667 0.09894078 0.104077674 -0.2973776 1.1560401 -0.11987663 -0.6572047
-0.78188854 -0.17014979 0.43655902 0.2259685 0.089467354 -0.1879407 -0.3378233 0.60892355
0.2690622 0.32870123 0.011521506 -0.09479493 0.27600557 -0.10412712 0.6730181 0.15667565
0.0680373 -0.2361444 -0.28356412 0.26614124 -0.06989402 -0.016651396 -0.66770804 -0.79893124
-0.09752199 0.905819 -0.08537651 0.3442427 -0.06252862 0.4450763 0.99721074 0.29683802
-0.09192366 -0.21998021 -0.09837885 -0.08164586 -0.3007345 0.20993921 -0.19999462 0.45260057
0.14592896 0.46129158 -0.6467133 -0.02508011 -0.42104968 -0.15184478 -0.09768851 0.08257608
-0.06069972 -0.051642865 0.9442673 -0.066683196 -0.045149896 -0.3860738 0.24594201 0.6466013
0.042453825 0.8509819 0.42272273 -0.3843012 -0.05899829 0.13522284 -0.32202327 -0.06366821
-0.11787 0.2609795 -0.45615518 0.43326488 0.14421824 -0.44935045 0.025901403 0.27874902
0.02024586 0.19653699 -0.33913332 -0.27303827 -0.5377457 0.12473963 -0.011185905 -0.01975227
0.21211475 -0.2209283 0.5711403 -0.13757157 -0.34657326 -0.38243163 0.0033197158 -0.17302117
-0.05741428 0.3662511 0.6907581 -0.12348794 0.41944787 -0.13133907 0.058309816 0.19072849
-0.2741639 0.1889057 0.7358446 0.034297757 -0.18894182 0.4198361 0.38156286 0.12880376
0.016574252 -0.6703326 -0.1274703 0.453319 0.016183758 -0.1723126 -0.09941692 0.20124488
-0.014888587 -0.18422534 -0.02427516 -0.14154513 -0.12587078 -0.05362475 -1.1307839 -0.040738735
0.20249377 -0.3851446 0.20037003 -0.58929116 -0.22624111 0.010510407 -0.38955453 0.23355673
0.016191997 0.07087989 -0.39685866 0.14004056 -0.0022479729 -0.5528814 -0.033047743 0.25933033
-0.20697547 0.06559553 -0.319182 -0.272996 -0.5780356 0.60917145 0.35866663 0.09011366
0.24722315 -0.41280532 0.30724022 -0.33368632 -0.02309074 -0.21570054 0.26091188 -0.078917004
-0.08014839 0.12756662 0.21520814 -0.062612206 0.4031582 0.021186868 0.19396235 0.2289169
-1.1396726 0.19398575 1.3954321 0.7123431 -0.3845725 0.35065147 0.2867526 -0.067496926
0.28642714 -0.6438845 -0.23944406 0.12742305 0.2390775 -0.2260177 -0.26914084 -0.0033016605
-0.04597129 -0.36828423 -0.08792016 0.01729616 0.037155196 -0.3942587 0.067339465 -0.044796098
0.13186775 -0.06336626 0.043754596 -0.42623526 -0.2076016 -0.24112993 0.03545713 0.14837699
0.0033661255 0.23593207 -0.030167805 0.038303297 0.32990542 -0.060315907 -0.36355507 -0.014554255
-0.008933733 -0.16959052 -0.005008456 0.026301807 -0.8422196 0.14571202 -0.09256836 0.22167593
-0.14738865 0.15797299 -0.46024776 -0.27277058 0.36815867 0.14833206 0.2260566 0.14075309
-0.09423477 0.23341928 -0.47136393 0.06387843 0.094024844 -0.57257426 -0.46607015 0.091741055
0.24494578 -0.12757541 0.25473815 -0.11780318 -0.15304181 -0.2849562 0.18632752 -0.3717224
0.05212665 0.033397365 -0.192396 0.6402176 0.33041453 0.256992 0.54280406 0.20670152
-0.22537859 -0.31091234 -0.30031106 0.29745537 -0.12857507 0.08997554 0.22573192 0.06867895

encoder.LSTM.bias_ih_l0 f4 [256]
00000000: 302b 493e 9a58 f13e 205f 59bc bcd4 af3d
00000010: eb0f bf3e e650 4c3e 9877 a33d 082a ad3e
00000020: a300 573e 4bbd e43c 12e2 e2bc 9fe3 d3bd
00000030: 0dde 3b3e 3778 06be 5e47 2bbd 5500 cd3e
00000040: a536 6d3e 1bef e63e 9e37 033d 52aa 5c39
00000050: 19bd 7b3d 34f8 81bd 4b2f f73d 2261 ae3e
00000060: 53a3 853c 0640 393b 2070 c93e ec12 0f3e
00000070: 7768 2c3e 083a a63c cbe8 633e 984d d13d
00000080: 23ba 1e3f 181b 833e eada 083e b85f 8a3e
00000090: e0b3 3a3e 59be 763e 3bf2 903e 03ef 313d
000000a0: 8b8a 813e 01e5 a5bc 7bab 2d3d 57e7 313e
000000b0: 8f4c 50bd 9bb6 be3d e4f1 063d d56a cabd
000000c0: 0e97 083e 6f13 1f3e eb2e 7c3e b4d2 1ebd
000000d0: fac7 823e 8b6f 70bd da3d ab3e dbef 783e
000000e0: 0952 103e 77ec 493d 48d9 003f 6471 f33d
000000f0: 4e14 093e 5bf3 8fbc 64fd 6d3e 961a 803e
00000100: 438a 653d 9485 913e 46b3 a43b 32ea d6bc
00000110: 6179 223e 820b 303e e919 9bbc 2adf 3b3d
00000120: 5a9f d43d 63cc a93d c082 20be e0af 303d
00000130: 0449 23be ba24 97bc 3a9b a23e dab6 033e
00000140: f5b6 64bd bf2f 05bd 2b57 6dbd 6258 98bd
00000150: 66ab 18b9 787c c03d 0b80 993d 9a82 983e
00000160: c45a 833e 1db1 86bd 7336 ee3d 107b 09bc
00000170: 3cb4 0c3e bec1 7a3e 41e0 193e a675 3dbe
00000180: f242 d73e 5db9 efbd bfba 95be 7722 933e
00000190: 52d4 d73d 8aae 873e b7b3 59be 8dea 27bd
000001a0: 1e0b 933e f0d3 393e 5e8d fe3d b0a4 0dbe
000001b0: 675c ac3c 23e2 973c 3e0f 2d3e 57b0 713e
000001c0: 7838 f73c 1304 b63d 131c f3bd e950 ddbd
000001d0: 9b88 8f3e 617a 6b3d 4311 76be 9490 e53d
000001e0: e402 a03e 3582 d63e 9b9a 193e 4bf2 043e
000001f0: 47a5 823b 9fdf b53d ed74 a93e b141 14bd
00000200: 4b3a dc3d 7ba8 45be e3ad ceba 6b79 b4bd
00000210: a689 f7be 3cd6 92be 235a 6bbd de92 c0be
00000220: 114d 3c3e 165e 5e3e be54 64bd 5bc0 013d
00000230: 4465 b43d 8730 d2bd 46ae 5abd c91c a6be
00000240: e67e dabd 57bf 7b3d c24b a3bd 5fc7 62bd
00000250: 837e b03c 579a 423d 2caf b0bd 477c e43e
00000260: c5c4 a0bd 20c5 f8bd 9594 22bd 8080 13bd
00000270: 156c bd3d 3899 c5bd 0ff3 13be 09f0 233e
00000280: 90ae f2be b892 f3bc fcdd 25be c5ad d33e
00000290: 0763 223d c8a4 c0be 2420 5d3e e133 3abd
000002a0: 55d2 bcbe 1e5b 7fbd 4d9e ec3d ae2a 203d
000002b0: 2e09 a1bc 970f 5c3d 63d6 e1bc 033b 48be
000002c0: 1e9d 89be 2466 6bbe 44bc 6a3d 8368 363e
000002d0: 9bc1 f13e bacf 813e 6e23 2b3e cbcf dc3d
000002e0: fc34 c8be 25d7 403e 622f 92be da15 c33e
000002f0: f969 cfbe 28f6 aa3d 5705 b33d e7aa 2dbe
00000300: 759d d73d d441 f33e 8651 ff3c fefb 103d
00000310: b739 f73d 039b a43e dee4 f53d 09df c83e
00000320: e5d4 463d 6d58 d4bd bd36 9b3c 65b2 2bbe
00000330: ae4d e13d 3b6b b4bd 297a 0abd 6956 8c3e
00000340: 6874 893e ca0a 8f3e 0733 ff3b 0b22 003e
00000350: 2a19 c1bd c350 273e 4f20 2b3c 8a3c 063e
00000360: b4b4 753d 93e8 6e3e 31ce 023f 0d00 fbbc
00000370: 1e24 a7bd 511c 7d3e 6ff4 1b3e de21 a13e
00000380: eb64 913e bbd8 43bb 2aea fb3d 513b aabd
00000390: b9be 4d3e abb1 bdbd 086f 853e f02f 433e
000003a0: 8c74 c03e 1334 86bc 22ca 693c 1cfd 1a3e
000003b0: 97b9 c13d 81ad 103e b3f6 bebd 3555 2d3e
000003c0: 93b1 423c 412c 9e3d 4015 c33e e61f 8dbd
000003d0: 93e4 043e 304d 2f3e 3551 7d3d 2323 8f3e
000003e0: c5de 313e 23fa 5d3d 2589 c03d fe3e a43e
000003f0: 089b bc3d 10b2 4b3d d2ce e73e fbc1 753e
0.19645381 0.4713791 -0.0132673085 0.08585498 0.37316832 0.19952735 0.07981795 0.3382113
0.20996337 0.027922293 -0.02769569 -0.1034615 0.18346424 -0.13131796 -0.041816108 0.40039316
0.23165376 0.45104298 0.032035463 0.00021044284 0.061459634 -0.06346169 0.12069567 0.3405848
0.01631323 0.002826692 0.39343357 0.13972062 0.16836725 0.020291343 0.22256772 0.10219878
0.6200277 0.25606608 0.13364759 0.27026153 0.1823268 0.2409605 0.28309807 0.04344083
0.25301012 -0.0202508 0.042399865 0.17373405 -0.050854262 0.09312173 0.03294553 -0.09883658
0.13338873 0.15534757 0.24627273 -0.03877516 0.25543195 -0.058700126 0.33445626 0.24310248
0.14093794 0.049297776 0.50331545 0.11886862 0.13386652 -0.017572096 0.23241192 0.25020283
0.05604006 0.28422225 0.005026254 -0.02623472 0.15866615 0.1719189 -0.018933253 0.045867123
0.103819564 0.08290937 -0.15674877 0.043136477 -0.15945822 -0.01845013 0.31759053 0.12862721
-0.055838544 -0.032516237 -0.057944458 -0.07438733 -0.000145597 0.093987405 0.074951254 0.2978714
0.25655186 -0.065767504 0.11631479 -0.008391157 0.13740629 0.2448797 0.15026952 -0.1850191
0.42043263 -0.11705277 -0.29244038 0.28737232 0.10538544 0.2650035 -0.21259962 -0.04099517
0.2871942 0.18147254 0.124293074 -0.13832355 0.021040155 0.018540448 0.16900346 0.23602425
0.030178294 0.08887496 -0.11870589 -0.10806448 0.2803391 0.057489756 -0.24030022 0.11209217
0.31252205 0.41896215 0.15000384 0.12983052 0.0039869878 0.08880543 0.3309702 -0.03619546
0.10753306 -0.19302551 -0.0015768375 -0.08812221 -0.48347205 -0.28679073 -0.057459008 -0.3761205
0.18388774 0.21715578 -0.05574488 0.031677585 0.088083774 -0.10263162 -0.053388856 -0.32443836
-0.10668735 0.061461773 -0.07973434 -0.055365916 0.0215447 0.04751047 -0.086271614 0.44626066
-0.07850031 -0.121469736 -0.03969248 -0.03601122 0.09249131 -0.09648365 -0.14448188 0.16009535
-0.47398806 -0.029733047 -0.16197962 0.41343513 0.03964522 -0.37625718 0.21594292 -0.04545963
-0.3687922 -0.062342755 0.11553631 0.039103203 -0.019657698 0.053725805 -0.027568048 -0.19553761
-0.26877683 -0.22988182 0.05730845 0.17813306 0.47218022 0.25353795 0.16712734 0.10781821
-0.39102924 0.18832071 -0.28551775 0.3810261 -0.40510538 0.08347732 0.08741253 -0.16959725
0.105280794 0.4751116 0.031166803 0.03539657 0.12071555 0.32149515 0.120065436 0.39232662
0.048542876 -0.103684284 0.018947 -0.16767271 0.11001144 -0.08809515 -0.033807907 0.27409676
0.26846623 0.2793792 0.0077880654 0.12512986 -0.09428628 0.16339402 0.010444715 0.13109031
0.059986785 0.23330908 0.51095873 -0.030639673 -0.08161186 0.24717833 0.15229963 0.3147115
0.28397307 -0.002988382 0.123005226 -0.08312095 0.20092286 -0.09262403 0.26061273 0.19061255
0.37588918 -0.016382253 0.014269384 0.15135616 0.094592266 0.14128686 -0.09324398 0.16927035
0.011883157 0.077232845 0.3810215 -0.0689085 0.12977819 0.17119288 0.061845023 0.27956495
0.17370136 0.054193627 0.09401158 0.3207931 0.09209257 0.04973036 0.4527498 0.23999779

encoder.LSTM.bias_hh_l0 f4 [256]
00000000: 3bba 4a3e 984d f13e 6cd4 3a3d a490 263e
00000010: eb74 b13e 9e98 cd3d e97b 2f3e 7cdb cd3e
00000020: 713a 093e f300 5b3c 416c 6f3c 9902 eb3a
00000030: 437b c03d 6f34 85bd f98c e3bd 69d4 a73e
00000040: 1202 503e d71c e63e 005f 853d 3199 2bbd
00000050: e74c b33d 66a0 16be e449 6e3d c232 d03e
00000060: 8238 07bb 8bc7 1abd db90 dc3e 2246 383e
00000070: d71d c83d 9cd6 f53d 821c 3f3e 7e9f eb3d
00000080: 4d34 2d3f 384d 613e 4d15 903e 1582 ca3e
00000090: c51d 2e3e 06e6 593e c3ec b43e 1155 3a3e
000000a0: 2ce2 923e a098 003d e369 8b3d bbe5 763e
000000b0: d025 b73c 8aa3 423d 5921 073e 23a9 a7bc
000000c0: 92ec 833d db95 c33d d3a5 c03e 7a72 843d
000000d0: ea3c 593e c57b 55bd dcaf ab3e 51fa 8b3e
000000e0: 1371 fa3d 5cf1 513d 4ca5 ea3e d2e9 223e
000000f0: 68df 6c3e 1a39 7cbd 94cf 993e b6d9 6b3e
00000100: 6650 2dbd 2e6f 703e 940f d5bc 46ec 9bbd
00000110: 66a3 063e fab2 893e c1dc 08bd 8fbc 013e
00000120: 6dca 493e 4e5e 273e be9f f8bd 1d20 4dbc
00000130: 4a0c 35be f840 d33c 64e6 593e cbf4 303e
00000140: b9ad 403d 932a f23c 272b 5abd ca06 f0bd
00000150: 3c05 4a3d c1b7 eb3d 4746 163d 6433 843e
00000160: f998 4b3e 7afc fdbc 34fa 253e cc55 1dbc
00000170: d447 b83d 891b 893e 846c 7c3e addf 2dbe
00000180: f193 b43e 2ee1 3bbe cc07 a7be 8a65 5f3e
00000190: 0135 2e3e d72b 1a3e 1f71 68be fdc6 27bd
000001a0: dd46 553e 1bf9 523e 4a06 9abc e9c2 44be
000001b0: 0c9c 1ebc 1e61 a0bd 26a9 6a3e 4932 633e
000001c0: 1bc9 fcbc 13bb 973d be7f c2ba 01b0 64bc
000001d0: b948 943e f8aa f03d 8c39 edbd d18d 033e
000001e0: 99ad d83e d070 aa3e b632 6e3d baf9 253e
000001f0: b08f 6cbd 4623 883d 6f1f b33e ceab c1ba
00000200: dd63 5c3e 849e 91be 46a0 ac3d b356 1ebe
00000210: c49c e8be 7f25 afbe e69e 80bd aaea a5be
00000220: dd9d 113e 95e2 763e 3c40 34bd f03e 903a
00000230: 81a4 ba3d 5daa b6bd 538f 88bd 04e6 76be
00000240: a72a d4bd 37c0 033c caed 62bd 3b45 26be
00000250: ee9c 5b3b 3ea5 c93d 53cb b7bd b5ac f33e
00000260: 3383 29be 105d ac3c c10b 82bd 1b5b 9e3d
00000270: bfb6 863d 2a8a e0bd c121 23be 572a dc3b
00000280: 7b51 02bf 8f63 95b8 a651 5ebe 3805 dd3e
00000290: e26d 483d 15d6 cbbe 7260 403e 128b 913b
000002a0: bbe6 a1be a443 c9bd f140 0c3d 5017 343e
000002b0: aa57 dfbc 41de 303e 192e e3bd 7ec4 83be
000002c0: ecf1 8fbe ca07 76be fa3f c43b f467 ff3d
000002d0: 1656 083f bb33 483e 9d2f be3d 440a e33d
000002e0: b6e9 d5be fd7d aa3d 2838 91be da86 a73e
000002f0: e620 8abe c907 9b3d 190b 973d 10b0 63be
00000300: 0374 153e 9d69 b43e 768a 8ebc 2fa8 8ebd
00000310: ddb3 ff3d 36ca a13e 13b6 593e 272e aa3e
00000320: a6f9 863d fd52 02bd 7d09 3abd 1460 a0bd
00000330: d85c 613e 439d 85bc f737 7dbd e127 853e
00000340: 6917 283e 9236 9b3e 85f7 ce3d 9122 353e
00000350: 0437 7abc 2f79 943e cea2 853d e889 343e
00000360: 3a99 8c3d 6dff 503e 02ba ec3e f77d 18bd
00000370: 06bb 76bd 3289 303e 139d 883d 48c6 c43e
00000380: 3114 a43e 6a37 ccbc eec3 173e 3251 d2bd
00000390: e008 7c3e 60bf 46bd 40de ac3e dc78 ec3d
000003a0: 990e d13e edd7 e53b 767f 7d3d eded 813d
000003b0: b92e a73d 13e6 443d 66a2 64be 40e5 803d
000003c0: 67d4 483d ad83 6dba ed42 a43e 34c6 0639
000003d0: e533 063e 624a 063e 1c26 383d 1de8 6a3e
000003e0: 3d96 d13d 2a4a c23d 2360 123d 226a 8c3e
000003f0: b199 9f3d 2ce7 513d 5f2f d03e c88c 663e
0.19797604 0.47129512 0.045612738 0.16266114 0.34659514 0.10038875 0.17137112 0.40206516
0.134012 0.0133669255 0.014613212 0.0017929851 0.0939851 -0.065041415 -0.11110873 0.32779244
0.2031329 0.44943878 0.065122604 -0.04189414 0.08754902 -0.14709625 0.058175936 0.40663725
-0.0020633047 -0.037787955 0.43079266 0.17995504 0.097713165 0.12003824 0.18663219 0.1150503
0.6765793 0.22002113 0.2814125 0.3955237 0.17003544 0.21279153 0.35336885 0.18196513
0.2868818 0.031395555 0.06807306 0.24111073 0.022356898 0.047519244 0.13196315 -0.020466393
0.064416066 0.09550067 0.37626514 0.06467147 0.21214643 -0.05211999 0.33532608 0.27339414
0.122285984 0.05125557 0.45829237 0.15909508 0.23132098 -0.061577894 0.30041182 0.23032269
-0.042313002 0.23479912 -0.026008405 -0.07613425 0.13148269 0.2689436 -0.033413652 0.12669586
0.19706126 0.16344568 -0.121398434 -0.012519863 -0.17680469 0.025787815 0.21279293 0.17280881
0.047040675 0.029561317 -0.05326381 -0.11720045 0.0493214 0.11509658 0.036688115 0.25820458
0.19882573 -0.03100418 0.16208726 -0.009602975 0.08998075 0.2677882 0.2465077 -0.16979857
0.3526912 -0.18347618 -0.32623136 0.21816078 0.17012407 0.15055786 -0.22699402 -0.040961254
0.20827813 0.20602839 -0.018801827 -0.19214977 -0.009680759 -0.07831024 0.22916088 0.22187151
-0.030857613 0.074087285 -0.0014839096 -0.013957978 0.28961733 0.1175136 -0.11583242 0.12847067
0.42319945 0.33289194 0.05815383 0.16208544 -0.05775422 0.06647353 0.3498492 -0.0014775933
0.2152247 -0.2844125 0.08429007 -0.1546276 -0.45432103 -0.34208295 -0.062803075 -0.32405597
0.14220376 0.24109872 -0.04400657 0.0011005085 0.09113408 -0.08919213 -0.06667962 -0.24111181
-0.10359698 0.008041433 -0.055402555 -0.16237347 0.0033510285 0.098459706 -0.08974328 0.47592703
-0.16553955 0.02104047 -0.06349898 0.07732221 0.06577825 -0.10963853 -0.15930845 0.0067189145
-0.5090558 -7.123418e-05 -0.21710834 0.43168044 0.048932917 -0.3981177 0.18786791 0.0044416273
-0.31621346 -0.098273546 0.03424162 0.17587018 -0.027263481 0.17272283 -0.11092777 -0.2573585
-0.2811426 -0.24026409 0.005989072 0.12470999 0.53256357 0.19550984 0.09286425 0.110859424
-0.4177987 0.083248116 -0.28363156 0.3272007 -0.26978225 0.07569844 0.073751636 -0.22235131
0.14595036 0.35236827 -0.017400008 -0.06965672 0.12485478 0.31599587 0.21260862 0.33238336
0.065905854 -0.031817425 -0.045419205 -0.078308254 0.22008073 -0.01631034 -0.06182095 0.26006988
0.1641518 0.3031507 0.10105804 0.17688967 -0.015271906 0.28998706 0.06525193 0.17630732
0.06865163 0.20409937 0.46235663 -0.037229504 -0.060236953 0.17239836 0.066705845 0.38432527
0.32046655 -0.024928767 0.14820835 -0.10269393 0.2461276 -0.048522353 0.33763313 0.115464896
0.4083145 0.0070142657 0.061889134 0.06344209 0.081632085 0.04807098 -0.22327575 0.06293726
0.049030688 -0.0009060454 0.3208231 0.00012853072 0.13105734 0.13114312 0.04495822 0.22940107
0.10233734 0.09486802 0.035736214 0.27424723 0.07792986 0.051245853 0.4066114 0.22514641

decoder.embedding.weight f4 [28, 32]
00000000: 4629 32bd 7b41 0b3d 6344 32bd e664 2fbc
00000010: 2949 113c 369e 8bbd 40f5 4e3d 9ccb a23d
00000020: 9974 79bd 593a 83bd 97db babc ecb6 223d
00000030: d2ed cf3c ec22 2ebd 1711 7cbd f401 40bd
00000040: b63a 95bc 85c6 833d 7800 a7bc 8f1e 183b
00000050: 2e4b 403d 6186 ae3c 145a e93b be9d 31bd
00000060: 3db9 68bd 2432 f5bc 2d51 a1bd 0384 12bd
00000070: 3322 9b3c aeb9 4a3d 8ae0 af3c ec2b e83c
00000080: 0f08 1f3d c68a 66bd a9b4 473d 780e 9bbd
00000090: d68d 813d 7606 b13c 4049 fcbc e474 53bd
000000a0: 22f4 8ebd cd9f e9bc 3d60 873b d477 26bd
000000b0: 71bd f33b 29d4 7e3d ac84 50bd 8fe6 68bc
000000c0: f675 d23c 7232 8b3d 5c0f 46bb 973a 463d
000000d0: bb10 0ebd 5ccb b53b 52dc 8a3c 6e01 8f3d
000000e0: c863 c03c 8d83 1c3d e1f3 4bbd e67c 8e3d
000000f0: 6db7 883d 267f 8cbd 4cdb 0dbd 792a 4ebd
00000100: ab8c 753e a4a1 743e e2ca e6bc 6309 943d
00000110: 97d5 083c 1e42 0ebe 06cc afbd c088 393e
00000120: dcc2 3c3e d4fc f43c 6d46 833d a8a1 92be
00000130: 61b2 583e 031f 043f cf50 233e 8bcd 03be
00000140: d2fe 1d3e f500 443b 0e38 b4be 803b f23b
00000150: 2437 07be 3a8a b43d 1252 e93d cc3a bbbe
00000160: 1e49 e1be 9081 9dbd 59fc 6b3e e55a 253e
00000170: efc9 fc3d bcfa b23e 912b 0bbe 0a76 bfbe
00000180: 664b afbb 7967 96bd 8a8f 4bbc 8315 2f3d
00000190: ae34 5bbc 73b8 94bd c3b7 fb3b 2e68 d93c
000001a0: 1f61 62bd c330 423c 5c57 91bd 1200 b7bc
000001b0: 4d1b 50bd 6e7c 13bd 3351 73bd 0de9 d7bc
000001c0: 745c 3abd a4ea 88bd 141f 7d3d 2122 4f3d
000001d0: 3d53 393c 613f 413d b3b1 75bd b3be 053d
000001e0: 9cfc b4bc 2954 953d da1d 333d 0877 4b3d
000001f0: 3fd5 993d f001 80bd 0f7e e43c 1971 8fbd
00000200: 48c4 283f e1b9 aebe 7f41 79be f24b 58be
00000210: d057 b03e 094d 613f f89e 2c3e 5aac 12bf
00000220: ecb1 e33d af14 2e3f df95 473d 949d 96be
00000230: 0a03 a5bd 0609 ce3c 0c54 adbe 0e6c 2abd
00000240: 3212 8abb 31ad 10bf 1dc1 5f3f e0d9 cfbd
00000250: e0de 4f3f 738f 8abe 5e3a 78bc 7bb8 363f
00000260: db94 933e 3127 f7be eee0 46be a1a8 ee3e
00000270: 8a52 2fbf 368f 2ebf 1b56 a03e 8835 113c
00000280: 4473 b4be 889c c1bd 7236 f43c e4e1 ad3e
00000290: 44cb 95bd e5f1 9a3e 0a36 3d3e 13df 0c3f
000002a0: 4195 26be 098e bcbe a3e8 3d3e 142c a83c
000002b0: 801a dabd 8511 15bc 8af9 863e 637f 783e
000002c0: 4f31 8cbe 477a 793e a2b7 673e b7ec 05bf
000002d0: 5e59 1a3f de49 3b3d f323 3e3e 361d 0b3e
000002e0: b0cf 2bbd 7c76 cb3e 7b7b ac3e b228 92be
000002f0: ce73 ccbd 3723 443d 04a7 7fbe b801 c4bd
00000300: 29e0 913e a579 ecbe f903 f1be 332d a8be
00000310: 67a3 873e 9fb0 d53e 7133 f73c bb67 fbbe
00000320: 75e7 003d 66c7 47be 390d 39be b008 79be
00000330: f440 d43e ed14 75bf b0b8 43bf ff64 a63e
00000340: 3f0f 2b3d 5215 cabb ef47 8c3e 163c 113f
00000350: 794c b93e 0a1c c9be f1fc 46bf a1dd 6d3f
00000360: 9e0f dd3e 4df6 febd 95b4 50bf feaf a93e
00000370: aad2 22bf 06ed 6cbe 56c3 133f fdb3 0b3f
00000380: c2b0 27bf aec8 1bbe 02e7 5a3f 95da afbe
00000390: bd10 03bf c851 27bd d066 a43f 82ec d7bd
000003a0: 0395 9bbe 5114 9cbf f1c9 183f 1311 fc3e
000003b0: 4b0f 94be 4dd1 f3be ff16 6a3e f0b9 37be
000003c0: 9cb6 d5be 0739 bdbe e749 c9bd d2ec ebbe
000003d0: 0b0c ba3e 4a94 b1bc 445c 65be c052 723e
000003e0: c92c ff3e 971f 033e 516f 95bd 9c58 acbe
000003f0: df6a 223e e27f e8bd eeaf f2bd cd9d 1b3e
-0.043496393 0.033997994 -0.04352225 -0.010705208 0.00886754 -0.06817286 0.050526857 0.07948992
-0.06090221 -0.06407613 -0.022809787 0.03972523 0.025381956 -0.042513773 -0.061539736 -0.046876863
-0.018216472 0.06434349 -0.020385966 0.0023211574 0.046946697 0.021304311 0.007121334 -0.043363325
-0.056817282 -0.029931135 -0.07876811 -0.035770427 0.018937206 0.049493484 0.021469373 0.028341256
0.038826045 -0.05628469 0.048756275 -0.07571119 0.06325881 0.021609526 -0.030796647 -0.051625147
-0.069801584 -0.028518582 0.0041313455 -0.04064162 0.0074383547 0.06221405 -0.050907776 -0.014215126
0.025691014 0.06796731 -0.0030221557 0.04839572 -0.034683924 0.005547924 0.01695076 0.069826946
0.02348508 0.038211394 -0.049793128 0.06957416 0.06675611 -0.06860189 -0.034632966 -0.050333474
0.23979442 0.23889786 -0.028172914 0.07228353 0.008351705 -0.13892409 -0.08583836 0.18118572
0.18433708 0.029905714 0.06409917 -0.2863896 0.21161796 0.5160982 0.15948795 -0.12871377
0.15429237 0.0029907797 -0.35199016 0.007392347 -0.13204628 0.08815427 0.11392607 -0.36568296
-0.44001096 -0.07690728 0.23045482 0.16147955 0.12343203 0.3495692 -0.13590838 -0.37394744
-0.0053495644 -0.073439546 -0.012424359 0.042745125 -0.013379259 -0.072617434 0.007681818 0.026538935
-0.055268403 0.011852446 -0.070967406 -0.0223389 -0.050807286 -0.036007337 -0.05940361 -0.026356244
-0.045498326 -0.06685379 0.061797217 0.050569657 0.011311349 0.047179583 -0.05998392 0.032652568
-0.02209311 0.07291443 0.04372964 0.049674064 0.075113766 -0.062503695 0.02789214 -0.070039935
0.659245 -0.3412619 -0.24341391 -0.21122721 0.34441996 0.8800817 0.16857517 -0.5729424
0.1111792 0.6800031 0.048726913 -0.29417098 -0.0805722 0.025150787 -0.33853185 -0.041606955
-0.004213595 -0.5651427 0.8740404 -0.10148978 0.81199455 -0.27062568 -0.015150635 0.71375245
0.28824505 -0.48272088 -0.19421741 0.4661303 -0.6848532 -0.6818727 0.31315693 0.0088628605
-0.3524419 -0.09453684 0.029811118 0.33961403 -0.073141605 0.30262676 0.18477646 0.55027884
-0.16267873 -0.36827114 0.18545775 0.02052883 -0.10649586 -0.009098415 0.26362258 0.24267344
-0.2738137 0.24363051 0.22628644 -0.52314323 0.60292614 0.045724742 0.18568401 0.13585362
-0.041946113 0.39738834 0.33687958 -0.28546673 -0.099830255 0.047885146 -0.24966055 -0.0957064
0.28491333 -0.46186557 -0.47073343 -0.32846984 0.26491854 0.41736314 0.030175896 -0.49102578
0.031470735 -0.19509658 -0.1807145 -0.2431972 0.41455805 -0.95735055 -0.76453686 0.3249893
0.041762587 -0.0061670924 0.2739863 0.5673231 0.36191157 -0.39279205 -0.7772971 0.92916304
0.43175977 -0.12449322 -0.81525546 0.33142084 -0.636027 -0.23137292 0.57719934 0.54571515
-0.65504086 -0.15213272 0.8550874 -0.34346452 -0.51197416 -0.040849477 1.2843876 -0.10543157
-0.30387124 -1.21937 0.5968314 0.49231777 -0.28917918 -0.4762062 0.22860335 -0.17942023
-0.41740882 -0.3695757 -0.09828549 -0.46079117 0.36337313 -0.021677155 -0.22398478 0.23664379
0.49838856 0.1280502 -0.072966225 -0.33661354 0.1586108 -0.11352517 -0.11849962 0.15196915

decoder.LSTM.weight_ih_l0 f4 [256, 32]
00000000: 852f a7bc eb49 c43d 85a6 f33e 47ea dbbe
00000010: a304 08be e8c1 00bb d98a 123f 2250 a9be
00000020: 064e ab3e cdb0 8cbd b362 253c c669 53bd
00000030: c880 273e f3f0 cebc 88d8 263e baf2 d0bd
00000040: 354f 923e dcca 94be 8094 e93d 5677 063e
00000050: b037 20be 7407 bb3d 836c 52bc 7976 d83d
00000060: c316 ad3e caec 6fbd f6d9 35be 3690 d43c
00000070: ec42 ac3e 9629 44be 8465 973c cbef 04be
00000080: 25af 8a3d 4b1d a63d a63e 1fbe 8c55 193e
00000090: 9f34 733e a53b 7dbc 5e3c adbe b986 1e3d
000000a0: 6e6b beba acb3 8ebe 252d e4bd c61d f9bd
000000b0: 6491 6a3e e0b9 9c3d 0cae fabc d81d 253f
000000c0: 99c9 bcbd e831 7a3e 763c 093d 4186 1cbe
000000d0: 619a 873e 88af f63c 22d2 87bd 60cf bd3d
000000e0: ecaf eebe b04c 8b3d af61 843e 376b e5bd
000000f0: 6724 7cbe 7eeb 8d3e c1a4 813d a9b5 6abc
00000100: f2cc 8d3e 9474 a4be 2f05 463c f3f6 13bf
00000110: eda7 e33e fbcf b13d 5a68 c43e 6caa 71be
00000120: 6d5d 96bc 2ec4 2bbe 51a1 ab3e b97a fdbe
00000130: d626 873e a769 eb3b 1165 c3bd 9171 0b3d
00000140: 73fe 723e cb96 31bf 57c9 c43e 02ee 823e
00000150: ab2c abbd 1f26 bdbe 0169 51bf b333 0b3f
00000160: 84f6 99bd 99d9 d5be 6e71 36be 46ca 5f3e
00000170: cb22 2a3d 3819 86be c0a9 193e a6d9 b63e
00000180: 4615 a4be 1ed2 e03b 7ad5 be3e d0a4 dd3e
00000190: b79b eebd ac6e efbd 59e9 53bc a02f 303d
000001a0: 2086 2a3d 488c d4be 515e 53be fc9d fc3d
000001b0: 9553 a13e 1a69 43be 0c5e e53d ce7d 573e
000001c0: 6330 6e3e d2f5 283e 878a 22be fd02 de3c
000001d0: cfd1 2f3b 4fb4 c93e c7be 6bbd 38ab 573d
000001e0: 1146 143e 7a7d 173f 3de7 8f3e 489c 4cbb
000001f0: 2da4 9b3e 0790 2f3d 46e0 3abd e741 3fbe
00000200: dbbc 593d 2efd f43b 74e7 0f3e a174 223e
00000210: 0811 af3c 4cdd ee3b b323 87be 88fe 05be
00000220: 13f4 853d d495 6abe 1e16 243c 43d9 0fbe
00000230: e5ee a23d 4041 273e b0ae 65bc 2b53 7f3e
00000240: a508 023f ae14 8abb 81a0 cbbd e368 f63d
00000250: 8a2d ca3d b552 9d3d 1d38 1ebe bc21 d2bc
00000260: 3999 d2be 2bd8 b43e 7fae b73e 38d7 e23d
00000270: 60a6 733e 1dac 3d3d 3c21 2d3e 7c78 59bc
00000280: ace3 a63b 7ced e2bd 09ba a2bd 226e 5d3e
00000290: bb3a 363e d744 f13d bf49 2a3e 6f4f 5bbe
000002a0: d455 2c3e 7dd6 82bd 7e42 98bd 89b6 4fbd
000002b0: 5e64 073e a78b 7e3e c1ca 79be 8a2d e13d
000002c0: 5924 283e b007 87bd 7c9e b53d 35d1 793e
000002d0: e454 a43e 6993 a03c 97ae ddbd 5ec4 7dbc
000002e0: af44 37b9 bd30 b23d f95d 563e b886 253e
000002f0: 6049 cfbd 072c 12be d427 643e da21 043e
00000300: 2ccc 2dbd d5a1 a33c c115 09be 3324 2e3d
00000310: 7139 df3d 1ff4 5ebe 7ba0 e1be ea51 83bd
00000320: 8b0b 15be 3c60 b4bd 153d d4be 2b71 8a3e
00000330: c24d 95bc 5f7b 22be ed35 2bbd 5f2c 843d
00000340: eb86 5a3c 2187 b23e 49c1 b8be 5097 9b3e
00000350: bae2 1b3c 755f 22be 9ea3 1cbe 85e8 62be
00000360: 4d25 a5be 83b1 cebd 3b13 8abe 7f0c 09be
00000370: a47a 7dbd fa42 943e aecc 623e cad5 543e
00000380: 31e2 a1bd 6456 82be 2592 acbc 45a7 8f3e
00000390: f35e 003d 7d4b cf3e 09a6 883d bfec 06be
000003a0: 6eda a8bd e772 423e fe32 d0be a991 5b3d
000003b0: eda6 f03d dea1 8ebe 4792 39be 64e3 a83e
000003c0: d38a 993e dacb f4bd 2ae8 8f3e 8fea 9d3e
000003d0: 9661 1c3e 814c a53e 6fd1 8abe 06de 763d
000003e0: de49 ab3e 8a00 393e 52a5 1c3e 0f2f b53e
000003f0: 3f10 90bd b469 dbbe f244 213e 4799 653e
-0.020408401 0.09584411 0.47587982 -0.42952177 -0.13283019 -0.0019646827 0.57243115 -0.3306895
0.33457965 -0.068696596 0.0100943325 -0.051614545 0.1635772 -0.025261378 0.16293538 -0.102025464
0.28576055 -0.2906102 0.11405277 0.1313146 -0.15646243 0.09132281 -0.012843254 0.10569472
0.33806428 -0.05857543 -0.17758927 0.025947671 0.33644807 -0.19156489 0.018481024 -0.12982099
0.067716874 0.08111056 -0.15551242 0.1497404 0.23750542 -0.015456115 -0.3383512 0.0387027
-0.0014527866 -0.27871454 -0.11141423 -0.12163882 0.22907025 0.0765264 -0.03060057 0.6449866
-0.09218139 0.244331 0.033504926 -0.15285589 0.2648497 0.030112997 -0.066318765 0.09268069
-0.46618593 0.06801736 0.25855777 -0.1120209 -0.24623261 0.2771873 0.063302524 -0.014325538
0.27695423 -0.32120192 0.012086197 -0.5779869 0.44464055 0.08682247 0.38360864 -0.23600167
-0.018355096 -0.16774055 0.33521512 -0.49507692 0.26396817 0.0071842256 -0.09540761 0.034043852
0.23729877 -0.69370717 0.3843486 0.2557221 -0.08358129 -0.36943147 -0.8180085 0.5437576
-0.07517722 -0.41767576 -0.17816707 0.21854505 0.041537087 -0.26191115 0.1500616 0.35712928
-0.3204748 0.0068609854 0.37272245 0.43289804 -0.11650794 -0.11691031 -0.012934052 0.04301417
0.041631818 -0.41513276 -0.20641448 0.12334821 0.3150908 -0.19083062 0.11199579 0.21044084
0.23260646 0.16500023 -0.15873156 0.027101034 0.0026827937 0.39395377 -0.057554986 0.05265352
0.14479853 0.5917584 0.28106108 -0.003122108 0.30398694 0.042861965 -0.04562404 -0.18677483
0.053158622 0.0074764704 0.14053136 0.15864803 0.021370426 0.0072895642 -0.26394424 -0.13085377
0.06540694 -0.22908717 0.010015039 -0.14047723 0.07955722 0.16333485 -0.0140186995 0.2493407
0.5079444 -0.004213891 -0.09942723 0.12031724 0.09871967 0.07681791 -0.15451093 -0.025650851
-0.41132525 0.35321173 0.35875317 0.11076206 0.23793936 0.04630672 0.16907209 -0.013273355
0.0050930586 -0.11080453 -0.0794564 0.21624044 0.17795841 0.11780708 0.16629694 -0.2141702
0.16829616 -0.06388567 -0.074345574 -0.05071119 0.13221881 0.2485796 -0.2439375 0.10995014
0.16420116 -0.06593263 0.08868119 0.24396212 0.32096016 0.01960154 -0.10824316 -0.015488712
-0.00017477827 0.08700702 0.20934285 0.16164672 -0.10121417 -0.14274608 0.22280818 0.12903538
-0.04243104 0.019974628 -0.13387205 0.04251499 0.10899628 -0.21772812 -0.4406775 -0.06412108
-0.14555185 -0.08807418 -0.41452852 0.27039465 -0.018225554 -0.15867375 -0.041799475 0.064537756
0.013337831 0.3486872 -0.36084965 0.3038888 0.009514505 -0.15856726 -0.1529679 -0.22159012
-0.3225502 -0.100924514 -0.26967797 -0.13383673 -0.061884537 0.2895735 0.22148392 0.20784679
-0.07904471 -0.25456536 -0.02106578 0.28057304 0.03134055 0.4048728 0.06672294 -0.13176249
-0.08244787 0.18989144 -0.40663904 0.05360571 0.117505886 -0.2785787 -0.18122207 0.32985985
0.29988727 -0.11952944 0.28106815 0.30843017 0.15271601 0.3228493 -0.2711291 0.06027033
0.33454794 0.18066612 0.1529744 0.35387465 -0.07034349 -0.42854083 0.15748957 0.22421752

decoder.LSTM.weight_hh_l0 f4 [256, 64]
00000000: 249c a9be e199 c03c 6d4e 2fbe 0f73 82bd
00000010: e703 d5bd 167b 13be f950 353e e281 f5be
00000020: 305d 70be 87ce ed3c 57d4 d13e 9c7f ccbe
00000030: 0303 193f acbf 90be 4a50 f33e 011d 63be
00000040: 62ca 5cbf 9622 7c3e 8441 023f 882e 853e
00000050: c6af 1a3f d1c0 a5be a2f8 e3be 6add 49bd
00000060: 402c bfbe 76d5 c33d 34fc 9fbe eee1 a7bc
00000070: 0676 823d 6f59 253e 327b 4a3d b292 043e
00000080: ec64 a93e 4fdf 923e 9fd7 4f3e 72e5 583d
00000090: 60e0 89be a26b 50bd 38a8 013f a30d 963d
000000a0: b553 b83e f254 48bf 49ef 133e ae62 d1bd
000000b0: 7aa5 273f 38b4 e4be 9c7b e13d 299a 413d
000000c0: 3918 893e 4bd9 f93e c6f8 bd3e aa9a 1dbf
000000d0: acd7 16bf 2d7a c13e 4a5d dfbc 044a 8dbe
000000e0: 9db4 ffbc df47 1fbf 26f2 d8bd d26f 5ebd
000000f0: 005a 89be ed61 9bbe 82e8 4e3e 4a93 4bbf
00000100: 31e3 183c 1565 613f 7f7a bd3d 71ec c33d
00000110: f881 f2bc bb2c 8e3e 7fb6 c03d c90a 013d
00000120: 4773 af3e 3133 febe 32ba 7dbd 9e7b 8f3e
00000130: 2327 d0bd 494c 883e 52fc 743e 5a80 253d
00000140: f201 e23c 1800 553e 6c9c ccbd e29d 28bd
00000150: 1fce aebd 2a25 8bbe f9f1 b2bd db27 84be
00000160: 914a e93e 6a4d 18bf b261 9a3e 1d7b 9b3e
00000170: 2e47 e7be 390d 67be 923f b6be 0169 283c
00000180: a2e3 883c 13d4 8abb 83cc 163d 164f d33c
00000190: 0587 09bd 5631 10be 5c25 3fbe ec0a f5bd
000001a0: e672 10be c76c d83d a35e d8bc f397 71be
000001b0: 7988 3d3d f65a 5a3e 51c8 4f3d 3866 983e
000001c0: fcab ddbd f254 39be 2459 8dbd 4567 afbe
000001d0: 7c25 583e d88e 65be 9319 a73c 0c51 70be
000001e0: 9fe4 aebd c3f5 98be 9648 79be 27b7 e8bd
000001f0: ed14 d03d cd33 cebd 2179 b0be 8f87 103e
00000200: c371 9ebe 6fd6 6e3e 089c d6bd 36fd d23e
00000210: b255 25be 689f 4fbd cf2a d53e e4ec cbbd
00000220: a133 8c3e d0cc 0abe 45f6 373d ebda 233e
00000230: ed35 ae3d 7d40 ee3e f79b fd3d 4d68 12bd
00000240: f983 d9bd 0268 9fbe bcf9 a83e 32b7 49bd
00000250: 4e66 d73c 81ea 00bf f266 06be 644e 2fbd
00000260: 5a6d 3abb 45e3 fd3d 1f42 143d 39d7 283e
00000270: 2078 6a3e 4de6 5e3d 21b7 c8be 3a3c c4ba
00000280: dbe1 1bbe 5e72 163e 91dc 853e 33bc 9c3e
00000290: 0d7f dcbe f535 0bbf db4d 8abc f253 34be
000002a0: f848 523f 0e30 9bbe 49be 06bf 4390 cdbe
000002b0: 272b 6d3e 5649 63be 369f 0ebe a16f d2bd
000002c0: 01da 863d eb2b 043e 2b5b 2ebe 3287 89be
000002d0: 95af b83e 6411 613d 03ab 3f3e e86f ebbe
000002e0: f089 80be 3162 c7be add6 d9be d9fc 6a3e
000002f0: f349 17bf dc5a 19bd b714 9dbe 988b 86b9
00000300: 548a 47bd 4d96 d5be 0331 ddbd 341b cebc
00000310: d415 07bf 47cc 95be 2e7b d43c 63e5 69be
00000320: 0031 713e 64f8 893e 9a63 4a3e ceb7 4ebe
00000330: 2a5f 853e 9d79 69bd e071 653d 9f85 d4be
00000340: ccd5 0fbe db2c dabe 5854 953e 0060 7e3d
00000350: f52e c23b 6846 1dbc 12b1 cfbe 5354 953d
00000360: 8660 20be df7d f9bc bc91 d7be c365 a43d
00000370: 1b8b 013f 98d7 a33e e158 c3bc 5071 9d3e
00000380: 1298 e7be f17e 99be 7882 713e 629b bbbd
00000390: 85b3 bbbe c764 2cbe 75b5 f23e dc66 b4bd
000003a0: 5229 983e cb49 70be 0f75 a1bd 6d2a 33be
000003b0: 634e 8f3e 8c85 55be f8d5 d6bd 1cee cd3d
000003c0: 69a3 d6be a4cc 1abe 8be8 4abe 3844 05be
000003d0: c43b 513e 2e4f 273e 77d1 923e 9d30 d0bc
000003e0: bb10 0e3e 4202 49be 4926 013f 6d47 eabc
000003f0: ddab a7be 7a5e 87be 69a1 bfbe d244 b1be
-0.33126938 0.023510875 -0.17119761 -0.06369602 -0.10401135 -0.14402422 0.1770667 -0.47950655
-0.23473048 0.029029144 0.40982315 -0.39941108 0.5977022 -0.28271234 0.47522193 -0.22179033
-0.8624631 0.24622568 0.5088122 0.26012063 0.6042446 -0.3237367 -0.4452563 -0.049283423
-0.37338448 0.09562199 -0.31247103 -0.020493474 0.063701674 0.16147397 0.049433894 0.12946585
0.3308481 0.28685996 0.20297097 0.05295319 -0.26928997 -0.050883897 0.50647306 0.0732682
0.36001363 -0.78254616 0.14446749 -0.102239 0.6548687 -0.44668746 0.11009905 0.04726616
0.26776293 0.48798594 0.37103862 -0.61564124 -0.5892284 0.37788525 -0.027266163 -0.27595532
-0.031214053 -0.6221904 -0.10593061 -0.05430586 -0.26826477 -0.3034815 0.20205882 -0.7952162
0.00933151 0.88044864 0.0925188 0.09566582 -0.02960299 0.27768502 0.09409808 0.031504426
0.34267637 -0.4964843 -0.061945148 0.28024 -0.10163715 0.266207 0.23924378 0.04040561
0.027588818 0.20800817 -0.099907726 -0.041166194 -0.08535408 -0.2717679 -0.08737559 -0.25811657
0.45564702 -0.59493124 0.3015266 0.30367365 -0.45171493 -0.22563638 -0.35595375 0.010278941
0.016710106 -0.004236707 0.03681613 0.025794547 -0.03357603 -0.1408132 -0.18666595 -0.11964974
-0.1410633 0.10567623 -0.026412314 -0.2359312 0.04627273 0.21323761 0.050728146 0.29765487
-0.10823819 -0.1809881 -0.06901768 -0.34258476 0.21108049 -0.22417772 0.020397937 -0.23468417
-0.085397 -0.29875 -0.24344096 -0.113630585 0.10160241 -0.10068474 -0.34467414 0.14114211
-0.30946168 0.23323987 -0.10478979 0.4120881 -0.16145971 -0.05068913 0.41634223 -0.09957293
0.2738314 -0.13554692 0.044912595 0.1600148 0.08506379 0.46533576 0.123832636 -0.035744
-0.10620875 -0.3113404 0.33003032 -0.049246974 0.0262939 -0.50357825 -0.13125208 -0.04279937
-0.0028446526 0.12396864 0.03619587 0.16488351 0.22897387 0.05441885 -0.39202216 -0.0014971562
-0.15222876 0.14692065 0.2614484 0.30612335 -0.43065682 -0.54379207 -0.016882828 -0.17610148
0.8214259 -0.303101 -0.526341 -0.40149125 0.23160993 -0.22195944 -0.13927922 -0.10275198
0.0658455 0.12907378 -0.17026965 -0.26860958 0.36071458 0.054948226 0.1871758 -0.45983815
-0.25105238 -0.38942102 -0.42546597 0.22948016 -0.5909721 -0.037440166 -0.30679867 -0.00025662477
-0.048715904 -0.41716233 -0.10800364 -0.025159456 -0.5276768 -0.29257414 0.025937643 -0.2284141
0.23553848 0.2694732 0.19764557 -0.20187303 0.26049167 -0.057000745 0.056016803 -0.41508195
-0.14046401 -0.42612347 0.29165912 0.06210327 0.005926008 -0.009599306 -0.4056478 0.07291474
-0.15661821 -0.030455528 -0.42103374 0.08027222 0.50602883 0.32000422 -0.023846092 0.30750513
-0.45233208 -0.2997966 0.23584926 -0.09160496 -0.366604 -0.16835319 0.47404066 -0.08808681
0.29719025 -0.2346565 -0.07883655 -0.17496653 0.27989492 -0.20851725 -0.1049003 0.100551814
-0.41921547 -0.15117127 -0.1981527 -0.13014305 0.20432955 0.16338798 0.28675434 -0.025413806
0.1387357 -0.19629768 0.50449044 -0.028598512 -0.3274831 -0.26439267 -0.37427834 -0.34622818
